best_model.pt (torch, 143970 bytes, 27 tensors)

gat1.att_src f4 [1, 4, 64]
0	0x3e18f9f7	0.14939104
1	0xbcafa43b	-0.021440616
2	0xba9690ae	-0.001148721
3	0x3e812d76	0.25229996
4	0xbdce9db6	-0.10088675
5	0xbe14aab0	-0.14518237
6	0xbc964f40	-0.018348336
7	0x3e35bef6	0.17748627
8	0xbe88e891	-0.26739934
9	0xbc6f2954	-0.014597256
10	0x3c9b98ab	0.018993696
11	0x3e677a59	0.22605266
12	0xbdb66d2b	-0.08907541
13	0xbe843ab2	-0.2582603
14	0xbd8d52ec	-0.06900582
15	0xbe963d6a	-0.2934373
16	0x3e926297	0.28590843
17	0x3d3f24c6	0.04666593
18	0x3c8856d4	0.016642965
19	0x3e80dad1	0.25166944
20	0xbe09ae40	-0.13445377
21	0x3e85b624	0.26115525
22	0x3e0e77fe	0.13912961
23	0xbe0dfa6d	-0.13865061
24	0x3e95b7c6	0.2924177
25	0xbe9148ad	-0.2837576
26	0xbdcbbb9a	-0.099478915
27	0x3e8f8654	0.28032172
28	0x3cd7c986	0.026341211
29	0x3d0e949d	0.034809697
30	0xbe99f83b	-0.30072197
31	0x3e5cf46f	0.21577619
32	0x3e7931b3	0.24335365
33	0x3d161287	0.036638763
34	0x3d1aa144	0.03775145
35	0x3e91e98e	0.284985
36	0xbdc355ff	-0.09537887
37	0x3d757f93	0.059936117
38	0xbe0455f0	-0.12923408
39	0x3df37185	0.118868865
40	0x3e506b47	0.20353423
41	0xbddc2b3b	-0.10750433
42	0x3e8db455	0.27676645
43	0x3dbe35f3	0.09287634
44	0x3e5a1a51	0.21299101
45	0x3c340eb0	0.01098983
46	0x3d5e6294	0.05429323
47	0x3c15510e	0.009113563
48	0xbdaa4583	-0.083140396
49	0x3da6d93b	0.08146902
50	0xbe85fd02	-0.26169592
51	0xbe995d30	-0.2995391
52	0xbe98677e	-0.29766458
53	0xbc43f55f	-0.0119603565
54	0x3e6f60cd	0.2337677
55	0x3e911320	0.28334904
56	0x3d9509f4	0.07277289
57	0x3e6791f2	0.22614267
58	0xbe840d56	-0.25791425
59	0x3e5f8b5b	0.21830504
60	0xbe7bee29	-0.2460257
61	0x3e8bbd5f	0.27292916
62	0x3e8f08af	0.27936313
63	0x3e08ec03	0.13371281
64	0xbe672124	-0.22571236
65	0x3e5de8e1	0.21670868
66	0x3da360f9	0.079774804
67	0x3e453ed4	0.19262248
68	0x3e1f35f8	0.15547931
69	0xbe775cac	-0.24156445
70	0xbc820ce8	-0.015875295
71	0x3dc0a0e3	0.09405687
72	0x3e2236ee	0.15841267
73	0x3e061da4	0.13097245
74	0xbe921742	-0.2853337
75	0xbc7db9e0	-0.015486211
76	0xbe88e261	-0.26735213
77	0x3da5c7e1	0.080947645
78	0xbe929ea7	-0.28636667
79	0x3c8ee751	0.017444285
80	0x3e8d02c3	0.2754117
81	0x3adeb8d0	0.0016992334
82	0x3e48a6f8	0.19594944
83	0xbe924198	-0.2856567
84	0xbdbf4fac	-0.09341368
85	0x3dcbee70	0.09957588
86	0xbde8595c	-0.11345169
87	0xbe404890	-0.1877768
88	0xbd698930	-0.057015598
89	0x3da011a8	0.07815868
90	0x3e5ee530	0.21767116
91	0xbe8bd98f	-0.27314422
92	0xbe9186b4	-0.28423083
93	0xbde9d2b6	-0.11417143
94	0xbe7b493a	-0.24539652
95	0xbe6a9a00	-0.22910309
96	0xbe8ad058	-0.2711208
97	0x3dea57d2	0.11442532
98	0xbe7e3731	-0.24825741
99	0x3dc9a635	0.098461546
100	0xbc2adc3c	-0.0104284845
101	0xbd516aa2	-0.051127084
102	0xbdc0b7e6	-0.09410076
103	0x3e614596	0.21999201
104	0x3e684dcd	0.22685929
105	0x3e4ba326	0.19886455
106	0x3b9750a6	0.0046177683
107	0xbe710671	-0.23537613
108	0x3e024fa3	0.12725691
109	0xbe837298	-0.25673366
110	0xbe01d9d1	-0.12680747
111	0xbe664b81	-0.2248974
112	0x3e98d642	0.29850966
113	0x3c113f03	0.008865121
114	0xbd1038b3	-0.035210323
115	0x3d4d7bb0	0.050166786
116	0xbc9181db	-0.017762115
117	0x3e809e5c	0.2512082
118	0xbdb44a44	-0.088032275
119	0xbdd9c163	-0.10632589
120	0xbd24dc33	-0.04024906
121	0xbcf485a3	-0.02984888
122	0x3dbf058e	0.09327231
123	0x3c303dc1	0.010756911
124	0x3e436135	0.1908005
125	0x3e8f8ffe	0.28039545
126	0x3b89eff8	0.0042095147
127	0x3e1159dd	0.14194436
128	0x3e435956	0.19077048
129	0x3db75c66	0.089531705
130	0xbe8e8b23	-0.27840528
131	0xbddf2214	-0.10895172
132	0x3e59527f	0.21222876
133	0xbe1cc024	-0.15307671
134	0x3dbd31e0	0.092380285
135	0x3ba9ec0d	0.00518561
136	0xbe05316a	-0.13007131
137	0xbd10b3cb	-0.035327714
138	0xbe3c5f7a	-0.18395796
139	0xbe999254	-0.29994452
140	0xbc79ed8c	-0.0152543895
141	0x3d9fd9c1	0.07805205
142	0x3e9276d1	0.28606275
143	0x3e951508	0.29117608
144	0x3d9f34cf	0.07773744
145	0xbe6961b2	-0.22791174
146	0x3debfaeb	0.11522468
147	0x3d313b8c	0.04326968
148	0xbe669cba	-0.22520724
149	0xbe35ac6f	-0.1774156
150	0xbe8ca502	-0.2746964
151	0x3e05079b	0.12991183
152	0x3e63085b	0.22171156
153	0xbd400a20	-0.046884656
154	0x3e8e4c01	0.2779236
155	0xbe5443f2	-0.20729044
156	0xbe7f26ea	-0.24917188
157	0xbe8750ec	-0.26428926
158	0x3dbec9b3	0.09315815
159	0xbe2f301a	-0.17108193
160	0x3dc3967e	0.095501885
161	0x3d918312	0.07105078
162	0x3e078231	0.13233258
163	0x3e932c92	0.28744942
164	0x3c364ce2	0.011126729
165	0xbe2f66d8	-0.17129076
166	0xbd92d35a	-0.07169218
167	0x3e3ae1ad	0.18250151
168	0xbd5966c4	-0.05307652
169	0x3cd8ca01	0.02646351
170	0x3e93e6f6	0.28887147
171	0x3d657535	0.05601998
172	0x3e1eca0c	0.15506762
173	0xbe89ea72	-0.2693668
174	0x3c3c1a24	0.011480842
175	0x3d41b4f3	0.047291707
176	0xbd43b65d	-0.047781337
177	0x3d857cb1	0.065179236
178	0xbcc82a10	-0.02443412
179	0x3c268929	0.0101645375
180	0xbe3bfe9e	-0.18358847
181	0xbe018623	-0.12648825
182	0x3dc260c5	0.094911136
183	0x3deef700	0.11668205
184	0xbde0f8bf	-0.109849446
185	0xbe061628	-0.1309439
186	0xbe010f6e	-0.12603542
187	0xbda6a5d2	-0.081370965
188	0x3e0dfe89	0.13866629
189	0x3ddda1a4	0.10821846
190	0x3e066d4f	0.13127635
191	0x3e76928c	0.2407934
192	0xbe76a174	-0.24085027
193	0x3e26bd22	0.16283086
194	0x3d2265f4	0.03964801
195	0x3e8702e7	0.26369402
196	0xbd8ee8cf	-0.069779985
197	0x3e8c37ae	0.2738623
198	0xbda42af4	-0.08016005
199	0xbd90ad64	-0.07064322
200	0xbe727d53	-0.2368062
201	0xbe657b42	-0.224103
202	0xbe72db93	-0.23716573
203	0xbe83ea75	-0.25764814
204	0x3e491a5d	0.19638963
205	0x3e7790da	0.2417635
206	0x3d41a30a	0.047274627
207	0x3e465865	0.19369657
208	0xbe8a0553	-0.26957187
209	0x3a1521a4	0.0005688912
210	0xbe4024a2	-0.18763974
211	0xbda07fec	-0.07836899
212	0x3e8d2a58	0.27571368
213	0x3e3e235c	0.18568176
214	0xb9bbc2dd	-0.00035812604
215	0x3e109eb5	0.14123042
216	0x3df6c2c9	0.12048871
217	0x3e07432d	0.1320922
218	0xbe3c5291	-0.18390872
219	0xbe6bd641	-0.2303095
220	0x3de2c480	0.11072636
221	0xbc8197c1	-0.015819432
222	0xbe730adf	-0.23734616
223	0xbe6d8686	-0.23195848
224	0x3e902cae	0.28159088
225	0xbe87ed45	-0.2654821
226	0xbbf933b3	-0.00760504
227	0xbe204e9f	-0.15654992
228	0xbe0fca91	-0.14042117
229	0x3e5d411f	0.21606873
230	0x3deb51cb	0.1149021
231	0xbe8f5845	-0.27997032
232	0xbdc98252	-0.0983931
233	0xbd2e9346	-0.04262092
234	0x3d7fb7ef	0.062431272
235	0xbe055354	-0.13020068
236	0xbcc581d8	-0.024109766
237	0x3dd570d9	0.104219146
238	0xbd8e2af7	-0.06941789
239	0x3e2b7ae8	0.16746104
240	0x391f5d86	0.00015198262
241	0x3dc720f9	0.09723086
242	0x3e6f3a45	0.23362072
243	0xbd2d0a5b	-0.042246204
244	0xbe661b88	-0.2247144
245	0x3cf884c4	0.030336745
246	0xbe63e83e	-0.22256562
247	0xbe6f2645	-0.23354442
248	0xbe9491cb	-0.2901748
249	0x3e9109ad	0.28327695
250	0x3e8d8943	0.27643785
251	0x3e769ab4	0.24082452
252	0x3e35c8dc	0.17752403
253	0xbdfa3835	-0.12217752
254	0x3e6cfd38	0.2314347
255	0x3dbf4165	0.09338645

gat1.att_dst f4 [1, 4, 64]
0	0xbe4b05fe	-0.19826505
1	0x3e8c6053	0.2741724
2	0xbda9427e	-0.082646355
3	0xbe4ecda3	-0.20195632
4	0x3ba163e5	0.0049252384
5	0xbdfe357f	-0.12412547
6	0x3dc9a52d	0.09845958
7	0xbd0570a4	-0.032578126
8	0x3db0f856	0.08641116
9	0xbd92bd36	-0.07164995
10	0xbd5769a8	-0.052590996
11	0x3e1a3d4b	0.15062444
12	0xbcf5a7e3	-0.029987281
13	0x3db51058	0.08841008
14	0xbe8f7fd4	-0.28027213
15	0x3e48d087	0.19610797
16	0xbd8d1f9e	-0.06890796
17	0xbdd6c074	-0.10485926
18	0x3dfac9e0	0.12245536
19	0x3e43faae	0.19138595
20	0xbe747f5a	-0.23876706
21	0x3dfa0dd2	0.12209667
22	0xbcf2ccb4	-0.029638626
23	0x3da62bda	0.08113833
24	0x3e1c2c53	0.15251283
25	0x3bedffcc	0.0072631594
26	0xbe61456e	-0.21999142
27	0xbcb81972	-0.02247307
28	0xbde9737d	-0.11398981
29	0x3d9502a9	0.07275898
30	0x3e2788f4	0.16360837
31	0xbc37244b	-0.0111780865
32	0xbdc063d1	-0.093940385
33	0xbe78a646	-0.24282178
34	0x3db01975	0.085986055
35	0xbd077ed2	-0.03307993
36	0xbe719716	-0.23592791
37	0xbe29384c	-0.16525382
38	0x3d469973	0.048486184
39	0xbc369a1a	-0.011145139
40	0x3e8166de	0.25273794
41	0x3e3ec921	0.18631412
42	0x3e1811c7	0.14850532
43	0x3da0ac45	0.07845358
44	0x3e92fb12	0.28707176
45	0x3d79faad	0.06103008
46	0xbddbf22e	-0.107395515
47	0xbe217a26	-0.15769252
48	0xbe1c8447	-0.15284835
49	0xbd4f1568	-0.050557524
50	0xbcc145cf	-0.023592858
51	0xbdf18d5d	-0.11794541
52	0x3cd7b5e6	0.026331853
53	0xbdc39a27	-0.095508866
54	0xbd81121a	-0.06302281
55	0x3dfc872e	0.12330471
56	0xbd761ba1	-0.060084943
57	0xbe848782	-0.25884634
58	0xbe074a64	-0.13211972
59	0x3da71ed8	0.0816018
60	0xbe4d78da	-0.20065632
61	0xbdc1dbb3	-0.094657324
62	0x3d242b12	0.040080138
63	0xbe34ea37	-0.17667471
64	0x3e321dd6	0.17394194
65	0x3e8e7015	0.27819887
66	0x3d884644	0.06654027
67	0xbe70959e	-0.23494574
68	0xbcdf8cb9	-0.027288781
69	0x3e0dc5f5	0.13845046
70	0x3d44824c	0.047975823
71	0x3d3375b1	0.04381341
72	0xbe52e3a6	-0.20594653
73	0xbe276c32	-0.16349867
74	0x3e8f954d	0.28043595
75	0x3daf412b	0.08557352
76	0xbd7f97f9	-0.06240079
77	0x3e631e58	0.22179544
78	0x3c2b227d	0.010445234
79	0x3e5f11c6	0.21784124
80	0x3d84df38	0.06487888
81	0x3d0613e9	0.03273383
82	0x3d240eac	0.040053055
83	0xbe93a34c	-0.28835523
84	0xbe354cb1	-0.17705037
85	0x39812365	0.00024631168
86	0xbe871839	-0.26385668
87	0x3e748ed7	0.23882614
88	0x3e402614	0.18764526
89	0x3d238184	0.039918438
90	0xbe921781	-0.28533557
91	0xbca40e6a	-0.020026404
92	0x3dd06da5	0.10177163
93	0x3e0dfda8	0.13866293
94	0xbdf64c19	-0.12026233
95	0xbe296d61	-0.16545631
96	0xbe76a034	-0.2408455
97	0xbd840282	-0.06445791
98	0xbe2c2f90	-0.16815019
99	0x3c8dfd45	0.017332682
100	0xbe98d642	-0.29850966
101	0xbe46f0e8	-0.19427836
102	0x3dda9f09	0.10674865
103	0xbe74b4d1	-0.23897101
104	0x3d1784b8	0.036991805
105	0xbe49daa5	-0.19712313
106	0x3e4d07ea	0.2002255
107	0x3e83e920	0.25763798
108	0xbe95621c	-0.29176414
109	0xbd730018	-0.05932626
110	0x3cee6fc3	0.029106027
111	0x3e24765a	0.16060773
112	0xbd233fb4	-0.039855674
113	0x3e3875c9	0.18013681
114	0x3e316dfb	0.1732711
115	0x3e69f949	0.22849001
116	0xbe0e0013	-0.13867216
117	0x3cbcc929	0.02304514
118	0x3d2f2d86	0.042768024
119	0xbbb9ee5a	-0.0056741657
120	0x3de18244	0.11011174
121	0xbb77319f	-0.0037718785
122	0xbdca799d	-0.09886477
123	0x3cc48684	0.023989923
124	0xbe6f14f6	-0.2334784
125	0x3d98d341	0.074621685
126	0x3ceabaed	0.028653586
127	0xbdef3974	-0.1168088
128	0xbe8d4b4a	-0.27596503
129	0xbb63629b	-0.0034696225
130	0xbe10931c	-0.14118618
131	0x3e79453a	0.24342814
132	0x3e09aad1	0.13444068
133	0xbce687e8	-0.028140977
134	0xbd13e0c5	-0.03610303
135	0x3dfdd5f0	0.12394321
136	0xbe5e7870	-0.21725631
137	0xbe60d9d5	-0.21958096
138	0x3e0c1efe	0.13683698
139	0x3e37a474	0.17933828
140	0x3e153b02	0.14573291
141	0x3e23fca5	0.16014345
142	0x3d885fa7	0.06658869
143	0xbdce53ca	-0.10074575
144	0xbd7afd09	-0.06127647
145	0x3e9758fd	0.2956008
146	0x3e2e6be9	0.17033352
147	0xbcc5332b	-0.02407225
148	0xbc260233	-0.01013236
149	0xbe934612	-0.28764397
150	0xbe8c20b7	-0.2736871
151	0x3d01f399	0.031726453
152	0xbdbf73ee	-0.09348284
153	0xbe4bc59b	-0.19899599
154	0xbe02c9a6	-0.12772235
155	0xbd4d7889	-0.05016378
156	0xbdf8651e	-0.121286616
157	0x3de868c8	0.113481104
158	0x3e8c7189	0.2743037
159	0x3e670b08	0.22562802
160	0xbe7cbac6	-0.24680623
161	0x3d5c8ec9	0.053847108
162	0x3e312481	0.17299081
163	0xbdc6256a	-0.09675105
164	0x3d63a311	0.055575434
165	0xbd258898	-0.04041347
166	0xbe3a81dd	-0.18213601
167	0x3de486f2	0.11158551
168	0x3e8e1837	0.2775285
169	0x3db99bb1	0.09062899
170	0xbe344482	-0.17604259
171	0xbdb9e61e	-0.090770945
172	0xbe9964ab	-0.29959616
173	0xbe1079c2	-0.14108947
174	0x3e7f89c3	0.24954896
175	0xbe62476b	-0.22097556
176	0x3c919b3e	0.01777422
177	0xbdc3e7a7	-0.095656686
178	0xbe59d653	-0.21273164
179	0xbe656aa1	-0.22403957
180	0x3ded1c62	0.11577679
181	0x3b9063f9	0.004406449
182	0xbd2b676c	-0.041846678
183	0x3dbf63d8	0.093452156
184	0x3e19d2e9	0.15021862
185	0xbda9fd4d	-0.083002664
186	0x3e8ba0f4	0.27271235
187	0x3e14d5a5	0.14534624
188	0xbe814f2f	-0.25255725
189	0xbe3406cc	-0.17580718
190	0x3e8cf3ac	0.27529657
191	0xbe2f0afb	-0.17094032
192	0x3e6132a4	0.21991974
193	0x3e583225	0.21112879
194	0xbe81feae	-0.25389618
195	0xbe93907e	-0.28821176
196	0xbe44e8f0	-0.19229484
197	0xbe8ff0a3	-0.2811328
198	0xbd79b990	-0.06096798
199	0xbd58da93	-0.052942824
200	0xbe8dfb31	-0.27730706
201	0x3e5df0d2	0.21673897
202	0x3d9f1f30	0.077696204
203	0xbd8629c6	-0.065509364
204	0x3e16e9a4	0.14737564
205	0xbe93000b	-0.2871097
206	0xbd10419e	-0.035218827
207	0x3c035243	0.008015218
208	0x3e72395c	0.23654693
209	0x3dbb2d40	0.0913949
210	0xbd246d90	-0.04014355
211	0xbe90d437	-0.28286907
212	0x3d4472c8	0.047961026
213	0x3ddae15f	0.106875174
214	0x3db3fbf7	0.08788293
215	0xbe047ba9	-0.12937798
216	0xbd9dcdc9	-0.07705266
217	0x3d537968	0.051629454
218	0x3e92d0ce	0.2867493
219	0x3e435b97	0.19077908
220	0x3e933d04	0.2875749
221	0x3e8d9255	0.27650705
222	0xbe346717	-0.1761745
223	0xbdea16de	-0.11430143
224	0x3d5f539f	0.054523107
225	0xbe917aa1	-0.2841387
226	0xbca22c7a	-0.019796599
227	0x3d7fd834	0.062462047
228	0xbe86bc2d	-0.26315442
229	0xbdacb70a	-0.084333494
230	0xbe50e06b	-0.20398109
231	0x3d9bae36	0.076015875
232	0x3e735666	0.23763427
233	0x3e001b20	0.12510347
234	0xbd2961fd	-0.041353215
235	0xbdf0b1a8	-0.11752635
236	0x3e0578ef	0.13034414
237	0xbdf8beb1	-0.121457465
238	0x3cf69b52	0.03010336
239	0xbe34c1f5	-0.17652114
240	0xbe07a796	-0.13247523
241	0x3e529050	0.20562863
242	0xbe85f5d7	-0.26164123
243	0xbe63dd71	-0.22252442
244	0xbd10efbe	-0.035384886
245	0xbb2f0acc	-0.0026709316
246	0xbe07ad7e	-0.13249776
247	0x3ceaec1b	0.028677037
248	0x3e61b6f7	0.22042452
249	0xbe866ff7	-0.26257297
250	0x3e101cf5	0.14073546
251	0xbe4da4d5	-0.2008241
252	0xbe12b02f	-0.14325021
253	0x3d92ba2c	0.07164416
254	0x3d83265a	0.06403799
255	0x3dc5c157	0.09656017

gat1.bias f4 [256]
0	0xb720f246	-9.593152e-06
1	0x36da01f5	6.497134e-06
2	0x361e09b7	2.354949e-06
3	0xb62e5ab2	-2.5980812e-06
4	0x3673a2a1	3.6304484e-06
5	0x36b775ec	5.467553e-06
6	0x367265bd	3.612003e-06
7	0xb62ff2b2	-2.62183e-06
8	0x36c1691f	5.764086e-06
9	0xb6b10ff6	-5.276869e-06
10	0x3541f150	7.224926e-07
11	0xb5bc30a1	-1.4021244e-06
12	0xb5270b43	-6.2228736e-07
13	0x3657330d	3.2067212e-06
14	0xb4cacbad	-3.7773626e-07
15	0xb6de8f2d	-6.6327834e-06
16	0xb60663a2	-2.002555e-06
17	0x372bf184	1.02486265e-05
18	0x358b08a2	1.035882e-06
19	0xb70413f5	-7.87246e-06
20	0xb2f8ee0a	-2.8979247e-08
21	0xb59898e7	-1.1369383e-06
22	0x375d271e	1.3181734e-05
23	0x3708f998	8.164345e-06
24	0xb61e2c8e	-2.356977e-06
25	0x36a49043	4.904375e-06
26	0x342ef18e	1.629289e-07
27	0x368719bb	4.026309e-06
28	0x358c1606	1.0437222e-06
29	0xb70014a5	-7.634201e-06
30	0x358426ca	9.846055e-07
31	0xb53d77b3	-7.058217e-07
32	0x35174319	5.6349523e-07
33	0x3503acc8	4.905273e-07
34	0xb61165b5	-2.1665885e-06
35	0xb39dc0e8	-7.345972e-08
36	0xb63df54e	-2.830598e-06
37	0x363ae425	2.7848957e-06
38	0x36b30bd9	5.335995e-06
39	0x361afe70	2.309589e-06
40	0xb8153de0	-3.5581994e-05
41	0x3678744a	3.702257e-06
42	0xb767d58a	-1.3818391e-05
43	0x36087570	2.0333937e-06
44	0x34aafafa	3.1847577e-07
45	0x3704bf85	7.912405e-06
46	0xb767df47	-1.3820659e-05
47	0x371d0dbd	9.361128e-06
48	0xb606423e	-2.0006114e-06
49	0xb5406000	-7.166527e-07
50	0x3543d70f	7.295611e-07
51	0xb6a023c5	-4.7725357e-06
52	0xb68bf598	-4.1711137e-06
53	0xb60f13d2	-2.1320197e-06
54	0xb5afa52a	-1.3086585e-06
55	0xb6f66eee	-7.344285e-06
56	0xb510f7b5	-5.400464e-07
57	0x34df451e	4.1587276e-07
58	0xb66d6839	-3.5376418e-06
59	0x35365726	6.79271e-07
60	0x36d76d88	6.4202504e-06
61	0x356309d2	8.457838e-07
62	0xb7ac0241	-2.0505047e-05
63	0xb65f2fff	-3.3257527e-06
64	0x37357f27	1.0818046e-05
65	0xb75048a4	-1.2414679e-05
66	0x36573751	3.2069695e-06
67	0xb7045ae3	-7.888974e-06
68	0x363ec0c2	2.8424406e-06
69	0x3606aa9b	2.0066861e-06
70	0x361903e9	2.2801053e-06
71	0xb77fe17a	-1.5251682e-05
72	0xb81685b6	-3.5887315e-05
73	0xb6613429	-3.3557974e-06
74	0x37a05453	1.9112753e-05
75	0xb6d8b95d	-6.4588808e-06
76	0xb6e53ce8	-6.8318222e-06
77	0xb50a22e6	-5.145979e-07
78	0x376bdad3	1.40580405e-05
79	0xb84d2ab5	-4.8915583e-05
80	0xb61d833d	-2.3471214e-06
81	0x3626c18f	2.4848594e-06
82	0xb71bce36	-9.286732e-06
83	0x363999dd	2.7656708e-06
84	0x3648d9a1	2.9929e-06
85	0x36677482	3.4489499e-06
86	0xb7405c72	-1.1465616e-05
87	0xb64d73da	-3.0614815e-06
88	0x35aefcf2	1.3037627e-06
89	0x3619aaee	2.289827e-06
90	0xb4a77663	-3.1192312e-07
91	0x36f19a07	7.200291e-06
92	0x35a201bb	1.2070444e-06
93	0xb5ea6146	-1.7462669e-06
94	0xb6712606	-3.593393e-06
95	0xb6de7b27	-6.6304524e-06
96	0x36fb39c3	7.4871073e-06
97	0xb8565daa	-5.1108807e-05
98	0xb610547c	-2.1506848e-06
99	0xb6efb522	-7.1438417e-06
100	0xb6a6f256	-4.975397e-06
101	0xb7e92ecf	-2.7797561e-05
102	0x368a268e	4.117209e-06
103	0xb68b9e0c	-4.160922e-06
104	0xb6a69d3f	-4.9654914e-06
105	0x3602528c	1.9419558e-06
106	0x3708d2f1	8.155345e-06
107	0xb82f96ed	-4.1863812e-05
108	0xb66e8e55	-3.5547612e-06
109	0xb65ad2da	-3.2607263e-06
110	0x35f51e53	1.8262748e-06
111	0xb7014544	-7.705126e-06
112	0xb53ff6c5	-7.151214e-07
113	0x3552aacf	7.8479655e-07
114	0x35be3a4e	1.4173072e-06
115	0x364ce183	3.0529634e-06
116	0x3597042e	1.1251593e-06
117	0x351a8329	5.7560334e-07
118	0x37507eba	1.2427272e-05
119	0x3781350b	1.5402698e-05
120	0x3605a47a	1.9914282e-06
121	0xb6e1d626	-6.7304527e-06
122	0xb7b82d9c	-2.1955748e-05
123	0x36802d4e	3.8199714e-06
124	0xb68c32aa	-4.178223e-06
125	0x3689ce06	4.1069025e-06
126	0xb613b5c3	-2.2010506e-06
127	0xb51fcf37	-5.9533653e-07
128	0xb6b467b0	-5.376489e-06
129	0x3694c31b	4.433457e-06
130	0xb5876551	-1.0087771e-06
131	0x3708577a	8.126599e-06
132	0xb68620b3	-3.997318e-06
133	0x368622ac	3.9975475e-06
134	0xb5c40f91	-1.4607668e-06
135	0x370e1cec	8.4705935e-06
136	0x3558da1b	8.0783656e-07
137	0xb60d7ef4	-2.1084534e-06
138	0x358a07d5	1.0284081e-06
139	0x35c150c0	1.4403122e-06
140	0xb77c08fd	-1.5022463e-05
141	0xb5a9e2cc	-1.2657488e-06
142	0x358f20e4	1.0663903e-06
143	0xb5881472	-1.013874e-06
144	0x36958515	4.456039e-06
145	0x357870d7	9.2551403e-07
146	0xb6de0f67	-6.6179086e-06
147	0xb6b01ac8	-5.2483265e-06
148	0x35be5826	1.4181758e-06
149	0x36ddf31f	6.6146163e-06
150	0x35a91bb1	1.259954e-06
151	0xb62620c9	-2.475501e-06
152	0xb64d3512	-3.0578271e-06
153	0xb6c863ce	-5.9720833e-06
154	0xb5a0b34b	-1.197311e-06
155	0x35a9b824	1.2645073e-06
156	0xb7f5d54e	-2.9305604e-05
157	0xb6686998	-3.4632158e-06
158	0x36b185b0	5.2905743e-06
159	0xb7f8d9da	-2.9665349e-05
160	0xb78020ce	-1.5274065e-05
161	0x38978831	7.225609e-05
162	0x358e866e	1.0618949e-06
163	0xb58f2ab4	-1.0666758e-06
164	0x3593b375	1.1004582e-06
165	0x3624fcc5	2.4585036e-06
166	0xb69f3127	-4.7442913e-06
167	0xb564b319	-8.519724e-07
168	0x364160c2	2.8815562e-06
169	0xb62f2cef	-2.6103187e-06
170	0x356b62d2	8.7688124e-07
171	0xb5871a5c	-1.0065955e-06
172	0xb5b4e484	-1.3477552e-06
173	0xb528f6c4	-6.294397e-07
174	0xb6543ad4	-3.1624704e-06
175	0xb64d1262	-3.055808e-06
176	0xb75d241d	-1.3181035e-05
177	0x35439f7a	7.287523e-07
178	0x35cc0b31	1.5202442e-06
179	0x36f8b891	7.4124623e-06
180	0x3704ddf9	7.919495e-06
181	0x363e663e	2.837172e-06
182	0xb5d8fbaf	-1.6166504e-06
183	0xb602db6e	-1.9499234e-06
184	0xb52d475b	-6.455136e-07
185	0x3442472f	1.8093554e-07
186	0x36d6cd2b	6.4015817e-06
187	0xb72d1ea7	-1.031874e-05
188	0x37d00cc1	2.4801471e-05
189	0x35de36e4	1.6556264e-06
190	0x33fd716f	1.1801864e-07
191	0xb6793090	-3.7132158e-06
192	0xb62a1154	-2.534206e-06
193	0xb4f5322a	-4.5671305e-07
194	0x34e8c9ba	4.3360143e-07
195	0xb629bb87	-2.5292118e-06
196	0xb621e92d	-2.4126596e-06
197	0x370a0927	8.227572e-06
198	0xb7f65850	-2.9366609e-05
199	0xb707d544	-8.096282e-06
200	0xb59cd5e0	-1.1685152e-06
201	0xb6a28fa0	-4.8446964e-06
202	0x3649c31f	3.006491e-06
203	0x35b55590	1.3510453e-06
204	0xb6cd9853	-6.127209e-06
205	0xb5e48d94	-1.7028528e-06
206	0x351216ab	5.4422225e-07
207	0xb5cd909b	-1.5315776e-06
208	0x367251fb	3.610853e-06
209	0x361923d1	2.2819625e-06
210	0xb73f7674	-1.1412067e-05
211	0x36413346	2.8789086e-06
212	0xb6714a55	-3.5955065e-06
213	0xb6a8049a	-5.007326e-06
214	0xb796b08e	-1.7963608e-05
215	0x38166353	3.585529e-05
216	0x374b942f	1.2134245e-05
217	0x36f81c59	7.394276e-06
218	0xb3da5572	-1.01669585e-07
219	0x374462a4	1.1705477e-05
220	0xb561a8d7	-8.4064726e-07
221	0xb71454dd	-8.841246e-06
222	0xb7a389e4	-1.9495325e-05
223	0x3722a389	9.694028e-06
224	0xb6f44744	-7.280063e-06
225	0x36282cf0	2.5060108e-06
226	0xb829456b	-4.035739e-05
227	0x3730e3b4	1.0543434e-05
228	0xb6b4672b	-5.3764284e-06
229	0xb6305ae5	-2.6278951e-06
230	0xb538ec0a	-6.8888824e-07
231	0x3652366a	3.1324112e-06
232	0xb4aaeabf	-3.1835768e-07
233	0x37dca68d	2.63036e-05
234	0x3619a4d0	2.289471e-06
235	0xb80a0878	-3.290965e-05
236	0x35852ba0	9.921969e-07
237	0xb62cf862	-2.5774575e-06
238	0x38011f8d	3.078538e-05
239	0x34de8ba8	4.1452336e-07
240	0x362cd979	2.5756583e-06
241	0xb6a03f2e	-4.7757267e-06
242	0xb539bc17	-6.919158e-07
243	0xb6372106	-2.7288347e-06
244	0xb8a5d909	-7.908239e-05
245	0xb78b808a	-1.6629947e-05
246	0x364aff81	3.0249068e-06
247	0x37747538	1.4570825e-05
248	0xb3aa4a3c	-7.929745e-08
249	0xb6359a7e	-2.7061028e-06
250	0xb782ca05	-1.559128e-05
251	0x362cf778	2.5774043e-06
252	0xb6031641	-1.9533475e-06
253	0xb698e2e8	-4.5563684e-06
254	0xb68b7afd	-4.1568405e-06
255	0x36e0ef00	6.7035435e-06

gat1.lin.weight f4 [256, 7]
0	0xbcbce9e8	-0.023060754
1	0x3e03521a	0.12824288
2	0xbd1b6638	-0.03793928
3	0x3e0204dc	0.12697166
4	0x3d8b692a	0.06807168
5	0x3e078cdd	0.13237329
6	0x3d7466bb	0.059668284
7	0xbcdc1ab7	-0.026868207
8	0xbc9ecdc3	-0.019385224
9	0xbdcd566e	-0.10026251
10	0x3e1b1855	0.15146
11	0x3da70204	0.08154681
12	0x3d08f49e	0.03343641
13	0x3dbcf743	0.09226849
14	0xbd03e5d6	-0.03220161
15	0xbddb2197	-0.10699766
16	0xbbac7ad0	-0.005263664
17	0xbdc954a3	-0.09830596
18	0xbde90f27	-0.11379843
19	0xbe078005	-0.1323243
20	0x3dd129b2	0.10213031
21	0xbcc9ec61	-0.024648847
22	0xbd7bd1a3	-0.061479222
23	0xbd528de4	-0.05140485
24	0x3e085f93	0.13317709
25	0xbdf86b7d	-0.12129877
26	0xbdf87af9	-0.1213283
27	0xbdbef3fd	-0.09323881
28	0x3bc2618c	0.0059320386
29	0x3d69838b	0.057010215
30	0xbcfff862	-0.031246368
31	0x3d3e34a8	0.046436936
32	0xbc2647ff	-0.010149001
33	0x3df4302d	0.11923251
34	0xbc164c04	-0.009173397
35	0x3dd0e7b6	0.10200445
36	0x3da3bca7	0.07994967
37	0xbd05610e	-0.03256326
38	0xbd303ed8	-0.043028682
39	0x3d383724	0.04497446
40	0xbe032fc5	-0.12811191
41	0xbdf9d1e2	-0.12198235
42	0xbdcdf679	-0.100567766
43	0x3d824d43	0.06362393
44	0xbdf288f5	-0.11842529
45	0x3dda49d4	0.10658613
46	0xbd903c41	-0.070427425
47	0xbc8e6d17	-0.017386002
48	0x3e017ea8	0.12645972
49	0x3da5cc4f	0.080956094
50	0xba6a9937	-0.00089492224
51	0xbe005a73	-0.12534504
52	0xbd82785f	-0.06370615
53	0xbda5ead7	-0.08101433
54	0xbd64523d	-0.05574249
55	0x3df16e3c	0.11788604
56	0x3d93f302	0.072240844
57	0xbce37f44	-0.027770646
58	0xbcbb42d1	-0.022859009
59	0xbd95e8c3	-0.073197864
60	0x3ca8e618	0.02061753
61	0xbd5f168f	-0.054464873
62	0xbc81d74c	-0.015849732
63	0x3d9893c9	0.07450063
64	0xbe0e5b51	-0.13902022
65	0xbdaabb68	-0.08336526
66	0x3d3ff5a4	0.04686512
67	0xbda47868	-0.08030778
68	0xbd84d860	-0.06486583
69	0x3dd18757	0.10230892
70	0x3db1dd8c	0.08684835
71	0xbd51e6b9	-0.051245425
72	0x3de3b042	0.11117603
73	0x3e0fb782	0.14034846
74	0xbd262aaf	-0.04056805
75	0xba890580	-0.001045391
76	0xbdfa3e73	-0.122189425
77	0xbd8c80ad	-0.068604805
78	0xbdf8fa36	-0.12157099
79	0x3df133d9	0.11777467
80	0xbcf8a55c	-0.030352287
81	0xbd6a5e4a	-0.057218827
82	0xbd135fa6	-0.03597989
83	0x3dec627b	0.11542221
84	0x3e07a6c5	0.13247211
85	0xbdbc9a20	-0.092090845
86	0xbaff0264	-0.0019455669
87	0x3e066822	0.13125661
88	0xbc0edc81	-0.008719564
89	0xbbc7d462	-0.006098316
90	0x3ce7dcbe	0.0283035
91	0xbc513fb9	-0.01277154
92	0x3cc8dc76	0.024519186
93	0xbd8690ab	-0.06570562
94	0x3d974945	0.07387022
95	0xbddf6f58	-0.10909909
96	0xbd377b2d	-0.044795204
97	0xbe0a5c64	-0.13511807
98	0xbdded437	-0.108803205
99	0xbdce9668	-0.100872815
100	0x3c8f9104	0.017525204
101	0xbd8ea661	-0.06965328
102	0x3d39490b	0.045235675
103	0xbe1c206f	-0.15246747
104	0xbd3c8392	-0.046023913
105	0x3c1cc372	0.009568082
106	0x3d8217c3	0.063521884
107	0x3d024bb9	0.031810496
108	0x3e0c81bf	0.13721369
109	0x3de760bd	0.11297748
110	0x3de16239	0.110050626
111	0x3db29fb4	0.08721867
112	0x3dd5d897	0.10441702
113	0xbb83d516	-0.0040232046
114	0xbd1225a7	-0.03568044
115	0x3df5f3bb	0.120093785
116	0xbd19e16b	-0.03756849
117	0x3b37de56	0.0028056107
118	0xbdbea7ee	-0.09309374
119	0x3dee7013	0.1164247
120	0x3d484689	0.048895393
121	0xbd40491e	-0.04694473
122	0xbd4d03e2	-0.05005253
123	0xbd00dc0d	-0.031459857
124	0x3dccb822	0.09996058
125	0xbe1bd23d	-0.15216918
126	0xbd900dc5	-0.07033876
127	0xbdf2b45f	-0.11850809
128	0x3e0d1954	0.13779193
129	0x3c524361	0.012833447
130	0x3d4bb4eb	0.049733084
131	0xbd39cefc	-0.04536341
132	0x3e16cb8a	0.14726081
133	0x3deca40a	0.115547255
134	0x3d296b5b	0.041362148
135	0xbdbf7efc	-0.09350392
136	0xbd770879	-0.060310815
137	0x3a3c3d5c	0.0007180774
138	0x3dc67085	0.0968943
139	0x3e06c7b6	0.13162121
140	0xbdc5f5ff	-0.09666061
141	0xbd541f22	-0.051787503
142	0xbdd935b8	-0.10605949
143	0xbd2a3608	-0.041555434
144	0x3e1e10ed	0.15436144
145	0xbe0bd706	-0.13656244
146	0x3db81e9c	0.08990213
147	0x3df15e60	0.11785579
148	0xbda12263	-0.07867887
149	0xba0cab8c	-0.00053661386
150	0xbe021ae5	-0.12705572
151	0xbd34a000	-0.0440979
152	0x3dbdb229	0.09262497
153	0xbe0eea38	-0.13956535
154	0x3e09b2df	0.1344714
155	0x3e09baf6	0.13450226
156	0x3d5a75b4	0.053334907
157	0xbdb22368	-0.086981595
158	0x3de0d236	0.109775946
159	0x3e010768	0.12600482
160	0xbd2259cc	-0.03963642
161	0x3e165bad	0.14683409
162	0xbd38dc2d	-0.04513185
163	0x3c315fe2	0.010826083
164	0x3dbd0566	0.09229545
165	0xbe07e5f5	-0.13271315
166	0x3cd6e9aa	0.026234467
167	0xbd9d4387	-0.076788954
168	0xbcdf3c4d	-0.027250433
169	0xbd791608	-0.060812026
170	0x3d36b719	0.04460821
171	0x3e063949	0.1310779
172	0x3dce5447	0.100746684
173	0x3e10f249	0.14154924
174	0x3c165668	0.009175874
175	0x3d789665	0.060690302
176	0xbdda16cd	-0.1064888
177	0x3df4ec56	0.1195914
178	0xbda1b3d9	-0.07895631
179	0x3e08e255	0.13367589
180	0xbdc6552f	-0.09684216
181	0xbe000568	-0.12502062
182	0xbe02f582	-0.12788966
183	0x3d96a5b3	0.07355823
184	0x3d41cfe3	0.047317397
185	0xbdccc2e2	-0.099981084
186	0x3c45a224	0.012062583
187	0xbdb6e6d9	-0.089307494
188	0xbca3e0b5	-0.02000461
189	0x3df8ad1d	0.12142394
190	0x3e16409b	0.14673083
191	0x3d68d69b	0.05684529
192	0x3afcf8c6	0.0019300214
193	0xbd471dd7	-0.048612442
194	0xbdf6b6bc	-0.120465726
195	0x3da907ae	0.08253418
196	0xbd1ec18c	-0.0387588
197	0x3d71598d	0.058923293
198	0xbde59881	-0.112107284
199	0x3d87b596	0.06626432
200	0xbdbb80ba	-0.09155412
201	0xbdf5584d	-0.11979733
202	0x3d17e764	0.037085906
203	0x39e49baa	0.00043603528
204	0x3d52bf97	0.051452246
205	0x3d9508b0	0.07277048
206	0x3dc3a250	0.09552443
207	0x3d05787b	0.032585602
208	0x3d3065b0	0.043065727
209	0xbc7e4127	-0.015518463
210	0xbdbe507f	-0.09292697
211	0x3e029e62	0.12755731
212	0x3c641297	0.013920448
213	0xbbe6fb9e	-0.007049038
214	0x3cd17452	0.025568161
215	0x3df85a93	0.12126651
216	0x3d8bf5c0	0.068339825
217	0x3e09e602	0.13466647
218	0x3d9d9b31	0.07695616
219	0x3db4cc38	0.08828014
220	0x3e11f9e2	0.14255479
221	0xbdc01edc	-0.09380886
222	0x3d03dd11	0.032193247
223	0xbd51566a	-0.0511078
224	0xbd71694b	-0.058938306
225	0xbd3827c5	-0.044959802
226	0xbe138773	-0.14407139
227	0x3d4238b7	0.04741737
228	0x3dae91b9	0.08523888
229	0x3d492ab4	0.04911299
230	0x3d31ae70	0.043379247
231	0xbd9c9161	-0.07644916
232	0x3dd4623d	0.103703
233	0x3e07f40f	0.13276695
234	0x3d5cf9ac	0.053949043
235	0xbde61970	-0.112353206
236	0xbe0e85d2	-0.13918236
237	0xbe11bbdd	-0.1423182
238	0xbdf7c197	-0.12097471
239	0x3c84ac38	0.016195402
240	0xbdc30a95	-0.09523503
241	0x3e027992	0.12741688
242	0xbd73045c	-0.05933033
243	0xbdf319e6	-0.11870174
244	0x3db58537	0.08863299
245	0x3d725298	0.0591608
246	0x3de87141	0.113497265
247	0xbd1bb5d2	-0.038015194
248	0x3e11ef06	0.14251336
249	0xbd8073c9	-0.06272084
250	0x3db9856d	0.09058652
251	0x3c6953f6	0.014241209
252	0x3ddf91dd	0.10916493
253	0xbdd542f6	-0.104131624
254	0x3d035028	0.032058865
255	0xbe09df25	-0.13464029

gat2.att_src f4 [1, 1, 64]
0	0xbe898f2d	-0.26867047
1	0x3c89d030	0.016822904
2	0xbe84883a	-0.25885183
3	0xbcca1634	-0.02466879
4	0x3c8fc691	0.017550739
5	0x3e53c8f8	0.20682132
6	0xbce10f57	-0.027473135
7	0xbe8238ea	-0.25434047
8	0x3e9137a5	0.28362766
9	0xbe8aa89c	-0.27081764
10	0x3dc619eb	0.09672912
11	0x3e2f0fa4	0.1709581
12	0xbe18291d	-0.14859433
13	0x3e83b573	0.25724372
14	0x3d66994a	0.05629853
15	0xbe8b3b94	-0.27193892
16	0x3c0a5b5d	0.008444634
17	0x3e7eb179	0.24872388
18	0x3e84334c	0.25820386
19	0x3e1364d3	0.1439393
20	0x3dc32404	0.09528354
21	0x3e2b527d	0.16730686
22	0xbe66d4b8	-0.22542083
23	0xbdc2a024	-0.09503201
24	0xbda5bc12	-0.08092512
25	0xbe32394e	-0.17404673
26	0xbbca7202	-0.0061781416
27	0xbe90dbc3	-0.28292665
28	0x3d34827e	0.04406976
29	0x3e82b7a4	0.25530732
30	0x3a660496	0.0008774487
31	0x3e8af217	0.27137825
32	0xbe0f5d3c	-0.1400041
33	0xbdbfad12	-0.093591824
34	0x3d4066c3	0.046973
35	0x3e5f28aa	0.21792856
36	0x3e88b285	0.266987
37	0x3d54cd6f	0.05195373
38	0xbe61c545	-0.22047909
39	0xbdaa2b06	-0.08308987
40	0x3e539b26	0.20664653
41	0xbe9b7358	-0.30361438
42	0x3e21905e	0.15777728
43	0x3e548f38	0.20757759
44	0xbd634d88	-0.05549386
45	0xbd00f1f3	-0.03148074
46	0x3e53a121	0.20666935
47	0xbe1a4fce	-0.15069506
48	0x3e8024a4	0.25027955
49	0xbddaeda0	-0.106898546
50	0x3d837a81	0.0641985
51	0x3d8905a5	0.0669053
52	0xbe94f8ae	-0.29095978
53	0x3e2c0912	0.16800335
54	0x3e952bb6	0.2913491
55	0x3e5f9282	0.21833232
56	0x3e53fef4	0.20702726
57	0x3de10fb3	0.109893225
58	0x3de2348c	0.11045179
59	0xbc4e2e10	-0.012584224
60	0x3e94a6ab	0.29033408
61	0x3e62dad0	0.22153783
62	0x38979458	7.227872e-05
63	0xbce340e3	-0.027740901

gat2.att_dst f4 [1, 1, 64]
0	0xbdfd32a2	-0.12363173
1	0x3e96459f	0.29349992
2	0xbdcbc886	-0.09950356
3	0xbe115036	-0.14190754
4	0x3d35260a	0.04422573
5	0x3e18ea1b	0.14933054
6	0xbe250609	-0.16115583
7	0x3e98a5e5	0.29814067
8	0x3e29647a	0.16542235
9	0xbe948a7b	-0.29011902
10	0x3e9a1554	0.30094397
11	0x3b6a3b34	0.0035740854
12	0xbe81bfaf	-0.25341555
13	0xbe5ac83b	-0.21365444
14	0xbdb55e9d	-0.08855937
15	0x3df9a060	0.12188792
16	0xbe97d823	-0.29657087
17	0xbe4c054b	-0.19923894
18	0xbe398b31	-0.18119504
19	0xbca94b1b	-0.020665696
20	0xbe23fe33	-0.16014938
21	0xbe5f2899	-0.2179283
22	0x3d48c2ea	0.04901401
23	0x3e93972e	0.28826278
24	0x3e84e689	0.25957134
25	0xbda0a5f1	-0.07844151
26	0xbda65bc3	-0.08122971
27	0xbe56e979	-0.209875
28	0x3e2cde7c	0.16881746
29	0x3e62eab0	0.22159839
30	0x3e37d66c	0.17952889
31	0x3e8791be	0.2647838
32	0xbd6885c1	-0.056768183
33	0xbdfa1704	-0.12211421
34	0xbe8436e5	-0.2582313
35	0xbe1c8936	-0.15286717
36	0xbe444f54	-0.19170886
37	0x3e2abd33	0.16673736
38	0xbe30b0ab	-0.17254893
39	0x3e4fe4fa	0.20302191
40	0xbd38c39c	-0.045108423
41	0x3d1c214f	0.038117703
42	0x3e392dac	0.18083829
43	0x3bd86027	0.006603259
44	0xbe4c87fa	-0.19973746
45	0x3e66337f	0.22480582
46	0xbcfd86d5	-0.030948082
47	0xbe91105a	-0.28332788
48	0x3e919048	0.2843039
49	0x3cc9a2c9	0.024613755
50	0x3e50643e	0.2035074
51	0x3e3a1ae6	0.18174323
52	0x3e12093b	0.14261334
53	0x3e22c2d8	0.1589464
54	0x3d8e1403	0.06937411
55	0x3e5e33aa	0.21699396
56	0xbe39e73b	-0.18154614
57	0xbdf968aa	-0.12178166
58	0x3e0b444b	0.1360027
59	0xbde43973	-0.1114377
60	0xbe78e49c	-0.24305958
61	0xbe3d46b3	-0.18484001
62	0xbe74541d	-0.23860212
63	0xbe80b91c	-0.25141227

gat2.bias f4 [64]
0	0xb5e93425	-1.7375029e-06
1	0x36907980	4.305679e-06
2	0xb5490afd	-7.4894325e-07
3	0xb6716b20	-3.5974153e-06
4	0x35b5233f	1.3495809e-06
5	0xb662f789	-3.3820709e-06
6	0x35e50ffb	1.706648e-06
7	0x35cb00ea	1.5124945e-06
8	0x368f9fb2	4.280323e-06
9	0x3719a6e9	9.158372e-06
10	0x36c6452d	5.908913e-06
11	0x35edeef8	1.7727425e-06
12	0xb63b4ba9	-2.7909211e-06
13	0x35e4e4c2	1.7053901e-06
14	0xb407df6f	-1.265414e-07
15	0xb54c9f65	-7.622787e-07
16	0xb670a9e2	-3.5861672e-06
17	0xb753fd46	-1.263555e-05
18	0x350606f8	4.992903e-07
19	0xb7444f65	-1.1700996e-05
20	0xb5812dd1	-9.624583e-07
21	0x3567f3d5	8.640903e-07
22	0x3777dc4e	1.4773641e-05
23	0x37cda8f5	2.4516581e-05
24	0xb737e83a	-1.0961719e-05
25	0xb7019e52	-7.725861e-06
26	0x36dd822e	6.601468e-06
27	0x366af5c1	3.5011765e-06
28	0x3609b129	2.0517712e-06
29	0xb61f23ad	-2.3713612e-06
30	0x36e2dd37	6.7610777e-06
31	0xb6888b2c	-4.0693176e-06
32	0xb6d0b3c2	-6.2198096e-06
33	0x3761186e	1.3416733e-05
34	0xb5d30c93	-1.5724385e-06
35	0xb52ea7d1	-6.5064256e-07
36	0x3559ac72	8.108974e-07
37	0x36a96dd0	5.0493763e-06
38	0xb609b9f6	-2.0522834e-06
39	0xb6582933	-3.221049e-06
40	0xb53f0459	-7.115937e-07
41	0xb6fa98b8	-7.4683594e-06
42	0xb73ed0e7	-1.1373521e-05
43	0x3599df7d	1.1464432e-06
44	0x359a9687	1.1517703e-06
45	0xb580cfff	-9.597278e-07
46	0x36cdc9e9	6.1329815e-06
47	0x36b0437d	5.2530654e-06
48	0x36508dd8	3.107698e-06
49	0xb5968dab	-1.1217102e-06
50	0xb614fbf4	-2.2200375e-06
51	0x3697eede	4.5279585e-06
52	0xb473f51a	-2.2720306e-07
53	0xb409c731	-1.2831585e-07
54	0x363307b5	2.6677565e-06
55	0xb658be03	-3.229711e-06
56	0xb5d3782e	-1.5755702e-06
57	0xb71d1116	-9.361907e-06
58	0x35ea3c65	1.7451936e-06
59	0xb6bd829e	-5.647845e-06
60	0x3734a3cb	1.0766972e-05
61	0x37316c2a	1.0575206e-05
62	0x361c08fa	2.3251037e-06
63	0x354ed62e	7.705265e-07

gat2.lin.weight f4 [64, 256]
0	0x3d2960c8	0.041352063
1	0xbdf93df4	-0.1217002
2	0x3da2ac63	0.079430364
3	0x3dde625c	0.10858604
4	0xbdc9933c	-0.09842536
5	0xbb249dbf	-0.0025118438
6	0x3d66757e	0.056264393
7	0x3ca540d0	0.020172507
8	0xbd651024	-0.055923596
9	0x3dddfaff	0.10838889
10	0x3b9d2b01	0.004796386
11	0x3d5785f9	0.052618
12	0xbdac4606	-0.084117934
13	0x3d9d134c	0.07669696
14	0x3e022dbc	0.12712759
15	0x3b1456bc	0.0022634706
16	0xbbc8e502	-0.0061308155
17	0x3d9cd42a	0.076576546
18	0x3b6f429c	0.0036508208
19	0xbdc6e314	-0.097112805
20	0xbddd05d6	-0.10792129
21	0x3e08c0ac	0.13354748
22	0x3c78ee4a	0.015193531
23	0xbc55b4ce	-0.0130435955
24	0xbd240b5d	-0.0400499
25	0xbd921ff5	-0.071350016
26	0xbe02f7ba	-0.12789813
27	0xbdf445d5	-0.11927382
28	0xbd3574e5	-0.044300932
29	0xbced8fb1	-0.028999181
30	0xbe017320	-0.12641573
31	0xbd97146f	-0.07376944
32	0xbde8d23b	-0.11368223
33	0xbcdb6d09	-0.02678539
34	0xbdd6361e	-0.10459541
35	0xbce23a17	-0.02761559
36	0xbc5182d2	-0.012787538
37	0xbda95b14	-0.08269325
38	0xbd3e6da6	-0.046491288
39	0xbd9ef95d	-0.07762406
40	0x3c256710	0.010095373
41	0xbe00c7d6	-0.12576231
42	0x3d536d5f	0.051617976
43	0xbb983494	-0.0046449397
44	0x3dedc8ef	0.11610591
45	0x3db7884f	0.08961546
46	0xbcc7cff9	-0.024391161
47	0xbdf7726c	-0.12082371
48	0x3da14b4f	0.07875692
49	0xbce500ca	-0.027954478
50	0x3dd484bf	0.10376882
51	0xbd05ba02	-0.032648094
52	0x3d38765d	0.045034755
53	0xbd13fded	-0.036130834
54	0x3d93780f	0.07200634
55	0xbdf35926	-0.11882238
56	0xbcb351c8	-0.021889582
57	0xbd7a1464	-0.061054602
58	0xbbb4a493	-0.005512783
59	0xbdef2e59	-0.11678762
60	0xbcb57ed9	-0.022155212
61	0xbd8eac1b	-0.0696642
62	0x3e01914d	0.12653084
63	0xbbeef46e	-0.007292322
64	0xbda414ec	-0.08011803
65	0x3d5f4284	0.054506794
66	0x3df48c63	0.11940839
67	0x3d2af2fc	0.041735634
68	0xbdddd844	-0.10832265
69	0xbdf1af8c	-0.11801061
70	0x3d8c39ae	0.06846939
71	0xbda00033	-0.07812538
72	0x3cf60adb	0.030034473
73	0x3dc1c39e	0.09461139
74	0x3c4c4c06	0.012469297
75	0xbc4ccf63	-0.012500617
76	0x3d9f3215	0.07773224
77	0xbdb0328e	-0.086033925
78	0x3dd17e10	0.10229123
79	0x3d8cdbfd	0.06877897
80	0x3d4e6656	0.050390564
81	0x3dcb6bc8	0.09932667
82	0x3e075c5e	0.13218829
83	0xbdbca7e6	-0.092117116
84	0xbd610b1f	-0.054942247
85	0xbd60c6fa	-0.05487726
86	0x3dc7ebba	0.09761758
87	0xbac0b64a	-0.0014702764
88	0xbdff54c8	-0.124673426
89	0xbc694bdd	-0.014239279
90	0x3d56d7d4	0.052451923
91	0x3c952e47	0.018210543
92	0xbd06c3ba	-0.032901503
93	0xbc5d005d	-0.013488856
94	0xbdf5feae	-0.12011467
95	0x3d9037c5	0.07041887
96	0xbd40251f	-0.0469104
97	0xbd28bd0e	-0.04119592
98	0x3cb4a0ab	0.022049269
99	0xbd0cae04	-0.03434564
100	0x3c542f27	0.012950695
101	0x3dc55c1a	0.096367076
102	0x3cb1b689	0.021693485
103	0xbe07b48b	-0.13252465
104	0xbde7dcd0	-0.113214135
105	0xbdfb5f9f	-0.12274098
106	0x3d81a486	0.063302085
107	0x3d7d4e4c	0.061842248
108	0x3d1b1574	0.037862256
109	0x3db5d27e	0.08878039
110	0x3dc2f27b	0.09518906
111	0xbdb7f1bf	-0.08981656
112	0xba920a28	-0.0011141943
113	0xbdb0b776	-0.086287424
114	0x3d616a35	0.055032928
115	0x3cbcc21f	0.023041783
116	0xbd9f5222	-0.077793375
117	0x3db501ce	0.08838235
118	0xbe0df1f4	-0.13861829
119	0x3cdec630	0.027194113
120	0xbdb9fc5b	-0.09081336
121	0xbd740286	-0.05957272
122	0xbe0720de	-0.13196132
123	0x3e068f18	0.13140523
124	0xbdf16a1b	-0.11787816
125	0xbdf6d6f2	-0.12052716
126	0xba19dee0	-0.0005869698
127	0xbc8359e1	-0.016034069
128	0x3d987fd0	0.07446253
129	0xbc1e956d	-0.009679181
130	0x3de598b7	0.11210769
131	0x3e0243db	0.12721197
132	0x3d2dce1f	0.0424329
133	0x3dbb23f8	0.0913772
134	0x3e002c1c	0.12516826
135	0xbd529b64	-0.051417723
136	0x3e0f689a	0.14004746
137	0x3d50b9aa	0.050958313
138	0x3deda742	0.116041675
139	0xbceafb02	-0.028684143
140	0x3d2203ad	0.039554287
141	0xbd9b71cf	-0.07590067
142	0x3d5830b7	0.052780833
143	0x3dbfb814	0.09361282
144	0xbddee535	-0.108835615
145	0x3c93a5a5	0.018023321
146	0x3dea8c21	0.11452509
147	0x3df1990b	0.11796769
148	0x3dd484ea	0.10376914
149	0x3d30cffc	0.0431671
150	0x3bbb330a	0.0057128714
151	0x3dac9693	0.08427157
152	0xbe0c88cb	-0.13724057
153	0x3d81b694	0.06333652
154	0xbd8a4bf3	-0.067527674
155	0xbe047514	-0.12935287
156	0x3c694e95	0.014239927
157	0x3d3dab90	0.046306193
158	0xba208ccb	-0.00061244954
159	0xbd696f3e	-0.056990854
160	0x3d07b48b	0.033131164
161	0x3da3e0dd	0.08001874
162	0x3e0379ec	0.12839478
163	0x3e0b34ef	0.13594411
164	0x3dc5edce	0.09664498
165	0xbd858389	-0.06519229
166	0xbdfab81f	-0.122421496
167	0xbdb79d26	-0.089655206
168	0x3da03577	0.078226976
169	0x3d8268ea	0.06367667
170	0xbe003e52	-0.12523773
171	0xbc864a0b	-0.016392728
172	0xbc09eaa7	-0.008417762
173	0x3d84cd3b	0.06484457
174	0xbdf84d18	-0.121240795
175	0xbdfe69ff	-0.12422561
176	0x3e01bfda	0.12670842
177	0xbdfacc05	-0.12245945
178	0x3dfba0cf	0.12286531
179	0x3d970b88	0.07375246
180	0x3c9a407e	0.01882958
181	0x3dafbf91	0.0858146
182	0xbdf79e69	-0.12090761
183	0x3d067bb8	0.03283283
184	0xbd4f6b82	-0.050639637
185	0x3e0a3df0	0.1350019
186	0x3c49761a	0.012296224
187	0xbc4bfd8c	-0.012450587
188	0x3cec735a	0.028863598
189	0x3ddcf6a0	0.107892275
190	0xbba82966	-0.005131888
191	0x3dc26ff9	0.09494013
192	0xbdd9e483	-0.10639288
193	0xbdfe40b5	-0.12414686
194	0x3d74187d	0.059593666
195	0x3d1ac750	0.037787735
196	0x3dc48f68	0.09597665
197	0xbd5c0e87	-0.05372479
198	0x3d1b024b	0.037843984
199	0xbd801746	-0.06254439
200	0x3bb1ee7e	0.005430042
201	0x3da9fe1a	0.08300419
202	0x3ca19885	0.019726047
203	0x3ce1a11a	0.02754264
204	0x3d76ddc3	0.060270082
205	0x3db57fa5	0.08862237
206	0x3c7ff1f1	0.015621648
207	0xbdcc0b3e	-0.09963082
208	0xbe00e8bf	-0.12588786
209	0x3dc31e14	0.09527221
210	0x3da3cbd5	0.07997862
211	0x3dbd1416	0.09232347
212	0x3b296394	0.0025846707
213	0xbd38259e	-0.04495775
214	0xbbd801a7	-0.006591994
215	0x3d214b5f	0.03937852
216	0xbc857ca0	-0.016294777
217	0xbd3a8f21	-0.045546655
218	0xbd644709	-0.055731807
219	0x3d3e37f9	0.0464401
220	0x3d047a79	0.03234336
221	0xbdd8fab3	-0.10594692
222	0xbda7474e	-0.08167897
223	0xbcbe9114	-0.023262538
224	0x3c07c1e9	0.008285978
225	0xbb55d2dd	-0.0032626905
226	0xbde874cb	-0.113504015
227	0xbd901820	-0.070358515
228	0x3d35f04c	0.044418618
229	0xbdfbfec8	-0.12304455
230	0x3e0ebd8e	0.13939497
231	0xbd0cf129	-0.034409676
232	0xbd1a139c	-0.037616357
233	0x3d019383	0.03163482
234	0xbdfa689f	-0.12226986
235	0xbdb73de7	-0.08947354
236	0xbdfb130d	-0.12259493
237	0x3d0308e5	0.031990904
238	0x3db1b829	0.08677704
239	0x3e08b8e1	0.13351776
240	0xbdd4dd88	-0.10393816
241	0xbd8a7749	-0.06761033
242	0x3e07a04c	0.13244742
243	0x3d925b3d	0.071463086
244	0xbd08543f	-0.03328347
245	0x3d1c330f	0.03813463
246	0x3d78e883	0.060768615
247	0x3d957c91	0.0729915
248	0x3dd7493d	0.10512016
249	0xbe0592a8	-0.13044226
250	0x3dd09bb7	0.1018595
251	0x3dc5cc0f	0.09658062
252	0x3dc8ac6f	0.09798514
253	0x3bfb27eb	0.0076646707
254	0xbb504c6f	-0.003178384
255	0x3cb482ff	0.02203512

bn1.weight f4 [256]
0	0x3f807002	1.0034182
1	0x3f7f0cd3	0.99628943
2	0x3f806f3e	1.0033948
3	0x3f7f14a4	0.9964087
4	0x3f80782f	1.0036677
5	0x3f808fbd	1.0043865
6	0x3f7f1f2d	0.99656945
7	0x3f7ee6f0	0.9957113
8	0x3f806bca	1.0032895
9	0x3f7f3298	0.99686575
10	0x3f7eee95	0.995828
11	0x3f808e94	1.0043511
12	0x3f7eb2f0	0.99491787
13	0x3f805bbf	1.0027999
14	0x3f8085f6	1.0040882
15	0x3f8074d2	1.0035651
16	0x3f7f60d0	0.997571
17	0x3f8069de	1.0032308
18	0x3f7f0200	0.99612427
19	0x3f805b72	1.0027907
20	0x3f7f44cd	0.99714357
21	0x3f7ef97b	0.99599427
22	0x3f7f311b	0.99684304
23	0x3f806a7c	1.0032496
24	0x3f806e2b	1.003362
25	0x3f7f0b52	0.9962665
26	0x3f7f2822	0.9967061
27	0x3f7f3adf	0.99699205
28	0x3f806a7b	1.0032495
29	0x3f806937	1.0032109
30	0x3f7f929c	0.99833083
31	0x3f7fd329	0.9993158
32	0x3f7e97be	0.9945029
33	0x3f8082d1	1.0039922
34	0x3f80277e	1.0012052
35	0x3f7f2467	0.9966492
36	0x3f8094c5	1.0045401
37	0x3f7e99bf	0.9945335
38	0x3f806af1	1.0032636
39	0x3f804668	1.0021486
40	0x3f80415c	1.0019946
41	0x3f807308	1.0035105
42	0x3f7f1099	0.996347
43	0x3f7ef7e6	0.99597013
44	0x3f7f5993	0.99746054
45	0x3f7f5845	0.99744064
46	0x3f7ee155	0.9956258
47	0x3f7f67f9	0.99768025
48	0x3f80755a	1.0035813
49	0x3f8088e0	1.0041771
50	0x3f805912	1.0027182
51	0x3f802fcd	1.0014588
52	0x3f80697a	1.0032189
53	0x3f808055	1.0039164
54	0x3f7f0127	0.99611133
55	0x3f80151a	1.000644
56	0x3f7f18c5	0.9964717
57	0x3f7f152b	0.99641675
58	0x3f806294	1.0030084
59	0x3f7f02bd	0.99613553
60	0x3f7f230e	0.99662864
61	0x3f7f1b5d	0.9965113
62	0x3f807546	1.0035789
63	0x3f7f0f96	0.9963316
64	0x3f7f6e69	0.9977785
65	0x3f806016	1.0029323
66	0x3f804504	1.0021062
67	0x3f7f55da	0.99740374
68	0x3f805e77	1.0028828
69	0x3f809979	1.0046836
70	0x3f7f45f0	0.9971609
71	0x3f80788a	1.0036786
72	0x3f806f96	1.0034053
73	0x3f805141	1.0024797
74	0x3f7f079a	0.99620974
75	0x3f7f380e	0.9969491
76	0x3f807160	1.0034599
77	0x3f7fc030	0.9990263
78	0x3f7f374e	0.99693763
79	0x3f807163	1.0034603
80	0x3f7f85a4	0.99813294
81	0x3f7f398e	0.99697196
82	0x3f8056b1	1.0026456
83	0x3f7f1e61	0.9965573
84	0x3f7f29c8	0.9967313
85	0x3f7f0e89	0.99631554
86	0x3f7f0ca2	0.9962865
87	0x3f7f4e05	0.99728423
88	0x3f7ff213	0.9997875
89	0x3f80515e	1.0024831
90	0x3f807d48	1.0038233
91	0x3f8040dd	1.0019795
92	0x3f7f6025	0.9975608
93	0x3f7f4223	0.9971029
94	0x3f7f050c	0.99617076
95	0x3f7f2739	0.99669224
96	0x3f806de8	1.0033541
97	0x3f80627e	1.0030057
98	0x3f7f4160	0.9970913
99	0x3f808901	1.004181
100	0x3f8018b4	1.0007539
101	0x3f806791	1.0031606
102	0x3f804013	1.0019554
103	0x3f7efa80	0.9960098
104	0x3f8047ee	1.0021951
105	0x3f8055e0	1.0026207
106	0x3f806b0d	1.0032669
107	0x3f805e14	1.002871
108	0x3f7ffbcf	0.99993604
109	0x3f7f476b	0.9971835
110	0x3f808a08	1.0042124
111	0x3f7f3a3d	0.9969824
112	0x3f804121	1.0019876
113	0x3f80819f	1.0039557
114	0x3f7f20c3	0.99659365
115	0x3f7f34a5	0.99689704
116	0x3f7f743d	0.9978674
117	0x3f804486	1.0020912
118	0x3f8050fe	1.0024717
119	0x3f7f2043	0.996586
120	0x3f7f1fc3	0.9965784
121	0x3f80572e	1.0026605
122	0x3f7f0b89	0.99626976
123	0x3f801e0f	1.0009173
124	0x3f803f60	1.001934
125	0x3f7f1b6a	0.99651206
126	0x3f808047	1.0039147
127	0x3f7f675b	0.9976708
128	0x3f7f171a	0.99644625
129	0x3f7f347c	0.9968946
130	0x3f7eea4c	0.9957626
131	0x3f7f2881	0.9967118
132	0x3f80066a	1.0001957
133	0x3f7f04df	0.9961681
134	0x3f809428	1.0045214
135	0x3f7fe6c6	0.9996151
136	0x3f7f23ec	0.9966419
137	0x3f80691b	1.0032076
138	0x3f7f30a8	0.9968362
139	0x3f7eb7a1	0.99498945
140	0x3f809b3c	1.0047374
141	0x3f7ebcf1	0.9950705
142	0x3f800768	1.000226
143	0x3f7f245d	0.9966486
144	0x3f8069ed	1.0032326
145	0x3f7fc610	0.99911594
146	0x3f801037	1.0004948
147	0x3f7fbf2b	0.99901074
148	0x3f7f363e	0.9969214
149	0x3f806bba	1.0032876
150	0x3f800993	1.0002922
151	0x3f7fc591	0.9991084
152	0x3f7ef5ba	0.995937
153	0x3f7f19ba	0.9964863
154	0x3f7f1791	0.99645334
155	0x3f7edf6c	0.99559665
156	0x3f7f2cfd	0.9967802
157	0x3f80629b	1.0030092
158	0x3f7f48d3	0.99720496
159	0x3f807394	1.0035272
160	0x3f7f43ce	0.99712837
161	0x3f7f4bdb	0.9972512
162	0x3f808e2b	1.0043386
163	0x3f7efdb0	0.99605846
164	0x3f800cd9	1.0003921
165	0x3f805750	1.0026646
166	0x3f7f06db	0.99619836
167	0x3f803a5f	1.0017813
168	0x3f7f15c4	0.99642587
169	0x3f806c7e	1.0033109
170	0x3f802dc2	1.0013964
171	0x3f7ea198	0.9946532
172	0x3f8082bb	1.0039896
173	0x3f8062f5	1.0030199
174	0x3f804dbf	1.0023726
175	0x3f805ce7	1.0028352
176	0x3f7f3ebf	0.9970512
177	0x3f7ee17f	0.9956283
178	0x3f7fd069	0.99927384
179	0x3f805698	1.0026426
180	0x3f7facd2	0.9987308
181	0x3f7f7138	0.99782133
182	0x3f8033c8	1.0015802
183	0x3f7f0aa9	0.9962564
184	0x3f801a60	1.0008049
185	0x3f7f33b8	0.9968829
186	0x3f7ec45c	0.9951837
187	0x3f808035	1.0039126
188	0x3f7f32cc	0.99686885
189	0x3f7f90e3	0.99830455
190	0x3f805b07	1.0027779
191	0x3f803383	1.001572
192	0x3f7ea2fe	0.99467456
193	0x3f7f7810	0.99792576
194	0x3f803ffa	1.0019524
195	0x3f7e6fd0	0.9938936
196	0x3f7ee685	0.99570495
197	0x3f7f3b82	0.99700177
198	0x3f80684b	1.0031828
199	0x3f7f4516	0.9971479
200	0x3f806e44	1.003365
201	0x3f7f2faf	0.99682134
202	0x3f7f097e	0.9962386
203	0x3f7f44b7	0.99714226
204	0x3f806c45	1.0033041
205	0x3f7f2557	0.9966635
206	0x3f805d7f	1.0028533
207	0x3f7f3fd1	0.9970675
208	0x3f80ad69	1.005292
209	0x3f804fe2	1.0024378
210	0x3f7efc55	0.9960378
211	0x3f7efc8c	0.99604106
212	0x3f805f1b	1.0029024
213	0x3f803a63	1.0017818
214	0x3f7f46c2	0.9971734
215	0x3f7f105c	0.9963434
216	0x3f7f1f75	0.99657375
217	0x3f805884	1.0027013
218	0x3f7ec3a7	0.9951729
219	0x3f7f081a	0.99621737
220	0x3f7f559b	0.9974
221	0x3f7f192c	0.99647784
222	0x3f806c83	1.0033115
223	0x3f7eaf8d	0.9948662
224	0x3f8024f5	1.0011278
225	0x3f8061d8	1.002986
226	0x3f805f92	1.0029166
227	0x3f7f3df2	0.99703896
228	0x3f807738	1.0036383
229	0x3f7f6bff	0.99774164
230	0x3f7efadd	0.99601537
231	0x3f807503	1.0035709
232	0x3f7f0c09	0.9962774
233	0x3f7f2098	0.9965911
234	0x3f7f1dde	0.9965495
235	0x3f8080eb	1.0039343
236	0x3f7ed06c	0.99536777
237	0x3f802e63	1.0014156
238	0x3f7f1e4b	0.996556
239	0x3f801e6c	1.0009284
240	0x3f7f2b84	0.99675775
241	0x3f7ec4d1	0.9951907
242	0x3f806bc6	1.003289
243	0x3f8051e3	1.002499
244	0x3f7f1c9e	0.9965304
245	0x3f7f9b9d	0.9984682
246	0x3f7eea9d	0.9957674
247	0x3f7f0825	0.996218
248	0x3f808cd5	1.0042979
249	0x3f7f6664	0.9976561
250	0x3f8071b4	1.00347
251	0x3f7f336a	0.99687827
252	0x3f7f5e18	0.9975295
253	0x3f7f4479	0.99713856
254	0x3f805ef8	1.0028982
255	0x3f8075d4	1.0035958
