data/best_model.pt (torch, 143970 bytes, 27 tensors)

gat1.att_src f4 [1, 4, 64]
0	0xbd628529	-0.055302773
1	0x3d752ed8	0.059859127
2	0xbdb3f0f4	-0.087861925
3	0xbe2c352b	-0.16817157
4	0x3dca56a1	0.098798044
5	0x3e6cd933	0.2312973
6	0x3e682315	0.22669633
7	0xbc807a2d	-0.015683258
8	0x3e5cc904	0.21561056
9	0x3e300a26	0.17191371
10	0xbe792a10	-0.24332452
11	0x3ddd491d	0.10804961
12	0x3de89fe0	0.11358619
13	0xbe1af93c	-0.15134138
14	0x3e4282bd	0.18995185
15	0x3d32e9ac	0.043679878
16	0xbe0cf5ca	-0.13765636
17	0xbe1fc615	-0.15602906
18	0xbd19abd9	-0.037517402
19	0xbe87fb0d	-0.26558724
20	0xbe0d5c3a	-0.13804713
21	0xbded0915	-0.11573998
22	0xbd0c4dde	-0.034253947
23	0x3e724e43	0.23662667
24	0x3ddf01c6	0.1088901
25	0xbb2bf40c	-0.0026237993
26	0x3e5fe7b5	0.21865733
27	0xbe86ad30	-0.26304007
28	0x3df325de	0.11872457
29	0xbdfe8ca0	-0.12429166
30	0xbde6d9f2	-0.112720385
31	0xbe46919a	-0.1939148
32	0x3dc26b16	0.09493081
33	0xbdbda501	-0.092599876
34	0xbe311d25	-0.17296274
35	0xbe5de94b	-0.21671025
36	0x3e6fa4a5	0.2340265
37	0xbe91f81a	-0.285096
38	0xbdf04c3a	-0.11733289
39	0xbd987288	-0.0744372
40	0xbe87d86d	-0.26532307
41	0xbd1b2c0d	-0.037883807
42	0xbddbb0c2	-0.10727073
43	0x3e60a1e1	0.21936752
44	0xbe73f3e1	-0.23823501
45	0xbe0aff3e	-0.1357393
46	0xbe850993	-0.25983867
47	0x3e3337ef	0.17501806
48	0xbe83bef4	-0.25731623
49	0x3db508e2	0.08839585
50	0xbe265e90	-0.1624701
51	0xbe61f86f	-0.22067426
52	0x3e0a98e8	0.13534892
53	0xbdbd32ef	-0.092382304
54	0xbe53f316	-0.20698199
55	0xbdb7679a	-0.08955307
56	0xbe606907	-0.21915065
57	0xbe84550e	-0.25846142
58	0x3e0bb0c9	0.13641657
59	0x3dad6360	0.0846622
60	0x3e66e3d6	0.2254785
61	0xbe41232a	-0.1886107
62	0xbe621dad	-0.22081633
63	0x3e7cb49a	0.24678269
64	0xbd01f80f	-0.031730708
65	0xbe641a2f	-0.22275613
66	0x3e756e13	0.23967771
67	0x3e15b0a8	0.1461817
68	0x3d06ef70	0.03294319
69	0x3e96db04	0.2946397
70	0x3dc882f2	0.09790601
71	0x3e74804f	0.23877071
72	0x3b80618b	0.003917878
73	0xbe7e3879	-0.2482623
74	0x3e848dfa	0.2588957
75	0xbdb7f678	-0.08982557
76	0x3d5b59e2	0.053552516
77	0xbe7147f6	-0.23562607
78	0x3e0f7280	0.14008522
79	0xbe6184c1	-0.22023298
80	0x3e8c2f75	0.27379957
81	0xbd584194	-0.052796915
82	0xbd45f035	-0.048324782
83	0x3d890e5c	0.06692192
84	0xbd57b479	-0.052662347
85	0x3e4ecb98	0.20194852
86	0x3d044043	0.032287847
87	0x3e8d6962	0.27619463
88	0x3e697993	0.22800283
89	0x3e67a8f3	0.22623043
90	0x3e851fbb	0.2600077
91	0x3d5622fe	0.052279465
92	0x3dc2c2c0	0.09509802
93	0x3ddccd46	0.1078134
94	0x3e818092	0.25293404
95	0xbd531df4	-0.051542237
96	0x3c20394a	0.009779284
97	0xbd2a01a8	-0.041505486
98	0x3e612c87	0.21989642
99	0xbe1d66f1	-0.153713
100	0x3e1b9f7e	0.1519756
101	0xbe94cf04	-0.2906419
102	0xbdf18684	-0.11793235
103	0x3cedbe1d	0.029021317
104	0x3e134454	0.14381534
105	0x3db1c9e9	0.086810894
106	0x3cb1fbbe	0.021726485
107	0xbe423bbc	-0.189681
108	0x3e95cfb8	0.2926004
109	0x3c952538	0.018206224
110	0x3de12dba	0.1099505
111	0xbe5141e6	-0.20435295
112	0x3e06700e	0.13128683
113	0x3e99323e	0.29921144
114	0xbe0ff28b	-0.14057367
115	0xbda213fd	-0.07913969
116	0xbcd62f47	-0.02614559
117	0x3e008895	0.12552102
118	0xbe76e055	-0.24109013
119	0xbe2e3b51	-0.17014815
120	0xbd96d7b3	-0.0736536
121	0x3c3c6c10	0.0115003735
122	0xbd575372	-0.052569814
123	0x3e2dc23f	0.1696863
124	0xbe7becd4	-0.24602062
125	0x3e318efa	0.17339697
126	0x3e234ee9	0.1594807
127	0xbce919f2	-0.028454755
128	0xbe886aa7	-0.2664387
129	0xbd025c18	-0.03182611
130	0xbe95ffdb	-0.29296765
131	0xbd1a18b2	-0.037621208
132	0x3e068421	0.1313634
133	0xbe3f3250	-0.18671536
134	0x3ded34f5	0.115823664
135	0x3e5582d1	0.20850684
136	0x3e217369	0.15766682
137	0xbe8aae8b	-0.2708629
138	0xbddca4ce	-0.107736215
139	0xbe4cdeba	-0.20006838
140	0x3e380726	0.17971477
141	0xbe2dcd37	-0.16972815
142	0x3d8aeff9	0.067840524
143	0x3e7f9d22	0.24962285
144	0xbdf9a1f7	-0.121890955
145	0x3e43f473	0.19136219
146	0x3d1b1e79	0.037870858
147	0x3b932b3c	0.004491238
148	0xbd8b8ef8	-0.068143785
149	0xbe368e6d	-0.17827769
150	0xbe8be44f	-0.27322623
151	0xbe56d35e	-0.20979068
152	0x3e82bbdd	0.25533953
153	0xbe725b3b	-0.23667614
154	0xbe37a78e	-0.17935011
155	0xbda54b99	-0.0807106
156	0xbbbce4c2	-0.0057645747
157	0xbe0df311	-0.13862254
158	0x3cc03b58	0.023465797
159	0x3da1c3a4	0.078986436
160	0xbe89f7d9	-0.26946905
161	0x3d6deedb	0.05808912
162	0xbe30384a	-0.17208973
163	0xbe2f6d12	-0.17131451
164	0xbe5eada8	-0.21745932
165	0x3da012dc	0.07816097
166	0xbe0ea8f8	-0.13931644
167	0xbe03ac49	-0.1285869
168	0xbe0a4e2d	-0.13506384
169	0xbe870d1f	-0.26377198
170	0xbd823eda	-0.06359644
171	0xbe731b00	-0.23740768
172	0xbe06530e	-0.1311762
173	0xbe87c31f	-0.26516053
174	0xbccd99df	-0.025097786
175	0x3e968fce	0.2940659
176	0xbc370163	-0.011169764
177	0xbcbac44e	-0.022798683
178	0x3e0b838c	0.136244
179	0xbc6a165a	-0.014287556
180	0x3e4a863f	0.19777773
181	0xbe09657c	-0.1341762
182	0x3e28b2fb	0.16474526
183	0xbdf20925	-0.118181504
184	0x3e0a8150	0.13525891
185	0xbcc39b71	-0.023877831
186	0xbd54ae1c	-0.051923856
187	0xbe878229	-0.26466492
188	0x3e91606c	0.28393877
189	0xbe5bbcdf	-0.21458767
190	0xbe34b578	-0.1764735
191	0xbbfc448a	-0.0076986
192	0xbe89a181	-0.2688103
193	0x3d1711f2	0.03688235
194	0x3db4a9e2	0.08821465
195	0x3cec2780	0.028827429
196	0xbdc83754	-0.09776178
197	0xbe010b87	-0.12602054
198	0x3e855a4f	0.26045462
199	0x3e927560	0.28605175
200	0x3e76e82e	0.24112007
201	0xbd827f28	-0.063719094
202	0xbe7d9f92	-0.24767902
203	0x3de2f66d	0.11082158
204	0xbd96b716	-0.073591396
205	0x3da36b16	0.079794094
206	0xbb2cb2bb	-0.002635165
207	0xbe76f403	-0.2411652
208	0xbe13a583	-0.14418606
209	0xbd5589cd	-0.05213337
210	0xbd738336	-0.059451304
211	0x3d9998a9	0.07499821
212	0x3e203f17	0.15649067
213	0x3e4ee7e2	0.20205644
214	0xbde43958	-0.1114375
215	0xbe2543aa	-0.16139093
216	0x3e6e8be7	0.23295556
217	0xbe795829	-0.24350037
218	0xbdc2aa68	-0.09505159
219	0xbd9a5073	-0.07534876
220	0x3e8ff2b0	0.28114843
221	0x3e74b6c9	0.23897852
222	0x3dd04a2c	0.10170397
223	0xbe7508bf	-0.23929118
224	0xbe3824ba	-0.1798276
225	0x3de9fa30	0.114246726
226	0x3d33a779	0.043860886
227	0xbc3608da	-0.011110509
228	0xbe86bfc0	-0.2631817
229	0xbe8c23ba	-0.27371007
230	0xbdfc5c4e	-0.12322293
231	0x3e72e59e	0.23720405
232	0xbd510452	-0.05102951
233	0xbd553a0e	-0.05205732
234	0x3d98668d	0.07441435
235	0x3e832d42	0.25620466
236	0x3d46484f	0.048408803
237	0x3e650330	0.22364497
238	0xbe347ea2	-0.17626432
239	0xbe893c19	-0.26803663
240	0xbde54003	-0.1119385
241	0x3e7c8c98	0.24663007
242	0x3dc7058f	0.09717857
243	0x3e86bce7	0.26315996
244	0x3dde8eb1	0.1086706
245	0x3e11f017	0.14251743
246	0xbce4b234	-0.027917005
247	0x3cfd8a26	0.030949663
248	0x3d12a2cf	0.035799798
249	0x3d233fe0	0.039855838
250	0xbe96849d	-0.2939805
251	0x3e1820df	0.1485629
252	0x3ce5a81a	0.028034259
253	0x3e325b2b	0.1741759
254	0x3e09f6cd	0.13473053
255	0xbe6af88e	-0.22946379

gat1.att_dst f4 [1, 4, 64]
0	0x3d9a5625	0.07535962
1	0xbe8fc0fb	-0.2807692
2	0xbe2aff01	-0.16698839
3	0xbe5387b9	-0.20657243
4	0xbe573780	-0.21017265
5	0xbdafe462	-0.085884824
6	0xbe88af1c	-0.26696098
7	0x3e24d181	0.16095544
8	0x3e342fb7	0.17596327
9	0x3c9b1f36	0.018935781
10	0xbe58be0c	-0.21166247
11	0x3bd761a2	0.006572918
12	0x3dd316ab	0.10307058
13	0x3e23f2f6	0.16010651
14	0x3dffa725	0.12483052
15	0xbe777b0c	-0.24168032
16	0xbe19b076	-0.15008721
17	0x3dee2bfa	0.116294816
18	0x3e2ed66a	0.1707398
19	0xbdb95680	-0.09049702
20	0xbe1a98ef	-0.15097402
21	0xbc8c9f96	-0.01716594
22	0x3da4bdd3	0.080440186
23	0xbe3cfc86	-0.18455705
24	0x3e892ad3	0.26790485
25	0xbe6d725a	-0.23188153
26	0x3c251c2a	0.010077516
27	0xbe39b6f2	-0.18136194
28	0x3da61e7b	0.081112824
29	0xbe8ab0bc	-0.27087963
30	0xbdb86e19	-0.090053745
31	0xbe9578ac	-0.29193628
32	0x3d82757a	0.06370063
33	0xbd99841b	-0.074959
34	0xbe7bddbb	-0.24596302
35	0x3d583f22	0.052794583
36	0xbd815635	-0.06315271
37	0x3deea2a0	0.11652112
38	0x3e0a9632	0.13533857
39	0x3e93d4ce	0.28873295
40	0xbcb1e54a	-0.021715779
41	0x3e1a3c91	0.15062167
42	0x3e97034c	0.29494703
43	0xbe0e7116	-0.13910326
44	0xbd6e3b57	-0.05816206
45	0x3db72711	0.08942998
46	0xbe30dd9e	-0.1727204
47	0xbc5e0373	-0.013550627
48	0xbd87925c	-0.06619713
49	0xbe87775d	-0.26458254
50	0xbbb173e5	-0.005415427
51	0xbe0b048a	-0.1357595
52	0x3e2bebee	0.16789219
53	0xbe73f54e	-0.23824045
54	0xbe744707	-0.2385522
55	0xbe1137f3	-0.14181499
56	0x3e171a99	0.1475624
57	0xbe1bb7e8	-0.15206873
58	0x3b41ca28	0.0029569957
59	0xbc1f87be	-0.009736953
60	0xbe4e2ecb	-0.20135038
61	0x3e87033c	0.26369655
62	0xbe2b94e8	-0.16756022
63	0x3e219b56	0.15781912
64	0xbe53a9d4	-0.20670253
65	0xbe4457bf	-0.19174097
66	0x3d8060f0	0.06268489
67	0x3e00fbcc	0.12596053
68	0x3e1c1dba	0.15245715
69	0xbe193524	-0.14961678
70	0x3d5b11c6	0.053483747
71	0x3dab17ab	0.08354124
72	0x3e0f66b3	0.1400402
73	0x3e81575a	0.25261956
74	0x3d06707a	0.03282211
75	0x3dad2515	0.084543385
76	0xbe701fc7	-0.23449622
77	0x3d8bcb0a	0.06825836
78	0x3e5b2e14	0.21404296
79	0xbe88bdda	-0.26707345
80	0x3e780582	0.24220851
81	0xbe823de9	-0.2543786
82	0xbdd2c85f	-0.10292124
83	0xbe81cf56	-0.25353497
84	0xbd580b25	-0.052745003
85	0xbdcaeb99	-0.09908218
86	0xbe5a4013	-0.21313505
87	0xbe0e56b0	-0.13900256
88	0x3ccb2fe4	0.02480311
89	0xbe68ac3e	-0.22721955
90	0xbe5179b0	-0.20456576
91	0xbe8721de	-0.26393026
92	0x3e4ed357	0.20197807
93	0xbdf10161	-0.11767841
94	0xbe86d74d	-0.26336136
95	0x3cde8b08	0.027165905
96	0x3e69fe49	0.22850908
97	0x3ca149a0	0.019688427
98	0x3c7f6e29	0.015590229
99	0xbe82572b	-0.2545713
100	0xbe19958a	-0.14998451
101	0x3cda6a54	0.02666203
102	0xbe78ffb4	-0.24316293
103	0x3e192c7e	0.14958379
104	0xbe337d78	-0.17528331
105	0x3e716d4f	0.23576854
106	0x3d87a0d5	0.06622473
107	0x3e57e0f2	0.21081904
108	0xbe818136	-0.25293893
109	0xbe8ab27d	-0.270893
110	0xbe0ed58b	-0.13948648
111	0x3d8f84af	0.07007729
112	0x3d82bf7a	0.063841775
113	0x3d988880	0.0744791
114	0xbe2398f6	-0.15976319
115	0x3d60701d	0.05479442
116	0xbe51b3fa	-0.20478812
117	0xbe0d44a0	-0.1379571
118	0x3e87dd66	0.265361
119	0x3e898ed3	0.2686678
120	0x3bdf5fb3	0.006816828
121	0x3e59a0a4	0.21252686
122	0xbd6a0571	-0.057134096
123	0xbe695c7a	-0.22789183
124	0x3e1eabbf	0.15495203
125	0xbe988a31	-0.29792932
126	0x3d9f8aba	0.07790132
127	0x3e8648da	0.26227456
128	0xbd3a9c49	-0.0455592
129	0xbe3f9547	-0.18709289
130	0x3d6c5d88	0.057706386
131	0x3cf2c1f3	0.029633498
132	0x3e3fc214	0.18726379
133	0x3e7f3c95	0.24925454
134	0xbe509d06	-0.203724
135	0x3cb7e00c	0.022445701
136	0xbdbc7cf1	-0.09203518
137	0x3c605c47	0.013693876
138	0x3e7cffaa	0.24706903
139	0xbd9772a2	-0.07394911
140	0x3dbc4abf	0.09193944
141	0xbc9b27ba	-0.018939842
142	0xbe474caf	-0.19462846
143	0xbd6418d3	-0.055687737
144	0x3d9f0d6b	0.07766231
145	0xbe42a74a	-0.19009128
146	0xbe092c0e	-0.13395712
147	0x3d006d95	0.031354506
148	0x3e63b983	0.22238736
149	0x3d9d04d6	0.07666938
150	0x3e67d27f	0.22638892
151	0xbe8d5ab5	-0.27608266
152	0x3e1d1978	0.15341747
153	0xbcd1f8a7	-0.025631262
154	0x3d966807	0.073440604
155	0x3ddcfdf0	0.10790622
156	0x3e802984	0.25031674
157	0x3e67e05a	0.22644177
158	0x3e46d3d9	0.19416751
159	0x3dee26fa	0.11628528
160	0xbe0f9368	-0.14021075
161	0xbdbb0814	-0.091324
162	0x3e3876e8	0.18014109
163	0x3dc2500d	0.09487925
164	0xbe86fdb1	-0.26365426
165	0xbe5a8505	-0.21339805
166	0xbe5d3240	-0.216012
167	0x3e7af336	0.2450684
168	0xbe05815d	-0.1303763
169	0x3e1f36e4	0.15548283
170	0xbd96c929	-0.07362587
171	0xbd645b25	-0.055750985
172	0xbde48eb1	-0.11160029
173	0x3dd87432	0.105690375
174	0xbe2e23dd	-0.17005868
175	0xbc6f611b	-0.014610554
176	0x3e753efc	0.23949808
177	0x3e22ca83	0.15897565
178	0xbe6b261d	-0.22963758
179	0x3e925f66	0.28588408
180	0xbd86cd9c	-0.065821856
181	0x3d76967b	0.060202103
182	0x3e60c535	0.21950229
183	0xbd77e9ff	-0.06052589
184	0xbda68f5d	-0.08132813
185	0x3d76131b	0.060076814
186	0x3d8d9b8c	0.06914434
187	0xbd3d45e6	-0.04620924
188	0xbdab011b	-0.0834982
189	0xbe7090e2	-0.23492768
190	0xbe8cf482	-0.27530295
191	0xbe219d6d	-0.1578271
192	0x3e420b9b	0.1894974
193	0x3e40ecc7	0.18840323
194	0xbe475d79	-0.1946925
195	0xbe9548fb	-0.29157242
196	0x3e4e4bc8	0.20146096
197	0x3e891d50	0.26780176
198	0xbd1de506	-0.038548492
199	0x3e1532d4	0.1457017
200	0x3e83daa6	0.25752753
201	0x3e26ba81	0.16282083
202	0x3d7b1e20	0.061308026
203	0x3e6108be	0.21975991
204	0x3e6e9e07	0.2330247
205	0xbe3e63d8	-0.18592775
206	0xbe47ee09	-0.19524397
207	0x3e8b1657	0.2716548
208	0xbe50a706	-0.20376214
209	0xbe2378c7	-0.15964042
210	0xbe63917b	-0.22223465
211	0xbe86cf2b	-0.26329932
212	0xbda8b33a	-0.0823731
213	0x3e3054af	0.17219804
214	0x3dff18a1	0.124558695
215	0x3e384a11	0.17997004
216	0x3dff6657	0.12470692
217	0x3de0ae1b	0.10970708
218	0x3d8e2583	0.069407485
219	0xbe6c75e1	-0.23091842
220	0x3dc10e0e	0.09426509
221	0xbe339011	-0.17535426
222	0xbcd6cc31	-0.026220413
223	0xbe25162f	-0.16121744
224	0xbd971bd6	-0.07378356
225	0x3d9a7f5b	0.075438224
226	0x3e2e3565	0.17012556
227	0xbe36608f	-0.17810272
228	0x3e869fad	0.26293698
229	0xbe644f60	-0.22295904
230	0xbb1a2e03	-0.002352596
231	0x3ae72413	0.0017634652
232	0x3d8be86d	0.06831441
233	0xbe0c121b	-0.13678782
234	0x3c82cfb1	0.015968176
235	0xbe5b0c7c	-0.21391481
236	0x3d9a2e98	0.07528418
237	0xbda9dfd4	-0.08294645
238	0x3db44445	0.08802084
239	0xbca34d0c	-0.0199342
240	0xbe171f36	-0.14758
241	0xbd4fb0fb	-0.05070589
242	0xbe4463c6	-0.19178686
243	0x3ccff9c5	0.025387654
244	0xbdff74d4	-0.12473455
245	0xbdf5749b	-0.11985131
246	0xbe18f2aa	-0.14936319
247	0x3dd832d2	0.10556568
248	0xbdfba985	-0.12288193
249	0xbd492b0e	-0.049113326
250	0xbd5e4792	-0.054267474
251	0xbe406e8e	-0.18792173
252	0x3e812f87	0.25231573
253	0xbe8e52aa	-0.27797443
254	0xbdca602e	-0.09881626
255	0x3d6a5178	0.0572066

gat1.bias f4 [256]
0	0x35f7907a	1.8444982e-06
1	0x34efb56a	4.4649215e-07
2	0xb825773c	-3.945011e-05
3	0x36fcf7dc	7.53904e-06
4	0x362940c4	2.522066e-06
5	0xb6b1815e	-5.2900714e-06
6	0xb8d9d1a5	-0.00010386416
7	0x36c4095a	5.842344e-06
8	0xb5c06709	-1.4335102e-06
9	0xb66dd660	-3.5440535e-06
10	0x36905a42	4.302042e-06
11	0xb74169b5	-1.1528308e-05
12	0x36a6cc2a	4.9709533e-06
13	0x377ce329	1.507326e-05
14	0x36bb227d	5.5770493e-06
15	0x36884e3b	4.062223e-06
16	0xb6c077c6	-5.7359894e-06
17	0xb6c4f3a6	-5.8696196e-06
18	0xb62950fb	-2.52301e-06
19	0xb647ba77	-2.9761848e-06
20	0x377e3006	1.5150761e-05
21	0xb7a2d7cb	-1.9412391e-05
22	0xb5f70a70	-1.8405972e-06
23	0xb7458d48	-1.177501e-05
24	0xb5b33f28	-1.335492e-06
25	0x3440a8c5	1.7942791e-07
26	0x35accbf1	1.2874353e-06
27	0xb74dcb9a	-1.2266357e-05
28	0x3687e941	4.050468e-06
29	0xb6aecfae	-5.209781e-06
30	0xb6221555	-2.4152298e-06
31	0xb64e3f19	-3.073312e-06
32	0xb6806c01	-3.8272706e-06
33	0x37874a36	1.6127811e-05
34	0x37cf21d4	2.4692075e-05
35	0xb71262f2	-8.725316e-06
36	0x359c02d2	1.1623727e-06
37	0xb63c2604	-2.803631e-06
38	0xb78143ef	-1.5409632e-05
39	0xb5304755	-6.566891e-07
40	0x3604a416	1.9765043e-06
41	0xb72cb060	-1.0293064e-05
42	0x36deb522	6.637202e-06
43	0x3892018a	6.962109e-05
44	0xb6ec0968	-7.034443e-06
45	0xb62fdcc1	-2.6205528e-06
46	0xb7317643	-1.0577557e-05
47	0x35b8517c	1.3732783e-06
48	0xb79feb33	-1.90638e-05
49	0xb617e449	-2.2633633e-06
50	0xb7b490f6	-2.1525175e-05
51	0x35292a50	6.301898e-07
52	0xb62635cc	-2.4767241e-06
53	0xb7e582b2	-2.7359787e-05
54	0x350debe6	5.286987e-07
55	0xb530bbb4	-6.5838253e-07
56	0x36eef5e7	7.1215795e-06
57	0x38280319	4.0057206e-05
58	0xb773c53c	-1.4529851e-05
59	0x37050bfc	7.930208e-06
60	0xb629fea5	-2.5331185e-06
61	0xb7c63d6b	-2.363204e-05
62	0x36891ec9	4.086502e-06
63	0xb607b615	-2.0222553e-06
64	0xb660a0da	-3.347223e-06
65	0x38a0afab	7.662115e-05
66	0x36b119ae	5.2780006e-06
67	0x3704491e	7.884837e-06
68	0xb5607b77	-8.362617e-07
69	0x36c6e16b	5.927102e-06
70	0x3649ced7	3.007173e-06
71	0xb721e33f	-9.649258e-06
72	0xb7d53959	-2.5418283e-05
73	0x37a7db8d	2.0010188e-05
74	0xb701f784	-7.746628e-06
75	0xb68319e6	-3.907119e-06
76	0x368b64ac	4.1542426e-06
77	0xb71b9b16	-9.274829e-06
78	0xb575d16e	-9.157437e-07
79	0xb5b0f349	-1.3183827e-06
80	0x368371ca	3.917351e-06
81	0xb785a49d	-1.593149e-05
82	0xb6e3f2db	-6.7933993e-06
83	0xb7411ebf	-1.1510855e-05
84	0x3413cdf6	1.376537e-07
85	0x36102119	2.1476937e-06
86	0xb7718ccf	-1.4397504e-05
87	0x36f3f2fa	7.2702505e-06
88	0xb6995c58	-4.5705056e-06
89	0xb5e917d4	-1.7366788e-06
90	0xb5fb3ad8	-1.8718083e-06
91	0x36569de8	3.1980398e-06
92	0x34cc5c20	3.806499e-07
93	0xb53df14d	-7.0759125e-07
94	0xb3113f0f	-3.3817795e-08
95	0xb685be79	-3.985883e-06
96	0x36e82009	6.917868e-06
97	0x360a0eac	2.0572143e-06
98	0xb6cbeedb	-6.077678e-06
99	0x3602b86a	1.9478853e-06
100	0xb6bbf54d	-5.601591e-06
101	0x360bd9a4	2.0839298e-06
102	0xb5861233	-9.989075e-07
103	0xb6482075	-2.9821215e-06
104	0x38a21314	7.7283155e-05
105	0x3667fb9b	3.4568136e-06
106	0xb7889e67	-1.6286225e-05
107	0xb6016429	-1.9280799e-06
108	0xb754ba0b	-1.2679501e-05
109	0x373084ef	1.05213685e-05
110	0x3707ab48	8.086507e-06
111	0xb5a1184c	-1.2002506e-06
112	0xb707a657	-8.085356e-06
113	0x362d850f	2.585646e-06
114	0x34d329c6	3.9332207e-07
115	0x352fc223	6.5475086e-07
116	0xb722201a	-9.663427e-06
117	0xb5f77b35	-1.8438792e-06
118	0x35138e35	5.4968706e-07
119	0xb68fe3f2	-4.2882684e-06
120	0xb6446f8d	-2.9271207e-06
121	0xb7c68129	-2.3663584e-05
122	0xb70a5046	-8.244131e-06
123	0x3302e44b	3.0475615e-08
124	0xb633f925	-2.68181e-06
125	0x3585583e	9.934954e-07
126	0x355f9683	8.3292997e-07
127	0x36819a08	3.862431e-06
128	0x37a3bce8	1.951908e-05
129	0xb508f6a2	-5.1022846e-07
130	0xb60f8f2b	-2.1391995e-06
131	0x35f30356	1.8105882e-06
132	0xb7c0a9c0	-2.296723e-05
133	0x34f6c1c5	4.5962057e-07
134	0x3756f20f	1.2811753e-05
135	0xb696f446	-4.4987855e-06
136	0xb6175fec	-2.2556587e-06
137	0x3827a493	3.9969174e-05
138	0xb6909964	-4.3093914e-06
139	0xb69a09be	-4.590692e-06
140	0xb7060469	-7.988049e-06
141	0x3784d032	1.5832575e-05
142	0xb6cda4b0	-6.1286482e-06
143	0xb6a6195d	-4.950138e-06
144	0x3791fb8f	1.7402488e-05
145	0x35d7563b	1.6043845e-06
146	0x367d2a2f	3.7724492e-06
147	0xb5783b18	-9.247319e-07
148	0xb6ac1386	-5.1282723e-06
149	0xb688b37e	-4.0740115e-06
150	0xb541c77e	-7.21884e-07
151	0xb506fc04	-5.028562e-07
152	0x369da442	4.6980867e-06
153	0xb7a1314e	-1.9215655e-05
154	0x34e29be9	4.220922e-07
155	0x3704bb1d	7.911379e-06
156	0xb60d2a98	-2.103543e-06
157	0xb5c3ca47	-1.4587503e-06
158	0x36f9ffc1	7.450552e-06
159	0xb625bf23	-2.4698172e-06
160	0x35fcb759	1.8828824e-06
161	0xb487d89f	-2.5303322e-07
162	0x335e6006	5.1775736e-08
163	0xb71daa4e	-9.397581e-06
164	0x35babbf3	1.391278e-06
165	0xb1043212	-1.923699e-09
166	0xb7079d58	-8.0832615e-06
167	0x37336bce	1.0694332e-05
168	0x3604d280	1.979206e-06
169	0x35e9779b	1.7394663e-06
170	0xb64060de	-2.8666614e-06
171	0xb60f83e0	-2.1385422e-06
172	0x36ce1f7c	6.1429437e-06
173	0x3603dc7b	1.9648858e-06
174	0x3611e355	2.1739008e-06
175	0xb64a193d	-3.0115036e-06
176	0xb5fc8508	-1.881418e-06
177	0x3684fd1c	3.9633724e-06
178	0x35bad4a5	1.3919968e-06
179	0xb6a7a385	-4.996024e-06
180	0x364b92c6	3.033479e-06
181	0x36da566f	6.5069685e-06
182	0xb5ed8a32	-1.7698096e-06
183	0xb538da6b	-6.886318e-07
184	0xb6869b02	-4.0115565e-06
185	0x351cf120	5.846541e-07
186	0x381f66fe	3.8004473e-05
187	0x37233615	9.728149e-06
188	0xb745e076	-1.1794376e-05
189	0x3701954b	7.723759e-06
190	0x37c551cd	2.3522321e-05
191	0x36d719e2	6.4105125e-06
192	0xb589ecc5	-1.0276204e-06
193	0xb60f6c49	-2.137169e-06
194	0xb6cfee4b	-6.1968217e-06
195	0xb75174a1	-1.24845255e-05
196	0xb6028181	-1.944689e-06
197	0x36a16c6a	4.810795e-06
198	0x3728c967	1.0060473e-05
199	0x364dc9e4	3.0664896e-06
200	0x356c8b1f	8.81193e-07
201	0xb5d2e9f5	-1.571431e-06
202	0x362cdf3e	2.5759941e-06
203	0xb5de1c42	-1.6548513e-06
204	0x359bb658	1.1601469e-06
205	0xb4d5d631	-3.9830186e-07
206	0x350c6976	5.230753e-07
207	0x36b56dde	5.4070106e-06
208	0xb6df0f94	-6.6477314e-06
209	0xb64aa7e5	-3.0198073e-06
210	0x3386b8e6	6.273494e-08
211	0x3810641c	3.442551e-05
212	0xb70c6ad6	-8.369525e-06
213	0x3659bc22	3.2445028e-06
214	0xb6faf250	-7.4787895e-06
215	0x369328c7	4.3856885e-06
216	0xb4f3a60e	-4.5383098e-07
217	0x35b70b5f	1.3637872e-06
218	0xb68ce2cd	-4.198728e-06
219	0xb4e3f6fe	-4.2461755e-07
220	0x361abc61	2.305744e-06
221	0x351a10bf	5.739384e-07
222	0xb6cdce3f	-6.1334863e-06
223	0xb71d5ca8	-9.379502e-06
224	0xb69a4baa	-4.598366e-06
225	0x365033ba	3.1024524e-06
226	0xb8fff510	-0.00012204994
227	0xb68d8b74	-4.218362e-06
228	0xb5bef674	-1.422783e-06
229	0x36e283c1	6.750663e-06
230	0x358be96d	1.0424243e-06
231	0x361bec62	2.3234393e-06
232	0x372382d5	9.746019e-06
233	0x36650622	3.412723e-06
234	0xb601a817	-1.932034e-06
235	0xb7340a6f	-1.0731265e-05
236	0xb6bc5688	-5.61291e-06
237	0x36cbdc90	6.0755483e-06
238	0x37224d0b	9.67389e-06
239	0xb6b1093d	-5.2760865e-06
240	0x36c0dd04	5.7477755e-06
241	0x34ba7741	3.4731968e-07
242	0xb83fce86	-4.573029e-05
243	0x3683ec67	3.931625e-06
244	0x36a68a52	4.963288e-06
245	0xb61788e1	-2.2580427e-06
246	0xb68d4f31	-4.2113465e-06
247	0x36a032de	4.7742933e-06
248	0x3640eb2a	2.8747113e-06
249	0x36658e6c	3.420656e-06
250	0xb4028ca5	-1.215836e-07
251	0x342c15f4	1.6026735e-07
252	0xb6a8ae67	-5.0270933e-06
253	0xb6f60a2c	-7.3325555e-06
254	0xb63aa919	-2.7814588e-06
255	0x37888861	1.627597e-05

gat1.lin.weight f4 [256, 7]
0	0x3e197122	0.14984563
1	0x3e13b945	0.14426143
2	0x3d94f919	0.07274074
3	0x3de7575f	0.112959616
4	0xbd5b4524	-0.053532735
5	0xbe01a2c0	-0.1265974
6	0x3ce7acf5	0.028280715
7	0xbe0ab880	-0.13546944
8	0x3db1c529	0.086801834
9	0xbbb55a65	-0.0055344575
10	0xbca9911c	-0.020699076
11	0xbde5fefd	-0.11230276
12	0x3d4dedaf	0.0502755
13	0xbd9eef35	-0.07760469
14	0xbdf20d0a	-0.11818893
15	0xbda48e13	-0.08034911
16	0x3df5c898	0.12001151
17	0x3dd67f17	0.10473459
18	0x3c9a0dca	0.018805403
19	0x3e19fb43	0.15037255
20	0x3b3a38f6	0.00284153
21	0x3d8269d6	0.06367843
22	0x3e059589	0.13045324
23	0xbddf0d40	-0.10891199
24	0x3e10f0da	0.14154378
25	0xbdda5cc4	-0.10662225
26	0x3df286c6	0.11842112
27	0xbce1c104	-0.027557857
28	0xbbe12f4e	-0.0068720942
29	0xbda97442	-0.082741275
30	0x3da37d4a	0.07982881
31	0x3d98305d	0.074310996
32	0x3e0703c3	0.13185029
33	0xbd13e71f	-0.036109086
34	0x3bc8407e	0.0061112037
35	0xbd089cbb	-0.033352595
36	0xbd1ac635	-0.03778668
37	0x3d815911	0.06315816
38	0xbd802f38	-0.06259006
39	0x3c02547e	0.007954715
40	0x3e005ee3	0.12536196
41	0x3e0df816	0.13864169
42	0x3e1283d6	0.14308104
43	0x3bbf1730	0.0058316216
44	0xbe1d4bc3	-0.15360932
45	0xbaf682ef	-0.0018807332
46	0xbca9a60b	-0.020709058
47	0x3e01f6a3	0.1269174
48	0xbda3e154	-0.08001962
49	0xbd2d497b	-0.042306405
50	0xbcb8aa68	-0.022542194
51	0xbe0fceb5	-0.14043696
52	0x3df88273	0.12134256
53	0xbd2a299b	-0.041543584
54	0xbd98ff62	-0.074705854
55	0xbd95e7dc	-0.07319614
56	0xbe05e302	-0.13074878
57	0x3cb73e0d	0.022368455
58	0x3bb6fb76	0.0055841757
59	0xbd8013cb	-0.06253775
60	0x3d02b702	0.03191281
61	0x3d8ced88	0.06881243
62	0x3d0f7d8f	0.03503185
63	0xbda45310	-0.080236554
64	0x3d91c182	0.07116987
65	0xbe0d18cd	-0.13778992
66	0x3dcc5a64	0.09978178
67	0xbcd4cfe2	-0.025978032
68	0x3e01c168	0.12671435
69	0xbdc53da6	-0.09630899
70	0x3e14f794	0.14547569
71	0xbe1637be	-0.14669701
72	0x3d9b0462	0.07569195
73	0xbe004655	-0.1252683
74	0x3e1aff2f	0.15136407
75	0xbe132711	-0.14370371
76	0xbddc56a9	-0.107587166
77	0x3ceffb1c	0.029294543
78	0xbccaf2b6	-0.024773937
79	0x3db87a49	0.09007699
80	0xbb318520	-0.0027087405
81	0xbbdef533	-0.0068041324
82	0x3c96c2f3	0.018403506
83	0x3db54e16	0.08852784
84	0x3d9ad4ec	0.07560143
85	0x3e136c5a	0.14396802
86	0xbbea78f8	-0.007155534
87	0x3e10ce66	0.14141235
88	0x3d81645a	0.06317969
89	0xbdaebc6f	-0.085320346
90	0xbe1add19	-0.15123405
91	0xbd79dbb7	-0.061000552
92	0xbd119b6c	-0.035548612
93	0x3c409d13	0.011756199
94	0x3d9fbe92	0.0780002
95	0x3d9419d4	0.07231489
96	0x3e0e01ba	0.13867846
97	0x3dd244ce	0.1026703
98	0x3de3afdf	0.11117529
99	0xbc578038	-0.013153128
100	0xbe000360	-0.12501287
101	0xbc40738e	-0.0117463
102	0xbd5c2a83	-0.05375148
103	0xbdde9963	-0.108691
104	0xbdfc2fc9	-0.12313802
105	0x3d2ba8ca	0.041909017
106	0xbe031c19	-0.12803687
107	0x3d599737	0.053122725
108	0xbdf53da9	-0.11974651
109	0xbdf2f05b	-0.118622504
110	0x3cbe709b	0.023247054
111	0xbd9e8ed9	-0.0774209
112	0xba03a571	-0.0005021906
113	0x3df7b0af	0.120942466
114	0x3d8df308	0.0693112
115	0x3da2c346	0.07947402
116	0x3d4ffb73	0.05077691
117	0xbd7a76e1	-0.061148528
118	0x3e14fa5b	0.14548628
119	0x3d81bb16	0.06334512
120	0xbd1dbfbf	-0.03851294
121	0x3d88f4c9	0.06687314
122	0x3e18317a	0.14862624
123	0xbc658d58	-0.01401075
124	0xbe09138a	-0.1338636
125	0x3cc82e5c	0.024436168
126	0xbd2f1723	-0.042746674
127	0x3dc984ee	0.098398075
128	0xbe07075f	-0.13186406
129	0x3d7ff851	0.062492672
130	0x3e15a7be	0.1461477
131	0xbda81d47	-0.08208709
132	0x3ce4fde6	0.0279531
133	0xbdcf16af	-0.101117484
134	0x3e1979e8	0.1498791
135	0x3d81a8e9	0.06331045
136	0x3e1cfa6c	0.15329903
137	0xbd301e6f	-0.042997774
138	0x3cdf0ecb	0.027228734
139	0xbdd26aa1	-0.10274244
140	0x3e07cc1a	0.13261452
141	0x3d0b25d5	0.033971626
142	0xbdd83e4a	-0.10558756
143	0xbda701ee	-0.08154665
144	0x3e100176	0.14063057
145	0x3daf38d7	0.08555763
146	0x3dc48870	0.09596336
147	0x3d73560e	0.05940824
148	0x3ded1b66	0.115774915
149	0xbc9e617c	-0.019333594
150	0x3e143004	0.14471442
151	0x3e19936c	0.14997643
152	0xbd8904ae	-0.06690346
153	0xbc74947e	-0.014927981
154	0x3e0083db	0.12550299
155	0xbd3ddde3	-0.046354186
156	0x3e03fa21	0.12888385
157	0x3db570e5	0.088594235
158	0x3d3fd4b6	0.046833716
159	0xbe1bb474	-0.15205556
160	0xbde9b0c2	-0.11410667
161	0xbcf0d409	-0.029397981
162	0x3c71742a	0.014737168
163	0x3e0a30f4	0.13495237
164	0xbd1175d8	-0.035512775
165	0xbdc95c51	-0.09832061
166	0xbe12bc4d	-0.14329644
167	0xbce849b9	-0.028355466
168	0x3dae91a4	0.085238725
169	0xbe0c198c	-0.1368162
170	0x3e1b2234	0.15149766
171	0x3e19562b	0.14974277
172	0x3d751656	0.059835754
173	0xbd6e65c9	-0.05820254
174	0xbce73d90	-0.028227597
175	0xbe188ed5	-0.14898236
176	0xbcd27cc9	-0.025694268
177	0x3c846f3b	0.01616632
178	0xbd44ebe0	-0.04807651
179	0x3d52be6a	0.051451124
180	0xbc391718	-0.01129701
181	0x3d8f3221	0.06991983
182	0x3d0fdbd3	0.03512175
183	0xbced48d1	-0.028965386
184	0xbda7d6d5	-0.08195273
185	0xbdcb923e	-0.09940003
186	0xbd88b8aa	-0.06675847
187	0x3d4754b4	0.048664764
188	0xbde240c0	-0.11047506
189	0x3d8d587f	0.06901645
190	0xbd24ca3d	-0.040231932
191	0xbdee331f	-0.11630844
192	0xbaec0a15	-0.0018008376
193	0xbe131498	-0.14363325
194	0x3e01a617	0.12661014
195	0xbdd21249	-0.10257394
196	0xbe00a4d5	-0.12562878
197	0xbd6c2480	-0.057651997
198	0xbd2eb0c3	-0.04264904
199	0x3dd98402	0.106208816
200	0xbbc56487	-0.0060239467
201	0xbc2d9597	-0.010594747
202	0xbd0ea6c3	-0.034827005
203	0x3d27fa3a	0.04101012
204	0x3d1fb999	0.03899536
205	0xbd8beec1	-0.06832648
206	0xbc7d6e94	-0.015468258
207	0xbd599032	-0.05311603
208	0xbddb28e4	-0.10701159
209	0xbe1711c8	-0.14752877
210	0xbe130722	-0.1435819
211	0x3d47e2dd	0.048800338
212	0x3cfb2fa2	0.030662362
213	0x3d7474b1	0.059681598
214	0x3d8b0a24	0.067890435
215	0x3e01ded1	0.12682654
216	0xbdc045b3	-0.09388294
217	0x3dc3de57	0.09563892
218	0x3de02acf	0.10945665
219	0x3d948989	0.07252795
220	0xbc0d24d3	-0.008614737
221	0xbd14e691	-0.036352698
222	0xbc991d58	-0.01869075
223	0xbdd023e2	-0.10163094
224	0x3cad86c6	0.021182429
225	0xbcc0f814	-0.023555793
226	0x3d6b7269	0.057482157
227	0xbb60cc4d	-0.003430146
228	0xbdb2b0d5	-0.08725134
229	0x3dcc2997	0.0996887
230	0xbde39c0a	-0.111137465
231	0xbe0d8fb2	-0.13824347
232	0x3d32d3b7	0.04365894
233	0x3dad9867	0.08476334
234	0xbd75280e	-0.059852652
235	0xbe16539c	-0.14680332
236	0xbdb6decc	-0.08929214
237	0x3dabb630	0.08384359
238	0x3d5fad89	0.054608855
239	0x3d12b21b	0.035814386
240	0x3d452e01	0.048139576
241	0x3d51efe4	0.05125417
242	0x3d9bdf44	0.07610944
243	0x3e122614	0.14272338
244	0x3d371a42	0.044702776
245	0x3d54a2a3	0.051912915
246	0x3dce717c	0.10080239
247	0x3d23a00c	0.039947554
248	0x3d342c22	0.0439874
249	0xbc38e2d7	-0.011284552
250	0x3ce86e5e	0.02837294
251	0x3e013037	0.12616049
252	0x3d9785bf	0.07398557
253	0xbe000901	-0.12503435
254	0x3baf38f4	0.0053473655
255	0x3ca60000	0.020263672

gat2.att_src f4 [1, 1, 64]
0	0x3e976452	0.29568726
1	0xbe8276bc	-0.25481212
2	0xbe7c0168	-0.24609911
3	0x3e3f09ed	0.1865613
4	0xbe6580ca	-0.2241241
5	0x3e33d04a	0.17559925
6	0xbdc60c64	-0.09670332
7	0x3e004ae5	0.1252857
8	0xbe992f6e	-0.29918998
9	0xbe1d2729	-0.1534697
10	0xbe549081	-0.20758249
11	0x3e8f0610	0.27934313
12	0x3e2a20fb	0.16614144
13	0x3e3eb3bf	0.18623255
14	0xbe8384bc	-0.25687206
15	0xbe715140	-0.2356615
16	0xbd99668f	-0.074902646
17	0xbe58809b	-0.21142809
18	0xbd518327	-0.051150467
19	0x3debd1c4	0.11514619
20	0x3e705b57	0.23472343
21	0xbe152473	-0.14564686
22	0x3c8130cb	0.015770337
23	0x3e14ac95	0.1451896
24	0xbc1fd106	-0.009754425
25	0xbe1433ef	-0.14472936
26	0x3e3f43e6	0.18678245
27	0x3e8445a9	0.25834396
28	0xbe398cec	-0.18120164
29	0x3de85cc2	0.11345817
30	0x3e4720d1	0.19446112
31	0x3e8f44cb	0.27982172
32	0x3e294045	0.16528423
33	0x3dee8b74	0.11647692
34	0x3d885cec	0.066583484
35	0xbde4fe0d	-0.11181269
36	0x3db55bd4	0.088554054
37	0xbe60c0f6	-0.21948609
38	0xbc1ee6a8	-0.009698547
39	0xbe618199	-0.22022094
40	0x3e5d5e9a	0.21618119
41	0x3dc68870	0.09693992
42	0x3e151900	0.14560318
43	0xbd79539a	-0.060870744
44	0x3e4eb05b	0.20184462
45	0xbdb5db75	-0.08879749
46	0x3e9bf8a0	0.30463123
47	0xbe9473e0	-0.28994656
48	0x3dd4e19d	0.10394595
49	0x3cfe1e5f	0.031020341
50	0xbd6e03cd	-0.058109093
51	0x3e8cfa21	0.27534583
52	0xbd423ae3	-0.04741944
53	0xbe62878f	-0.22122024
54	0x3e21fd55	0.15819295
55	0xbe0e618d	-0.139044
56	0x3e907a9a	0.28218538
57	0xbe8005c4	-0.250044
58	0xbd47449b	-0.04864941
59	0xbd7aae4e	-0.061201386
60	0x3cba0af8	0.022710308
61	0xbe44ea91	-0.19230105
62	0x3e358557	0.17726646
63	0xbd16e3c2	-0.0368383

gat2.att_dst f4 [1, 1, 64]
0	0x3e673157	0.22577415
1	0x3e954831	0.2915664
2	0xbe083988	-0.13303196
3	0xbdb4a9d7	-0.08821457
4	0xbe80d444	-0.25161946
5	0x3e18dd2c	0.1492812
6	0x3e280a73	0.16410236
7	0x3e89a2b8	0.26881957
8	0xbe957779	-0.29192713
9	0xbdffaf15	-0.12484566
10	0xbe1c3fb1	-0.15258671
11	0x3dd9305e	0.106049284
12	0x3e0643a4	0.1311174
13	0xbe90300a	-0.2816165
14	0xbd557c2b	-0.05212037
15	0x3e580bbe	0.2109823
16	0x3e1ee72e	0.15517876
17	0x3e554294	0.20826179
18	0xbbefdc35	-0.007319952
19	0xbe8adb38	-0.27120376
20	0xbe405cff	-0.18785475
21	0x3d7769c4	0.0604036
22	0xbdc1145b	-0.094277106
23	0xbe37d735	-0.17953189
24	0xbde3a21f	-0.111149065
25	0xbe083483	-0.13301282
26	0x3d4c989a	0.04995022
27	0xbe90a6ad	-0.28252164
28	0xbe3c25f7	-0.18373857
29	0x3e33d1dd	0.17560525
30	0xbd891340	-0.06693125
31	0x3e4eb3ef	0.20185827
32	0xbd9bc385	-0.07605652
33	0xbe4b914a	-0.19879642
34	0xbe37ef0e	-0.17962286
35	0x3e2818a2	0.16415647
36	0x3e32ed8b	0.17473428
37	0x3e3dc92f	0.18533777
38	0xbe9705ed	-0.2949671
39	0x3e822d5c	0.2542523
40	0xbe12b7cf	-0.1432793
41	0xbe24376d	-0.16036768
42	0x3e31c63f	0.17360781
43	0x3e61d270	0.22052932
44	0x3e3746f8	0.17898166
45	0x3d226b5e	0.039653175
46	0xbdac36aa	-0.08408864
47	0x3e1b28bf	0.15152262
48	0xbd261bb1	-0.040553752
49	0xbe03bab1	-0.12864186
50	0xbd46bcab	-0.04851977
51	0xbe2c3a69	-0.16819157
52	0x3e757df8	0.23973835
53	0xbe403641	-0.18770696
54	0xbe9c2fb8	-0.30505157
55	0xbc84df42	-0.016219739
56	0xbd024ed2	-0.03181345
57	0xbe1904db	-0.14943258
58	0x3e455091	0.19269015
59	0x3e59ad0b	0.21257417
60	0xbe9a9181	-0.30189136
61	0xbe61fe97	-0.22069775
62	0xbe56fcda	-0.20994893
63	0x3e010875	0.12600882

gat2.bias f4 [64]
0	0x34527b76	1.9602689e-07
1	0x35f42b18	1.8191959e-06
2	0x355c8ff3	8.216586e-07
3	0x351ba0c6	5.7975956e-07
4	0xb5b6ae86	-1.361085e-06
5	0x354d514e	7.6486765e-07
6	0x35cace40	1.51102e-06
7	0xb5ba80b1	-1.3895534e-06
8	0xb55ad05f	-8.151455e-07
9	0x34aca619	3.2158349e-07
10	0x3696fd8c	4.499865e-06
11	0x36814d10	3.853471e-06
12	0x3578fa3b	9.275133e-07
13	0xb74d780d	-1.2246904e-05
14	0xb53eec6a	-7.1124543e-07
15	0xb47817dc	-2.310548e-07
16	0xb5f4d261	-1.8240645e-06
17	0x325f8f28	1.3012858e-08
18	0xb691e947	-4.348494e-06
19	0xb517ecaa	-5.6596275e-07
20	0x354b2871	7.5682243e-07
21	0xb7008f0b	-7.662699e-06
22	0xb4ae8c2f	-3.2512023e-07
23	0x35d0619f	1.5525619e-06
24	0xb551134c	-7.788665e-07
25	0x34484203	1.8650466e-07
26	0x35ba33b1	1.3873124e-06
27	0xb5bd438e	-1.4101258e-06
28	0xb596cb4b	-1.1235037e-06
29	0xb6072ea5	-2.0143718e-06
30	0xb527dccd	-6.2533655e-07
31	0xb5118eae	-5.4224336e-07
32	0xb6554e3d	-3.1785014e-06
33	0xb5fd84b5	-1.8888592e-06
34	0x3411de4b	1.3585047e-07
35	0x36e02f77	6.681246e-06
36	0xb607fc83	-2.0263549e-06
37	0x368a0c27	4.114135e-06
38	0xb50cd45d	-5.2463093e-07
39	0x35bbc595	1.399009e-06
40	0xb6bb1fcf	-5.5767373e-06
41	0x3687ae30	4.0435916e-06
42	0x35efd981	1.787019e-06
43	0xb604a5e0	-1.9766085e-06
44	0xb5c846b2	-1.4921736e-06
45	0xb6864858	-4.001933e-06
46	0xb4e1e8ff	-4.2079043e-07
47	0x36128ca2	2.1837554e-06
48	0x35aa1201	1.2671227e-06
49	0xb5801d37	-9.545246e-07
50	0xb6aa40fc	-5.07396e-06
51	0xb527d58a	-6.252309e-07
52	0xb6082230	-2.028548e-06
53	0x371cc57b	9.344304e-06
54	0xb5a4e474	-1.2285441e-06
55	0xb6474171	-2.9691403e-06
56	0xb602a966	-1.9470112e-06
57	0x34e53e2d	4.2699813e-07
58	0xb59127cc	-1.0814924e-06
59	0xb5e52a28	-1.7074099e-06
60	0x35f5c361	1.8310785e-06
61	0xb5e00054	-1.6689396e-06
62	0x36382749	2.7441004e-06
63	0xb5ec9913	-1.7627921e-06

gat2.lin.weight f4 [64, 256]
0	0x3df1466c	0.1178101
1	0xbd56851d	-0.05237304
2	0xbd561a1b	-0.05227099
3	0xbe0c45ac	-0.13698453
4	0xbc10c199	-0.00883522
5	0xbdb09237	-0.08621638
6	0x3e00373b	0.12521069
7	0x3e0c493b	0.1369981
8	0x3d03985e	0.03212773
9	0x3c65cecb	0.014026354
10	0x3dc3087e	0.09523104
11	0x3dba0693	0.09083285
12	0x3df18340	0.11792612
13	0xbdbccc9e	-0.09218715
14	0xbbbc5147	-0.0057469937
15	0xbd0f1146	-0.034928583
16	0xbd6f677a	-0.058448292
17	0x3df500dc	0.119630545
18	0x3c07cef2	0.008289086
19	0x3ca5c99f	0.020237742
20	0xbd84dc68	-0.06487352
21	0xbd569dab	-0.052396458
22	0x3dfceda7	0.12350016
23	0x3da843a6	0.08216028
24	0x3cd31d87	0.025770916
25	0x3bc91a61	0.006137178
26	0xbdb60d9f	-0.08889317
27	0xbdb05aeb	-0.08611091
28	0xbce7541f	-0.028238354
29	0x3bb347c5	0.005471202
30	0x3cb0d4a7	0.021585776
31	0x3dbe55ac	0.09293684
32	0x3d4eecbb	0.050518733
33	0xbda02133	-0.07818832
34	0xbcbeed32	-0.023306463
35	0xbd7c3ddc	-0.06158243
36	0xbd759c3f	-0.05996346
37	0x3d2116d3	0.039328407
38	0x3e0c1aef	0.1368215
39	0xbcd5d44c	-0.026102208
40	0xbc35c492	-0.011094229
41	0x3da3ccad	0.07998023
42	0x38c06ca4	9.175509e-05
43	0x3d99c1a2	0.07507636
44	0xbda8fc0a	-0.08251198
45	0xbbf2eddc	-0.007413609
46	0xbdfa7722	-0.12229754
47	0x3ce2786e	0.027645316
48	0x3e0cad2d	0.13737936
49	0x3c2c6f04	0.010524515
50	0xbe0a66af	-0.13515733
51	0x3d020699	0.031744573
52	0xbd9eda16	-0.0775644
53	0xbbd87ebd	-0.0066069053
54	0xbda3890d	-0.07985125
55	0x3dc7cbb9	0.09755654
56	0x3de55ee3	0.11199739
57	0x3d53732c	0.05162351
58	0x3d56e3ff	0.052463528
59	0xbd4cda24	-0.050012723
60	0x3ddc8b8c	0.10768804
61	0xbdd2ce2e	-0.10293232
62	0xbdb73071	-0.08944786
63	0xbdab97a2	-0.08378531
64	0xbde982f5	-0.11401931
65	0x3dc1ec45	0.09468893
66	0x3dd6d46a	0.104897335
67	0xbd9030e1	-0.07040573
68	0xbd1a200b	-0.037628215
69	0x3d9a4c3f	0.07534074
70	0x3dab1f34	0.08355561
71	0x3d1dc222	0.038515218
72	0xbd243afd	-0.040095318
73	0x3d07863c	0.033087
74	0xbe03e1fd	-0.12879176
75	0x3da7dc44	0.08196309
76	0xbe0f6fcf	-0.14007495
77	0xbddee90c	-0.10884294
78	0x3e0ccc17	0.13749729
79	0x3ddbd452	0.10733856
80	0xbd95e928	-0.07319862
81	0x3c07ab16	0.008280536
82	0xbc12137b	-0.008915777
83	0xbd8c62ef	-0.068548076
84	0x3d85b920	0.065294504
85	0xbde01b70	-0.10942733
86	0x3df0f43a	0.117653325
87	0x3d144338	0.036196917
88	0x3dce4793	0.100722454
89	0x3d4b92ab	0.04970042
90	0xbdd97f1c	-0.10619947
91	0x3dcbe10a	0.09955032
92	0xbdbce516	-0.09223382
93	0x3cd7afda	0.02632897
94	0x3dafa911	0.08577169
95	0xbd0a0499	-0.03369579
96	0x3e07ef15	0.13274796
97	0xbdf027bb	-0.11726328
98	0xbd478d0d	-0.0487185
99	0x3c86b981	0.016445877
100	0x3c1c90f3	0.009556043
101	0x3dd36bb2	0.103232756
102	0x3e046865	0.12930448
103	0xbdf133ae	-0.11777435
104	0xbce82abb	-0.028340688
105	0xbd2f52c3	-0.042803537
106	0x3cb260c1	0.021774651
107	0x3dee2a5b	0.116291724
108	0x3c8e5d68	0.017378524
109	0x3d5bfc0e	0.053707175
110	0xbd73bec5	-0.059508104
111	0x3cac776e	0.021053042
112	0x3d9cd1e2	0.076572195
113	0x3de79406	0.1130753
114	0xbd82012b	-0.06347879
115	0x3dbab4b6	0.09116499
116	0xbdfc5036	-0.123199865
117	0x3d2adb89	0.04171327
118	0x3cfed300	0.031106472
119	0x3ca60653	0.020266687
120	0x3d1e56af	0.038656887
121	0xbe03c55f	-0.1286826
122	0xbde9c059	-0.114136405
123	0x3d86caff	0.06581687
124	0xbb067859	-0.002051851
125	0xbd6ebee6	-0.058287524
126	0xbd98a457	-0.0745322
127	0x3d845540	0.06461573
128	0xbd9faf4b	-0.07797106
129	0x3d2f4fde	0.042800777
130	0xbc74e9b0	-0.014948294
131	0x3db0f275	0.08639995
132	0xbd89da78	-0.06731123
133	0x3df8a04b	0.121399485
134	0xbdbec895	-0.09315602
135	0xbdf47987	-0.11937242
136	0x3d253aba	0.04033921
137	0x3d8f049e	0.069833025
138	0x3c970885	0.01843668
139	0xbd5db978	-0.054131955
140	0xbdd33a40	-0.10313845
141	0x3e0e021e	0.13867995
142	0x3dec5732	0.11540069
143	0xbdfe010e	-0.12402545
144	0x3cb5ddd0	0.022200495
145	0x3dfe5460	0.12418437
146	0xbc80a1c0	-0.015702128
147	0xbdf9c6c5	-0.121961154
148	0x3cc470ac	0.023979507
149	0x3cf05010	0.029335052
150	0x3d96e504	0.073679
151	0xbdaac9b5	-0.08339254
152	0x3b95f282	0.0045760283
153	0x3d3db2a1	0.046312932
154	0xbc45979c	-0.012060072
155	0xbdebd80f	-0.11515819
156	0x3db7a438	0.08966869
157	0xbd6dd7ec	-0.058067247
158	0x3e05ac18	0.1305393
159	0x3cd5e351	0.02610937
160	0xbca25c37	-0.019819362
161	0xbddfa33d	-0.10919807
162	0x3c9e1b9a	0.01930027
163	0xbd064d24	-0.03278841
164	0x3da0ceb9	0.07851929
165	0xbc063f8c	-0.008193862
166	0xbdac4992	-0.0841247
167	0x3c9225f0	0.017840356
168	0xbc90ba7f	-0.017667053
169	0x3e022ab9	0.1271161
170	0xbe059a58	-0.13047159
171	0xbd9decb9	-0.07711167
172	0xbd8a7a3a	-0.06761594
173	0x3dfd4e32	0.1236843
174	0xbd7df4c3	-0.062001
175	0xbd32ba72	-0.04363484
176	0x3d483c48	0.048885614
177	0x3d55270a	0.052039184
178	0x3cc0cbd4	0.023534693
179	0x3d731103	0.059342396
180	0xbd83d841	-0.064377315
181	0xbd1b83ed	-0.03796761
182	0xbdcabb58	-0.09899014
183	0xbc63c399	-0.013901615
184	0xbcd48fb1	-0.025947424
185	0xbd21c01b	-0.039489847
186	0x3d5497b9	0.051902507
187	0x3d6aff75	0.05737253
188	0x3d5b7808	0.053581268
189	0x3c662ba9	0.014048495
190	0x3dfb939d	0.122840144
191	0x3d3afcbe	0.04565119
192	0xbaf71046	-0.0018849454
193	0xbdc4a108	-0.09601027
194	0xbd8c12b5	-0.068395056
195	0x3de8cca5	0.11367158
196	0xbd1005ff	-0.03516197
197	0x3dd20e35	0.10256616
198	0xbdc06b72	-0.093954936
199	0xbdc17579	-0.09446234
200	0x3e00a36a	0.12562338
201	0x3c930d07	0.017950548
202	0x3dd15dcd	0.10222969
203	0xbc94ea2b	-0.018178066
204	0xbdd6f0be	-0.10495137
205	0x3d99e8fb	0.075151406
206	0xbde60194	-0.1123077
207	0xbd82c6fc	-0.063856095
208	0x3da2ddb6	0.07952444
209	0xbc59d735	-0.013295938
210	0xbd8dc0ce	-0.0692154
211	0x3d093c5e	0.033504836
212	0x3e0bebf8	0.13664234
213	0xbdcadca0	-0.09905362
214	0xbd4a9df7	-0.049467053
215	0xbe0765cf	-0.1322243
216	0x3d710a26	0.05884757
217	0x3dba33bc	0.09091899
218	0x3dfdc302	0.123907104
219	0x3e05df2e	0.13073418
220	0x3dba4e93	0.09097018
221	0x3de979d9	0.11400194
222	0x3d2993e6	0.041400813
223	0x3d588643	0.052862417
224	0x3d38d51f	0.045125123
225	0xbd650c48	-0.055919915
226	0x3d8503d5	0.064948715
227	0x3dbb6f6d	0.09152112
228	0x3d6d522b	0.05793969
229	0x3e085882	0.13315013
230	0xbcf58e4b	-0.029975077
231	0xbbef8f9a	-0.00731082
232	0x3cc99b7f	0.02461028
233	0x3cfc2b66	0.030782413
234	0x3d39a3ec	0.045322344
235	0x3d726967	0.05918255
236	0xbda60c6a	-0.081078365
237	0xbc7fa0fa	-0.015602345
238	0x3e00d3f6	0.12580857
239	0xbc865795	-0.016399184
240	0x3d078086	0.033081554
241	0x3dbe7547	0.09299713
242	0xbd5189ec	-0.051156923
243	0xbcca0aae	-0.024663296
244	0x3dee9a0f	0.11650478
245	0x3d275bb7	0.04085895
246	0x3d50c2e5	0.050967116
247	0x3db73d38	0.089472234
248	0x3d09d815	0.033653338
249	0x3d343500	0.043995857
250	0x3e09e540	0.13466358
251	0xbdd5b6db	-0.104352675
252	0xbdf6de00	-0.12054062
253	0x3d75a495	0.05997141
254	0xbda343a5	-0.079718865
255	0xbe0472e7	-0.12934457

bn1.weight f4 [256]
0	0x3f7ee1e7	0.9956345
1	0x3f805f95	1.0029169
2	0x3f80303e	1.0014722
3	0x3f808d61	1.0043145
4	0x3f7f5410	0.99737644
5	0x3f8076f6	1.0036304
6	0x3f7f1ef3	0.996566
7	0x3f8061b2	1.0029814
8	0x3f7ed4a8	0.9954324
9	0x3f7f9845	0.9984172
10	0x3f800b25	1.0003401
11	0x3f802ebe	1.0014265
12	0x3f7f6977	0.997703
13	0x3f7f31cc	0.9968536
14	0x3f7fbb9c	0.99895644
15	0x3f7f7aef	0.99796957
16	0x3f7fee8f	0.99973387
17	0x3f804fa3	1.0024303
18	0x3f7f7690	0.99790287
19	0x3f7fc335	0.9990724
20	0x3f7f1c04	0.99652123
21	0x3f806412	1.0030539
22	0x3f80702c	1.0034232
23	0x3f808594	1.0040765
24	0x3f7ea0b1	0.99463946
25	0x3f7edd7e	0.9955672
26	0x3f807f86	1.0038917
27	0x3f7f2fe4	0.9968245
28	0x3f804ed9	1.0024062
29	0x3f7ea847	0.9947552
30	0x3f7ec978	0.99526167
31	0x3f804bcc	1.0023131
32	0x3f809d26	1.0047958
33	0x3f8067be	1.003166
34	0x3f7f2a4b	0.9967391
35	0x3f8057e4	1.0026822
36	0x3f7f465b	0.9971673
37	0x3f7f1feb	0.9965808
38	0x3f807af1	1.0037519
39	0x3f7f03b5	0.9961503
40	0x3f804996	1.0022457
41	0x3f802ada	1.0013077
42	0x3f80b097	1.0053891
43	0x3f7f1261	0.9963742
44	0x3f807444	1.0035481
45	0x3f80385a	1.0017197
46	0x3f806a0a	1.003236
47	0x3f807afb	1.0037531
48	0x3f804a90	1.0022755
49	0x3f7ec434	0.9951813
50	0x3f8058ae	1.0027063
51	0x3f7f1c3f	0.99652475
52	0x3f7f22db	0.9966256
53	0x3f8074a0	1.0035591
54	0x3f7f6ba1	0.99773604
55	0x3f7e6d0d	0.9938515
56	0x3f7f59a0	0.9974613
57	0x3f7f1510	0.99641514
58	0x3f808fdf	1.0043906
59	0x3f805a15	1.0027491
60	0x3f8026b6	1.0011814
61	0x3f80753f	1.0035781
62	0x3f8047bf	1.0021895
63	0x3f7f51b0	0.9973402
64	0x3f7f7dd4	0.99801373
65	0x3f7f31ca	0.9968535
66	0x3f7f0cea	0.9962908
67	0x3f7fd70a	0.999375
68	0x3f7f4c2a	0.9972559
69	0x3f7f335e	0.99687755
70	0x3f7f2645	0.9966777
71	0x3f7f61f1	0.9975882
72	0x3f80572e	1.0026605
73	0x3f805390	1.0025501
74	0x3f80980f	1.0046405
75	0x3f7ec83a	0.9952427
76	0x3f803f75	1.0019366
77	0x3f8075f0	1.0035992
78	0x3f804b6c	1.0023017
79	0x3f808a2b	1.0042166
80	0x3f802702	1.0011904
81	0x3f7ed5ff	0.9954528
82	0x3f7f683e	0.99768436
83	0x3f808c29	1.0042773
84	0x3f7f0f52	0.9963275
85	0x3f7f82e4	0.998091
86	0x3f7ea949	0.9947706
87	0x3f7f0429	0.9961572
88	0x3f80a478	1.0050192
89	0x3f806591	1.0030996
90	0x3f7f1e05	0.9965518
91	0x3f805990	1.0027332
92	0x3f7f8d09	0.9982458
93	0x3f7f76e0	0.99790764
94	0x3f7f36bb	0.9969289
95	0x3f7ede85	0.9955829
96	0x3f7f5654	0.997411
97	0x3f8081b0	1.0039577
98	0x3f80759e	1.0035894
99	0x3f80bfae	1.0058496
100	0x3f80675a	1.003154
101	0x3f801fe6	1.0009735
102	0x3f804284	1.0020299
103	0x3f806d7e	1.0033414
104	0x3f7f22c5	0.9966243
105	0x3f80a32e	1.0049798
106	0x3f805912	1.0027182
107	0x3f7eb08f	0.9948816
108	0x3f80734d	1.0035187
109	0x3f7f1926	0.9964775
110	0x3f7f95b9	0.99837834
111	0x3f809e8c	1.0048385
112	0x3f7f871c	0.99815536
113	0x3f80792f	1.0036982
114	0x3f7ee227	0.9956383
115	0x3f7f5056	0.9973196
116	0x3f7f00c3	0.9961054
117	0x3f805cd9	1.0028335
118	0x3f8083d0	1.0040226
119	0x3f806125	1.0029646
120	0x3f805fca	1.0029233
121	0x3f804754	1.0021768
122	0x3f7f4ad4	0.99723554
123	0x3f806206	1.0029914
124	0x3f806e5c	1.0033679
125	0x3f7f17c5	0.99645644
126	0x3f7fd037	0.99927086
127	0x3f801f93	1.0009636
128	0x3f8049f1	1.0022565
129	0x3f80508f	1.0024585
130	0x3f808088	1.0039225
131	0x3f7ee448	0.9956708
132	0x3f80670c	1.0031447
133	0x3f7fb274	0.9988167
134	0x3f806837	1.0031804
135	0x3f7ef597	0.9959349
136	0x3f7f1292	0.9963771
137	0x3f7f0979	0.9962383
138	0x3f7eb8ee	0.9950093
139	0x3f805323	1.0025371
140	0x3f7f0737	0.99620384
141	0x3f805a36	1.002753
142	0x3f7f301e	0.99682796
143	0x3f801f9f	1.000965
144	0x3f7f3091	0.9968348
145	0x3f8056a7	1.0026444
146	0x3f7ec244	0.99515176
147	0x3f804b54	1.0022988
148	0x3f804f79	1.0024253
149	0x3f7ebaba	0.9950367
150	0x3f7f8894	0.99817777
151	0x3f7fd770	0.99938107
152	0x3f7f3332	0.9968749
153	0x3f7f16b9	0.9964405
154	0x3f7f73f0	0.9978628
155	0x3f7eb1c9	0.9949003
156	0x3f80b6ac	1.0055747
157	0x3f7f42c5	0.9971126
158	0x3f804ace	1.0022829
159	0x3f8084a7	1.0040482
160	0x3f8025ec	1.0011573
161	0x3f804b06	1.0022895
162	0x3f7ebcbb	0.9950673
163	0x3f80711d	1.003452
164	0x3f805ff8	1.0029287
165	0x3f7ef776	0.99596345
166	0x3f7f3874	0.99695516
167	0x3f7f0d40	0.9962959
168	0x3f8066c0	1.0031357
169	0x3f806d03	1.0033268
170	0x3f7f414c	0.9970901
171	0x3f7ed6be	0.9954642
172	0x3f80469d	1.002155
173	0x3f80bb99	1.005725
174	0x3f7f52ff	0.99736017
175	0x3f802701	1.0011903
176	0x3f7f1512	0.99641526
177	0x3f7f42d7	0.99711365
178	0x3f805d2f	1.0028437
179	0x3f7efad7	0.996015
180	0x3f7eecee	0.99580276
181	0x3f800e7b	1.0004419
182	0x3f7f2fe8	0.99682474
183	0x3f806371	1.0030347
184	0x3f8079a9	1.0037128
185	0x3f805e27	1.0028733
186	0x3f7f28c1	0.9967156
187	0x3f7f8fac	0.998286
188	0x3f804ca5	1.002339
189	0x3f7f61c2	0.9975854
190	0x3f805abb	1.0027689
191	0x3f7ecf92	0.9953548
192	0x3f80ae39	1.0053169
193	0x3f80795d	1.0037037
194	0x3f8059f2	1.0027449
195	0x3f7eb77e	0.99498737
196	0x3f801f79	1.0009605
197	0x3f7f447d	0.9971388
198	0x3f7f783b	0.9979283
199	0x3f7fd83f	0.9993934
200	0x3f8010a7	1.0005082
201	0x3f7ff5c6	0.99984396
202	0x3f804820	1.0022011
203	0x3f805e2f	1.0028743
204	0x3f7ed596	0.99544656
205	0x3f8075b7	1.0035924
206	0x3f80a25b	1.0049547
207	0x3f807c26	1.0037887
208	0x3f7f1e07	0.99655193
209	0x3f7ecdd5	0.99532825
210	0x3f8065ed	1.0031105
211	0x3f7f56cd	0.9974182
212	0x3f7f6131	0.9975768
213	0x3f7edecd	0.99558717
214	0x3f805a0b	1.0027479
215	0x3f7f38db	0.9969613
216	0x3f7fb059	0.9987846
217	0x3f805a55	1.0027567
218	0x3f802d27	1.0013779
219	0x3f7e9579	0.9944683
220	0x3f804559	1.0021163
221	0x3f8075a0	1.0035896
222	0x3f806a01	1.003235
223	0x3f804b5d	1.0022999
224	0x3f805cd9	1.0028335
225	0x3f80838b	1.0040144
226	0x3f7f24d0	0.99665546
227	0x3f8071de	1.003475
228	0x3f7f33ef	0.9968862
229	0x3f807b93	1.0037712
230	0x3f7ead20	0.9948292
231	0x3f7f24fa	0.99665797
232	0x3f7f316e	0.996848
233	0x3f8035fa	1.0016472
234	0x3f804f3f	1.0024184
235	0x3f807c18	1.003787
236	0x3f7f8017	0.99804825
237	0x3f7f900a	0.9982916
238	0x3f7f3358	0.9968772
239	0x3f8084a2	1.0040476
240	0x3f805b4b	1.002786
241	0x3f805707	1.0026559
242	0x3f8068df	1.0032004
243	0x3f801184	1.0005345
244	0x3f8049b0	1.0022488
245	0x3f805d0e	1.0028398
246	0x3f80523b	1.0025095
247	0x3f8059a8	1.0027361
248	0x3f7f01c1	0.9961205
249	0x3f7f4b39	0.99724156
250	0x3f7f829a	0.9980866
251	0x3f806b49	1.0032741
252	0x3f7fa726	0.99864423
253	0x3f7f9f1d	0.9985216
254	0x3f7f1ecd	0.99656373
255	0x3f7f0985	0.996239
