data/best_model.pt (torch, 143970 bytes, 27 tensors)

gat1.att_src f4 [1, 4, 64]
00000000: 99ff 3ebd 0d10 953e 1900 0fbe 2008 aabd
00000010: 53d7 51bd dc5b 243e c633 d5bd eec2 b4bd
00000020: c03b 983e 634b dcbd 079a 693e 12f4 cb3c
00000030: 1f7f 643d 0eff 553d 0859 adbd f879 f3bd
00000040: 1b61 3abd 6dc6 933d 2bc5 be3d 4299 213e
00000050: 905c 9abd 4aff 05be 4645 0f3e 3953 30be
00000060: 6921 79be 107a 823e 1e15 943d 35bc 4ebe
00000070: 58ac 7c3e 72d6 563e 5c8e b63d b231 63be
00000080: b89e eabd 5b29 7dbd eeb7 8c3e 2976 5ebe
00000090: 3d13 81bd 6ce4 2cbe 18b5 82be f564 e3bb
000000a0: 40bc fc3d 9677 443e 75d5 88be 7f65 8a3e
000000b0: a872 053e e438 9d3d 2954 293e 8d37 6c3e
000000c0: 101c 1ebe f02f e5b9 27d7 25be 8ad5 23bd
000000d0: 9e6e 1d3e 275e 593e c267 05bd ad2e ef3d
000000e0: cdc3 2cbd a996 49bd 5543 65be a030 103e
000000f0: aa86 863b 2ed2 d7bc af63 763d 442b 8c3e
00000100: 02e3 4a3d d5ca 743e 4c0f 123e dcca 4abe
00000110: dd16 543e a7d6 81be 374f 2e3e e11e 09be
00000120: 1a4c df3d 4f64 1b3e 1604 84be ba26 903e
00000130: 74dd adbd 3725 80be 684b 01be ce32 ad3c
00000140: b894 62bd b9d8 49be 90b2 70be 851e 713e
00000150: e61d 5c3d db74 3f3e b173 3cbe e966 2cbe
00000160: b305 a6bd 87cd 84bd 0bab 98bc f243 a6bc
00000170: 9dd7 7f3e 221d 40be bb90 05be 1980 fe3d
00000180: 87bf 4cbe 26b8 4d3e 910a 963e 0b92 323e
00000190: 0bcf 883e 9c05 b8bd c949 593e 90ed 85be
000001a0: 423b aebd 2761 1d3e 6b32 ccbc 0275 433e
000001b0: ec0c 11be ef40 12bd 866b 83be 4287 81bd
000001c0: 5719 f43d a9bb 933e 96ee c9bb b5c6 713e
000001d0: 4472 7abe 7659 08be 4975 63bc fd08 28bd
000001e0: 40ad 993d aff6 8bbe bb7b f03d 7dd6 5d3e
000001f0: 4f9a 4bbe 5af6 5a3d f95a 81be 964e 833e
00000200: e184 933e b701 6fbd a3ce 393d 28c1 323d
00000210: 75ea b4bb 68a0 943e e3d4 b0bd e7b2 adbb
00000220: 627b 2fbe 6ca3 30be c3f9 203e 1cd1 6f3e
00000230: 59b0 84be da9b 683e f518 e4bc 2388 c33d
00000240: 62fd 713e e031 ca3d 022a 65be 9de9 883d
00000250: b257 233e 3245 453e 902b 24be 7222 23be
00000260: c16a a1bd b265 563d d4b0 8d3e f98b 913e
00000270: f237 3dbe 58cd 123e a453 863e 0356 90be
00000280: d11d c63c 0108 013e 7b6a 213e 156f 833e
00000290: 41ca 1dbe aad3 75be a1b3 853e c110 0e3e
000002a0: 80d7 943e 9e8e f53d 8bd3 2abe d20b ea3c
000002b0: 5860 51be 4da8 e53c 80df a3bd 7bcb f83d
000002c0: b0e9 8dbe a3cb 893d d8df 6f3e 4665 07be
000002d0: dad5 a8bd dc72 ab3d 2314 6fbe d8bf 0a3e
000002e0: 4b2d 193e 857e 90bd 691c 083e de68 93be
000002f0: ca6e 80be 9bda 943e 464f 84be 4a0e 3abe
00000300: bc44 27be 5bf4 413e ec35 7fbe 1929 f33d
00000310: f205 35be 0903 2d3d 1a8c b33d d31c 943e
00000320: 56f9 103e 2e48 143d a6cd 65be 2dac 453d
00000330: e368 2e3d acd1 81be a663 b2bd 30d8 64be
00000340: 4d0d 723e 8a46 143d 65e3 f53d f2be 84bc
00000350: 12c8 94be d60c 6fbe 93f3 ec3b 77eb 483e
00000360: 7c1c 503e 989e 87be 3fe7 553d 5f21 8f3d
00000370: d5ac 1ebe 9572 123e db88 87be d739 ed3d
00000380: ff70 343d e6b7 323e 1f57 34be 78dc 113e
00000390: 89f0 f93d e88f 3d3e 9b46 8e3e 460a 1dbe
000003a0: fcb1 25bd 0e9e 33be a2ea 00be 440d e7bd
000003b0: 7465 c5bc 1a11 853e eb87 67be 01d7 54be
000003c0: b3ae 20bd de0e e53b ffc1 6d3e 9cb8 223e
000003d0: b9e7 cbbc 9122 8cbe 14dd 03be 2138 17bd
000003e0: 9725 85be 6c57 60be e70f 86bd cbe4 4dbd
000003f0: 6733 943e f292 923e 601b 18bd 5987 473e
-0.046630476 0.29113808 -0.13964881 -0.08302331 -0.05123074 0.16050667 -0.104102656 -0.088262424
0.29733086 -0.107565664 0.22812663 0.024896655 0.055785295 0.052245192 -0.08464247 -0.11888498
-0.045502763 0.07215581 0.093149506 0.1578112 -0.07537186 -0.13085666 0.1399127 -0.17219247
-0.24329151 0.2548375 0.0723059 -0.20188983 0.24675119 0.20980242 0.08913872 -0.22186926
-0.114560544 -0.061807018 0.27484077 -0.21724762 -0.063024975 -0.16884011 -0.2552879 -0.0069395253
0.12340593 0.19186243 -0.26725355 0.2703056 0.13032019 0.07676867 0.16536011 0.23068066
-0.15440392 -0.00043714 -0.16195355 -0.03999857 0.15374228 0.21227323 -0.032569654 0.116788246
-0.042178918 -0.049215946 -0.22388966 0.14081049 0.0041054087 -0.026345339 0.06015366 0.2737676
0.049532898 0.239055 0.14263648 -0.19803947 0.20711847 -0.2535908 0.17022406 -0.13390686
0.10903187 0.15174983 -0.25784367 0.28154546 -0.084895045 -0.25028393 -0.12626421 0.02114239
-0.05531761 -0.1971158 -0.23505616 0.23546799 0.05373945 0.1869692 -0.18403508 -0.16836132
-0.08106556 -0.06484514 -0.018636247 -0.02029607 0.24984594 -0.18761113 -0.13043492 0.124267764
-0.19994937 0.20089778 0.29304937 0.17438523 0.2672046 -0.08985445 0.21219553 -0.26157808
-0.08507396 0.15369092 -0.024926385 0.19087604 -0.14165086 -0.035706457 -0.2566797 -0.063246265
0.11918896 0.2885411 -0.006162475 0.23610957 -0.24457651 -0.13315377 -0.013882943 -0.041024197
0.07503748 -0.27336642 0.1174235 0.21663852 -0.19883083 0.053457595 -0.2526472 0.25645894
0.28812316 -0.058351245 0.04536308 0.04364124 -0.0055211135 0.2902863 -0.08634355 -0.005300868
-0.1713691 -0.1724984 0.15720277 0.23419613 -0.25915793 0.22715703 -0.027843932 0.095474504
0.23631814 0.09872794 -0.22379306 0.06685183 0.15951422 0.19264677 -0.16032243 -0.15931109
-0.0788169 0.052343078 0.27673972 0.28427103 -0.18478373 0.14336145 0.26235688 -0.28190622
0.02418414 0.1260071 0.15763275 0.25670686 -0.15409185 -0.24006525 0.26113608 0.13873579
0.29070663 0.11990093 -0.1668226 0.02857009 -0.20446908 0.028034354 -0.080016136 0.12148186
-0.27717352 0.06728294 0.23425233 -0.13222227 -0.08243914 0.08371517 -0.23347525 0.13549745
0.14958684 -0.07055382 0.13292088 -0.28790945 -0.25084525 0.29073033 -0.2584173 -0.18169513
-0.16334814 0.1894087 -0.24922913 0.11873073 -0.17678049 0.042239223 0.087669566 0.2892824
0.14157614 0.03620165 -0.2244173 0.048259903 0.042580497 -0.2535528 -0.08710413 -0.22348094
0.23637886 0.036200084 0.12006263 -0.016204331 -0.29058892 -0.2334474 0.0072311847 0.19621073
0.20323366 -0.26488185 0.052222487 0.06988787 -0.15495618 0.14301522 -0.264716 0.11583298
0.044053074 0.17452964 -0.17611359 0.14244258 0.122040816 0.18511927 0.27788243 -0.1533595
-0.040452942 -0.17540762 -0.12589505 -0.11281827 -0.024096228 0.2598961 -0.22610442 -0.20785142
-0.039229106 0.0069902977 0.23218535 0.15890735 -0.024890767 -0.27370122 -0.12877303 -0.036918763
-0.2600524 -0.21908349 -0.06546002 -0.050267022 0.28945467 0.28627735 -0.03713548 0.19485225

gat1.att_dst f4 [1, 4, 64]
00000000: f6a1 4b3e 8397 6f3e 6885 1fbe bc36 87be
00000010: ec9e c43d 051b 6d3e 2485 90be cd8f 8abe
00000020: 0565 19be bbf7 423e edd8 adbd e891 2c3e
00000030: 1895 51be f194 1d3e ce9a 22be 3022 0cbb
00000040: 4f9f ae3d a21a 87bc 5a7d 80bc 9c14 ffbd
00000050: 5392 05be ef1b b53c 895a 21be bd66 d13d
00000060: f162 143e da67 463e adb3 86be 5d4f d2bd
00000070: f047 473e 12bf cfbd 3299 603e 29ac 43be
00000080: 1c79 353d 5674 513e c5cd d2bd 800f dbbd
00000090: 5d69 9f3d ec07 2a3e 3342 b0bd 8c30 a8bd
000000a0: 0c37 2cbe 9c5d 83bd a018 893e 897d a53d
000000b0: 59cb a73b ca09 debd dd36 11be 0857 993e
000000c0: 3719 30bc 59b2 71be 2b0c 5cbe 113e ccbb
000000d0: 4725 fa3d bde4 853e 1ce2 693a 94ea 4a3e
000000e0: 01a5 923e 821a 0a3d e941 f7bd fed0 f43d
000000f0: c436 73bc 65a3 1b3d 82e1 923e 5931 c6bb
00000100: 93dd 7cbe 53e2 223e fd45 e43d cc2c 0e3c
00000110: 98dc 2f3e f578 b63c 29e9 56be aa0b 5fbe
00000120: 6fe8 dcbd 4928 613c 3713 0f3e 8498 e13d
00000130: d6a8 943e 7dbb 4b3e 3e3a 94be 4b18 573c
00000140: 7741 93be ee38 32be 12dc 60bc 78c3 993d
00000150: 7084 73be 12df 003e ac7f 0a3c cbbd 54be
00000160: 15c4 d8bd 07ea 8fbe 047d f6bd b071 ac3c
00000170: 85b1 75be 3304 a53d 1aa7 213e 9358 7cbd
00000180: 9237 203e bea1 f5bd 4790 173e 633b 07be
00000190: 6b3f 2c3e 75f4 323e f986 ef3d ceed 813e
000001a0: 622e 11bd ae50 69be 7667 653c 1e5a 8d3e
000001b0: eb1e 1dbe b299 803e 4c6a 95be 7810 81bd
000001c0: 751a 5f3e 719e 65bd d6e0 6fbd 00ca a13d
000001d0: 00fd 723e eb78 fb3d b7ea 0cbe 7882 723e
000001e0: 460c 80be 5f0e 543e dc61 91bd 8fd4 293e
000001f0: 9c28 f03d a74c 6cbd 6fcb e4bd 896f 7b3e
00000200: 484d 6e3e 23aa 3abd dff1 96be 01b0 db3d
00000210: f09c 713d 003d 86be 990f 653e 46da 3b3c
00000220: f175 e5bc b094 ff3c becd 743e 69a2 acbd
00000230: 98a8 8e3e cdcf 233e 597c fabd cee1 86be
00000240: 20b7 653d 2537 23be 1ce6 d53d 61a7 90be
00000250: 80e1 43be e9f4 59be 6349 d0bd e842 16be
00000260: 7d3e 6e3c 7550 5fbe 7659 2c3e 892f 6f3c
00000270: e61a c73d 94b0 fabd 7357 a53d 5592 2b3e
00000280: 819d a6bd a5b0 7ebe fab0 2a3e 4ca9 14be
00000290: 64ee 033e f77d 7e3e a71b 433e 7616 273d
000002a0: 07b2 903e 5d98 233e 5f2a 243e 147f afbd
000002b0: 3bba 8b3e ca91 4c3d 6d2b 883d b451 3d3e
000002c0: 3651 823e 9e02 013e 8ee0 84be e6bb 723e
000002d0: a67c 42bd 77be 943e ce11 1ebe ff7b 92be
000002e0: 5a83 69bd 8830 36be 5909 7fbc 78fd 6a3e
000002f0: 5048 8ebe dd2c 0abe d5ef 81be 35bf bcbd
00000300: 01fc a03d 6309 c8bd 562e 93be f0e4 66ba
00000310: 25a0 f03b fa18 94be 3d67 3dbe 76b2 46bc
00000320: 0064 0a3e 0b54 1abe 20b5 c83d 6f7e 4abe
00000330: 6dd9 8d3e 4ff3 5a3e 1884 ce3c 2948 5dbe
00000340: d9fc f63d de57 8f3e e783 0cbd cca0 05bd
00000350: d5aa c3bd 4eb8 5cbe b9d1 453d fb47 623d
00000360: 35e5 d8bd 2f25 4b3d e810 8c3e 3eb5 ae3d
00000370: 7999 dabd c572 273e b006 11be 7f62 9c3d
00000380: aa80 863e b954 1b3e 0167 5a3e 64b5 903e
00000390: 9073 73be 49d8 7a3e b68a 75bc f6da 823e
000003a0: 17e2 0bbe f792 18be 1804 02bd a244 8fbe
000003b0: e3dc 40be 485a 9ebd 9f55 56bd 9bf7 6fbd
000003c0: cfee 8d3d 1131 033e f972 e9bd 53cd 3b3e
000003d0: 34df 1c3d e158 92be 709a 833c 586f efbd
000003e0: d1e8 23be 6720 853d 5750 5f3d 8733 1e3e
000003f0: 92ef 01bd 0883 06be 3982 0ebe 657a 4d3e
0.19886002 0.23397641 -0.15578234 -0.26408947 0.096006244 0.23154838 -0.28226578 -0.27062836
-0.14979942 0.19039814 -0.08488641 0.16852534 -0.20467031 0.15388848 -0.15879366 -0.0021382682
0.085264795 -0.016492192 -0.015684772 -0.12455103 -0.130441 0.022108046 -0.15757193 0.10224674
0.14490868 0.19375554 -0.26308957 -0.102690436 0.19461036 -0.10143866 0.2193344 -0.19108643
0.044304952 0.20454535 -0.10293154 -0.10696316 0.07783768 0.16604584 -0.086063765 -0.082123846
-0.16817874 -0.06414339 0.267766 0.080805846 0.0051206765 -0.10841711 -0.14181085 0.29949212
-0.010748199 -0.2360319 -0.21489017 -0.006232985 0.12214141 0.26151076 0.00089219376 0.19816047
0.28641513 0.033716686 -0.12073118 0.119539246 -0.0148446 0.037997622 0.28687674 -0.006048363
-0.24693899 0.15906648 0.11146162 0.008677673 0.17173994 0.022274474 -0.20987381 -0.21781793
-0.10786521 0.013742515 0.13972174 0.11015418 0.29035062 0.1989574 -0.28950685 0.0131283505
-0.28760883 -0.1740453 -0.013724344 0.07507986 -0.2378099 0.12585095 0.008453291 -0.20775525
-0.10584275 -0.28108236 -0.120355636 0.021050304 -0.239935 0.080574416 0.157864 -0.06160791
0.15646198 -0.119937405 0.14801131 -0.13206248 0.16821067 0.17476065 0.11695666 0.25376743
-0.035444625 -0.22784683 0.014001718 0.27607816 -0.15343826 0.2511726 -0.2918266 -0.06301969
0.21787436 -0.056059305 -0.05856403 0.078998566 0.23729324 0.12278923 -0.13761412 0.23682582
-0.25009364 0.20708607 -0.07098743 0.16584991 0.117264956 -0.05769029 -0.111716144 0.24554266
0.23271668 -0.04557241 -0.29481408 0.107269295 0.058987558 -0.26218414 0.22369231 0.011465615
-0.02801034 0.03119883 0.2390661 -0.08429415 0.27863002 0.15997238 -0.12230749 -0.2634415
0.056082845 -0.15939005 0.104442805 -0.282527 -0.1912899 -0.21284832 -0.101702474 -0.1467396
0.014541266 -0.21808036 0.16831002 0.014598736 0.09721927 -0.12240711 0.0807332 0.1675504
-0.0813551 -0.24872072 0.16669074 -0.14517707 0.12883908 0.2485274 0.19053517 0.040792905
0.28260824 0.1597609 0.16031788 -0.0856916 0.2729052 0.049943723 0.06648908 0.18488199
0.25452584 0.12598655 -0.25952572 0.2370449 -0.047482155 0.29051563 -0.1543648 -0.28610227
-0.057010032 -0.1779195 -0.0155661935 0.22948253 -0.27789545 -0.13493676 -0.2537829 -0.09216157
0.07860566 -0.097674154 -0.2874629 -0.0008807918 0.0073433095 -0.28925306 -0.18496414 -0.012127509
0.1351471 -0.15071122 0.09800172 -0.19774793 0.27704945 0.21381877 0.025209472 -0.21609558
0.120599456 0.27996725 -0.03430548 -0.03262405 -0.09554068 -0.21554682 0.04829571 0.055244427
-0.10590593 0.049596008 0.27356648 0.08530663 -0.10673804 0.16352375 -0.14162707 0.07635974
0.26270038 0.15169038 0.21328355 0.2826339 -0.23774552 0.24496569 -0.014986685 0.2555768
-0.13660465 -0.14899813 -0.031742185 -0.2798205 -0.18834262 -0.077320635 -0.05232775 -0.058585744
0.06930315 0.12811686 -0.113988824 0.18340044 0.0382988 -0.28583434 0.016064852 -0.11691159
-0.16006781 0.06500321 0.054519977 0.15449344 -0.031722613 -0.13135922 -0.13916864 0.20066221

gat1.bias f4 [256]
00000000: 8ff4 9435 6d5d 6eb7 6d83 92b4 9e67 d136
00000010: 3b84 6836 584d aa36 ac80 05b8 8809 bdb4
00000020: 19c6 80b4 7edc 9eb6 9b78 9534 6a32 0fb7
00000030: 9dcb 5bb6 0247 57b6 0152 4ab6 dffe 95b5
00000040: a349 8ab5 6348 45b6 fafc 9a37 0365 a4b4
00000050: fbbc 1537 6e53 eeb5 1034 2eb5 e89a c935
00000060: 64fc 7eb5 298d a3b6 af3c 3835 53e8 8336
00000070: 4921 9535 4ce4 d335 ce1c 1b38 43ec b637
00000080: 3a56 0f36 e50e 4937 26fb 4f37 5518 2db6
00000090: 2183 df36 648d 4b35 38b0 b935 e034 bab6
000000a0: 1ac9 44b6 c6dc cd35 464d e137 d31a ae36
000000b0: d276 aeb3 d1e7 c6b7 d66c 6137 74b2 5eb7
000000c0: 9e44 84b5 b6ae 7d36 edbf 9035 ca1a 8135
000000d0: 53b8 3536 6aec f537 d19c d4b6 d6c1 51b6
000000e0: a63a e4b4 7bd1 0f37 fc2b 22b7 5f1c e736
000000f0: 9dcb 6536 e7e6 fa34 30f7 0db6 bcf2 5236
00000100: deeb 8a34 fc04 95b8 e62a a7b6 9734 8537
00000110: 9110 d536 24de 89b4 0904 2bb7 cd25 9c34
00000120: 6bff c4b4 a70f 99b6 9919 e336 00d3 8533
00000130: 7a75 04b6 8c0b 3237 0448 3136 012d 1bb5
00000140: 49ea e935 bb6f e134 34ab 0537 4293 e9b6
00000150: 7279 d136 b5cc 07b4 1fca c635 a40b bab6
00000160: 03af cbb7 4a7b 9337 4c83 6736 a6c6 0936
00000170: 169c 84b6 5dd2 8337 0773 dbb6 1d55 81b6
00000180: 0fe6 18b6 db6f 0736 27f7 8f36 2e6d a535
00000190: 7ef6 2ab6 8d9c 55b6 7bff c3b4 e846 d536
000001a0: 2141 9338 804b 8c36 2299 e1b3 8735 d236
000001b0: f41d 2f35 2545 cb36 e90c 2636 59b9 2836
000001c0: e01b d736 79c3 1cb5 a793 3ab6 8eeb a4b5
000001d0: baff 2737 2013 b037 12c4 a9b6 a0ec bc35
000001e0: e5bc dfb6 1cb4 2936 b201 fdb5 bb27 d535
000001f0: 085b 3435 6823 8e36 b4fd 6e37 899d 8335
00000200: f695 2735 9309 3cb7 cbca 1537 da4a 6c37
00000210: e490 a635 07b8 ac36 775c 69b5 f1c8 ed34
00000220: 24c2 a035 90d0 beb7 8c8b 0bb7 4019 b535
00000230: 6a61 b136 a60e df35 1fd1 d0b6 1fb9 5ab6
00000240: 29bd 1a36 fb5f 4db4 db7d 8a35 4305 6035
00000250: 72c5 e432 dd86 12b6 5e83 9136 ce49 dab4
00000260: af54 7535 2877 f1b6 1092 0db6 3c1d 4938
00000270: 9308 39b4 e91c 1837 8d57 a1b5 3298 4735
00000280: afaa 7d36 38ee 28b6 09df 04b8 4e73 1e37
00000290: b3de 0ab6 bd4e 6437 6347 d0b5 0d80 26b4
000002a0: 60e0 1735 33f2 c2b6 9638 c0b5 b3bd 93b6
000002b0: 08df 9c36 b59f 6636 9430 80b7 00e6 96b5
000002c0: e1f7 9eb6 b322 6b37 d108 adb6 e081 b6b6
000002d0: 77a8 2936 9f82 6d35 f11b 1036 7faa 3db6
000002e0: 185d 65b5 6623 e837 034d b035 86d7 aeb5
000002f0: e575 9136 7845 6935 c805 42b6 d4c9 3536
00000300: 7cc2 ccb4 0158 e6b6 d31b 2f37 b5c2 16b8
00000310: 03ed e7b4 401c 07b7 df8e 4eb5 eaac f7b6
00000320: 117e 9e36 c7b5 29b7 edcd ff35 18c1 64b7
00000330: b81c 94b6 93ef 36b5 dc3e 2836 9188 1eb7
00000340: b396 cf36 3527 0e36 bb80 01b7 d717 dbb6
00000350: f795 9534 3207 9236 cf39 3f37 bf66 8b36
00000360: 6ec6 3837 7f6e 7eb5 b86a 1337 ddb8 04b7
00000370: 7fed 02b6 5b12 a6b3 22fd 8334 ddef 8336
00000380: caa0 8b35 3407 ccb5 c7f6 1237 9222 e0b5
00000390: dbef 1c37 dea7 1637 892f 0334 0038 a032
000003a0: 2d8b 01b5 89a0 11b6 b8d1 c5b5 6bd7 86b7
000003b0: bc96 73b6 1559 4cb7 c6ba 9cb3 c61c d6b6
000003c0: 95c0 96b6 d7fc 6bb6 4247 4135 4355 60b6
000003d0: 345c 6434 d5f0 c737 cb15 a8b7 70e3 9e36
000003e0: 7757 94b5 9473 45b6 82ef 4a35 091c 38b7
000003f0: d529 8bb7 db7a 5a37 1fc6 8b36 ed3b b8b7
1.1098035e-06 -1.4207658e-05 -2.7290244e-07 6.240748e-06 3.4647662e-06 5.075399e-06 -3.1829506e-05 -3.5210928e-07
-2.3985993e-07 -4.7344356e-06 2.7841165e-07 -8.535202e-06 -3.2752062e-06 -3.2078829e-06 -3.0148078e-06 -1.1175542e-06
-1.0303232e-06 -2.9397422e-06 1.8476032e-05 -3.0620876e-07 8.9250925e-06 -1.7756663e-06 -6.489581e-07 1.5020751e-06
-9.498965e-07 -4.8742118e-06 6.863365e-07 3.9311503e-06 1.1111052e-06 1.5787168e-06 3.6981706e-05 2.1806109e-05
2.135885e-06 1.19840015e-05 1.23966365e-05 -2.5793172e-06 6.6611833e-06 7.5829143e-07 1.383486e-06 -5.5493874e-06
-2.9323332e-06 1.5337944e-06 2.6858073e-05 5.188727e-06 -8.12412e-08 -2.3711387e-05 1.3436385e-05 -1.32737805e-05
-9.854737e-07 3.7801633e-06 1.0784694e-06 9.619046e-07 2.7078393e-06 2.9316365e-05 -6.336348e-06 -3.1256254e-06
-4.2510982e-07 8.572238e-06 -9.666193e-06 6.8876393e-06 3.4242178e-06 4.6734132e-07 -2.115452e-06 3.1433729e-06
2.587612e-07 -7.105802e-05 -4.981982e-06 1.5879325e-05 6.3498233e-06 -2.5679867e-07 -1.0193334e-05 2.9084768e-07
-3.6693686e-07 -4.5615775e-06 6.768107e-06 6.231676e-08 -1.9737913e-06 1.0612315e-05 2.6416974e-06 -5.780749e-07
1.7428039e-06 4.199081e-07 7.967279e-06 -6.961084e-06 6.2428235e-06 -1.2647327e-07 1.4810975e-06 -5.544587e-06
-2.4280982e-05 1.7581177e-05 3.4498107e-06 2.053022e-06 -3.9520773e-06 1.5714375e-05 -6.5400995e-06 -3.854408e-06
-2.2783677e-06 2.0181676e-06 4.2905044e-06 1.2325233e-06 -2.5475451e-06 -3.1830598e-06 -3.6507467e-07 6.3561492e-06
7.0216374e-05 4.1811145e-06 -1.0505234e-07 6.264719e-06 6.523617e-07 6.057921e-06 2.4743442e-06 2.5141837e-06
6.4107444e-06 -5.839898e-07 -2.7802105e-06 -1.2287508e-06 1.0013517e-05 2.098974e-05 -5.059418e-06 1.4075958e-06
-6.667908e-06 2.52878e-06 -1.8850462e-06 1.58813e-06 6.7187693e-07 4.2360516e-06 1.4244975e-05 9.806109e-07
6.243057e-07 -1.1207902e-05 8.9283085e-06 1.4084124e-05 1.2410133e-06 5.147423e-06 -8.693382e-07 4.4290894e-07
1.1977431e-06 -2.2746884e-05 -8.317536e-06 1.34929e-06 5.2863516e-06 1.6619058e-06 -6.223228e-06 -3.2592286e-06
2.3057894e-06 -1.912703e-07 1.031843e-06 8.345416e-07 2.6632481e-08 -2.1834196e-06 4.33663e-06 -4.0659364e-07
9.1392843e-07 -7.1962313e-06 -2.1095657e-06 4.794936e-05 -1.7232587e-07 9.066637e-06 -1.2020915e-06 7.435475e-07
3.7799289e-06 -2.5172612e-06 -3.167897e-05 9.44438e-06 -2.069323e-06 1.3608192e-05 -1.5517984e-06 -1.550654e-07
5.657839e-07 -5.8098462e-06 -1.4321583e-06 -4.4030253e-06 4.6751265e-06 3.4365632e-06 -1.528141e-05 -1.124281e-06
-4.737624e-06 1.4015171e-05 -5.156828e-06 -5.439142e-06 2.5281022e-06 8.847946e-07 2.1473936e-06 -2.8262436e-06
-8.5444617e-07 2.7673039e-05 1.3135435e-06 -1.3026736e-06 4.3350615e-06 8.6900354e-07 -2.8911618e-06 2.7088581e-06
-3.8139467e-07 -6.864779e-06 1.0437291e-05 -3.5944122e-05 -4.3199552e-07 -8.0532045e-06 -7.6948885e-07 -7.3813035e-06
4.723443e-06 -1.0115508e-05 1.9058913e-06 -1.3634817e-05 -4.414087e-06 -6.814891e-07 2.507054e-06 -9.449331e-06
6.1866244e-06 2.118247e-06 -7.718972e-06 -6.529484e-06 2.7862527e-07 4.3519767e-06 1.1397947e-05 4.154484e-06
1.1013455e-05 -9.4783167e-07 8.78673e-06 -7.910855e-06 -1.950975e-06 -7.733316e-08 2.458483e-07 3.932028e-06
1.0403103e-06 -1.5201281e-06 8.7597355e-06 -1.6699362e-06 9.35417e-06 8.979781e-06 1.2217619e-07 1.8651917e-08
-4.825877e-07 -2.1700127e-06 -1.473868e-06 -1.6074357e-05 -3.629756e-06 -1.2180089e-05 -7.29829e-08 -6.3810467e-06
-4.492768e-06 -3.51649e-06 7.2001797e-07 -3.342823e-06 2.1267698e-07 2.3834795e-05 -2.0037309e-05 4.735244e-06
-1.1052315e-06 -2.9422563e-06 7.5599394e-07 -1.0973782e-05 -1.658957e-05 1.3022417e-05 4.165587e-06 -2.1962414e-05

gat1.lin.weight f4 [256, 7]
00000000: b443 dcbd c4e0 a1bd 89a9 fd3c 6829 0a3e
00000010: b323 16be 55c8 e73d 0ec1 1abd 1cf2 ca3d
00000020: 5728 fcbd 992a 753d 31de 213d a1f5 903d
00000030: ee60 3c3d f6eb b53d 66de 93bd 8b28 103e
00000040: a4cc ffbd 94b3 0a3e fa3b 203d bd5c 0cbe
00000050: 65f5 fbbd 0f16 f03b c1c6 913d 4695 cabd
00000060: 01c8 26bc a562 cf3c 6362 34bd 3a14 a83d
00000070: 3e19 cb3c aab7 223c cb5f e73d fc74 523d
00000080: f5c7 9abd 5741 e13b b3de 91bc 8411 ca3d
00000090: 2d52 9fbd 5adf adbd d6f5 33bd 55fd aebc
000000a0: 83f1 0ebe 3450 2b3d 60b3 a0bd fbe5 0f3e
000000b0: 7f5b cb3d df4f c0bd c2bc 173b f627 06be
000000c0: 22a7 733c 49b5 e33d 8648 efbd e8d8 7ebd
000000d0: 59b4 de3d 1e44 0e3e aea7 983b 9df6 e83c
000000e0: f49a 3f3d 51dc f2bd 5367 52bd fc90 07be
000000f0: 1c43 9ebd 1488 1d3e a453 fe3d 5daf 863d
00000100: 0c9c d9bd 5d16 d73c 39c0 44bc d465 99bd
00000110: 7750 12be a5eb 18be 2a08 063e 8571 c4bd
00000120: 8d1e ae3d a163 673d bc28 be3c f664 0b3e
00000130: 6eac 003e e8d4 6c3c 7824 77bd 62f4 efbd
00000140: 2c0f 9fbc 1de2 ac3b f18b 40bb b52c 1ebd
00000150: 3770 1cbe 4725 9cbc 3252 09bd bd23 0bbe
00000160: 57ca d1bd f582 0c3d 275f 413d 5c1a 0bbe
00000170: 8fec a83d 9985 ae3d f42d d83d a4cd d03c
00000180: e988 e9bd a32c cebc adc4 b63c ecdd 3fbd
00000190: 3ad5 72bc cc29 3bbd 6dbf 9f3d 8884 03be
000001a0: ac53 bc3d cdad 05be 11ae fcbd df72 0fbe
000001b0: fc39 d23b 0d5e dabc 491a 93bd 2fb8 f4bd
000001c0: 6c01 ecbc 238b f8bc 45f4 90bc 95e3 f23b
000001d0: 7179 8dbd 7bfc d43c 92d2 b33d 32d4 c73d
000001e0: a93e a3ba 99a4 e93d cf6f f8bd f230 10be
000001f0: 45d2 10be 4215 733d 72a2 84bd 33fa b7bd
00000200: 8784 1c3d a81b 3c3d d712 e6bd da65 5abc
00000210: be07 023e 0cf6 2b3d de2b 41bd 5ee1 b73d
00000220: 67ef 133e 1866 dbbb 3ccb 91bd f164 283a
00000230: 3bf2 003d def4 593d 0691 063c de48 c8bd
00000240: dbd6 a9bd 3a74 f13d 2f0e 163d d93b 2ebd
00000250: 19ca 1abe 835e bf3d f8d0 413d f645 7cbc
00000260: 3a23 1cbe 41fb 643d 4fe0 15be b70b d13d
00000270: 43b0 80bc fb67 1dbd 6d0b d4bd 2a4b 543d
00000280: c31e c4bd 0c91 563d 5ef7 353c ea76 09be
00000290: 1fb5 06be 3f51 b9bc ad64 81bd 5194 b4bd
000002a0: 7efe 3cbc 3e84 703d d94a dd3d bc35 183e
000002b0: 400d ed3d bf0d efbd 6b6c c6bd 139e 923d
000002c0: 3d2b c33c fc26 183d c3ea debc d11d fe3d
000002d0: 6825 9e3d 7571 8b3d 68f7 d9bd dc63 b1bd
000002e0: 262e 93bc ee99 0d3d 8490 553d f4a6 5f3d
000002f0: 999f 23bd d9e2 dc3d dec4 a13a 9ede 0bbe
00000300: b7db 123d f72c a2bc 999e 0bbe a40a cb3d
00000310: 017c 5dbd 531b 013e 94bb 74bd 42e6 643d
00000320: ccc4 e03d c364 343d 9999 3abd a79b bb3c
00000330: 79c2 8fbb b237 d1bd b01e e0bb d50f ffbc
00000340: c265 20bb 60eb cc3c 5cfe a7bc effb 75bd
00000350: 1a21 143d f2cb 353d 9a62 113e 68d5 813b
00000360: 5b9b 073e 2ef7 f53d 8d61 063e 971e 14be
00000370: b9f2 20bd 3e2a e43d 9a0d de3d a573 62bd
00000380: 9bd0 643c 7b3a e03d 5011 8ebd 7bf1 abbd
00000390: 7424 de3c 2c8f 89bd 34ed 7dbc 70f6 21bd
000003a0: fb42 e2bd 21bb 273d 2d02 603d d13d b23d
000003b0: e786 12bd a8af fe3c ab37 483d 2933 a73d
000003c0: 9562 b3bc 5679 e7bd 4836 823d 232b e93d
000003d0: 7905 0bbe 2602 c33d 236c eabd 234b ea3c
000003e0: caa0 143e 3ee0 d1bc bc28 00be 0e86 023e
000003f0: 3030 c9bc c83e a03c c37e 133e 1088 d73d
-0.10755101 -0.07904199 0.03096463 0.13492358 -0.14662056 0.11317507 -0.037781768 0.0990946
-0.12312382 0.059855077 0.03951854 0.070781 0.045990877 0.088828966 -0.072201535 0.14077966
-0.12490204 0.13545066 0.039119698 -0.13707252 -0.12302665 0.0073268483 0.071179874 -0.09891753
-0.010179521 0.025315592 -0.04403914 0.08206983 0.02479231 0.009931484 0.11297568 0.051381096
-0.0755767 0.006874244 -0.017806387 0.09866622 -0.07779346 -0.084898666 -0.04393562 -0.021361033
-0.13959317 0.041824535 -0.07846713 0.14052574 0.09929561 -0.09390234 0.002315328 -0.13101181
0.014871391 0.11118562 -0.116837546 -0.062218577 0.10874242 0.13893172 0.004658661 0.028437907
0.046778634 -0.11858428 -0.05136807 -0.13238901 -0.07727644 0.15383941 0.12418297 0.06576417
-0.10625467 0.02625578 -0.01200872 -0.07490125 -0.14288507 -0.14933641 0.13089052 -0.09591965
0.08501921 0.056491498 0.023212783 0.13612732 0.12565777 0.014455058 -0.060337514 -0.11716534
-0.019416414 0.0052759782 -0.0029380287 -0.038616855 -0.15277182 -0.019060744 -0.033525653 -0.13587852
-0.102436714 0.034304578 0.047209885 -0.13584274 0.08248245 0.085215755 0.1055564 0.025488682
-0.11403067 -0.025167769 0.02231058 -0.0468425 -0.014821345 -0.045694157 0.078001834 -0.12843525
0.09195647 -0.13054581 -0.12337888 -0.14008664 0.0064156037 -0.026656175 -0.07182748 -0.11949193
-0.028809272 -0.030339783 -0.017694602 0.007412384 -0.06907929 0.025999298 0.087803975 0.0975727
-0.0012454587 0.11408348 -0.12130701 -0.14081171 -0.14142711 0.059346445 -0.064762965 -0.089832686
0.038212325 0.045924813 -0.11234062 -0.013329947 0.12698266 0.041982695 -0.047160976 0.08978532
0.14446793 -0.00669552 -0.07118842 0.0006423733 0.03148101 0.05321204 0.008213287 -0.09779523
-0.082929336 0.117897466 0.03663462 -0.042537544 -0.15116157 0.093441986 0.04731843 -0.015397539
-0.15247813 0.055903677 -0.14636348 0.102073126 -0.015709048 -0.03842924 -0.10353742 0.051829495
-0.0957618 0.05238442 0.01110634 -0.13424268 -0.1315503 -0.022621749 -0.063180305 -0.088173516
-0.011535285 0.058719866 0.10805292 0.14864248 0.11574793 -0.11672544 -0.09688648 0.071590565
0.023824329 0.037146553 -0.027211552 0.12408031 0.077219784 0.068087496 -0.10642892 -0.08661625
-0.017966341 0.034570627 0.052139774 0.05460258 -0.039947126 0.10785455 0.0012341996 -0.1365914
0.035854068 -0.019796832 -0.13634719 0.09914139 -0.054073337 0.1260808 -0.0597492 0.055883653
0.10975036 0.044041406 -0.04555664 0.02290137 -0.0043871966 -0.10215701 -0.0068395957 -0.031135479
-0.0024474715 0.02501458 -0.02050703 -0.060054716 0.03616438 0.04438395 0.1419777 0.0039622076
0.13242857 0.120100364 0.1312315 -0.14464794 -0.03929398 0.111408696 0.10842438 -0.05528607
0.013965751 0.10948654 -0.06936896 -0.08395668 0.027116992 -0.06716761 -0.015498448 -0.03954166
-0.11047932 0.040949944 0.054689575 0.08703197 -0.035773184 0.031089619 0.048881214 0.08164055
-0.021897594 -0.1130244 0.063580096 0.11385181 -0.13576306 0.09521894 -0.11446407 0.028600281
0.14514461 -0.025619622 -0.12515539 0.1274645 -0.02455911 0.019561186 0.14403825 0.10523999

gat2.att_src f4 [1, 1, 64]
00000000: f5fe 0f3e a3eb 9abc 13f6 01be e837 5fbc
00000010: 4aa6 46be 016b 57bd 74ac 253e 1d12 41be
00000020: e546 f93d db7f 1bbc db53 75be 7f88 82be
00000030: 0993 83bd 0ae8 863e fc8c 103e 21be e4bd
00000040: 74d6 24be d817 b33d 4fb1 913e 383e 8fbe
00000050: 5e83 4abe 16eb dbbd 9339 82be 6db4 60be
00000060: 5291 64be 61f6 b83d 25f4 2cbe c653 1e3d
00000070: 63c8 a43d 07c6 6d3e fd0a 873e 7ca8 183e
00000080: ff2d e03c 6be5 933d 4f79 98bd c7e6 9c3d
00000090: 4d8b 923e 79f3 3d3e 202e 5abe 7083 393e
000000a0: 9e4c ae3d ae42 25be c19e 1f3e d7ab c53a
000000b0: 54a4 9bbc 5c38 553d 75b9 febc 3670 9bbe
000000c0: a8fa bf3d 6e3b 73be 104d fabd 939c 0bbe
000000d0: f0d9 9a3e c02b 82be c959 bf3c 807b 19be
000000e0: f5d2 afbd 8b88 343d 2bf0 713d c45b d93d
000000f0: 86b8 89bb 46b7 163e 7b16 533e 44bf 1e3c
0.14062102 -0.018911188 -0.12691526 -0.013624169 -0.19399372 -0.05259228 0.16179067 -0.18854566
0.12171725 -0.009490932 -0.2395777 -0.25494763 -0.06424529 0.26348907 0.14116281 -0.11169077
-0.16097432 0.08744782 0.28455588 -0.27977157 -0.19776675 -0.107381985 -0.2543455 -0.21943827
-0.2232106 0.09031368 -0.16890009 0.03865411 0.08046033 0.23220073 0.2637557 0.14908022
0.027365683 0.072214924 -0.07445013 0.07661205 0.28621903 0.18549909 -0.21306658 0.18116546
0.08510707 -0.16138718 0.15587904 0.001508112 -0.018999256 0.0520557 -0.031094292 -0.30359048
0.09373981 -0.2375314 -0.1222173 -0.13633947 0.30244398 -0.25424004 0.023358243 -0.14988518
-0.08585159 0.04407553 0.059066933 0.10613206 -0.004202905 0.14718351 0.20614044 0.009689156

gat2.att_dst f4 [1, 1, 64]
00000000: 3836 c33d cc57 193e 1a64 743e 5e2a 253e
00000010: 765d ed3a b0aa 5ebe 1922 55bd d196 1abe
00000020: e41b b73d eb82 40be b489 3ebd e611 2a3e
00000030: 9c28 4abe db43 d83d 4704 3abe 2750 57be
00000040: 56f7 2ebe 91c2 ebbd b875 403e dc1a 1fbb
00000050: fe38 9abe 0023 88bd a8ef febc d62f f6bd
00000060: 1d3c 7cbe beae 4ebe 643a 663e 6fc6 6b3e
00000070: c69e 59be 70e0 d73d b691 fb3d cb53 98be
00000080: 4e6d d93d 40f7 f7bb a80d 1dbe 00fd 973e
00000090: 1910 0f3d bb0a 143e 7ad5 64be df64 e0bd
000000a0: 1de8 b8bd 08a1 59be fce0 cb3b 981a 973e
000000b0: 47ff 3abe 039b a53c 14ce 7b3e d5f6 a73d
000000c0: 18ad ca3d 7b56 9ebd 882a ebbd 3c65 5d3e
000000d0: 4a30 1abe 5077 6b3e 6d08 153e 629f 6abe
000000e0: 49da ee3d 79e0 6abe e3e1 963e b00b 1abe
000000f0: 575b 993e efd5 d0bc 2d22 fe3c 2bc1 1dbd
0.09531826 0.14974898 0.2386631 0.16129443 0.0018109519 -0.217448 -0.05203447 -0.15096594
0.089408666 -0.18799941 -0.046518043 0.1660839 -0.19742054 0.105598174 -0.18165694 -0.2102667
-0.17086539 -0.1151172 0.18794906 -0.0024277484 -0.30121607 -0.06647301 -0.031120136 -0.12020843
-0.24632306 -0.20183846 0.22483212 0.23024915 -0.21251974 0.10540855 0.122836515 -0.2975143
0.10616551 -0.0075673163 -0.1533724 0.2968521 0.03492746 0.14457218 -0.2234706 -0.1095674
-0.09028647 -0.21252835 0.0062218886 0.29512477 -0.18261443 0.020215517 0.24590331 0.08201376
0.09896296 -0.077313386 -0.114827216 0.21620649 -0.15057483 0.22994733 0.14553995 -0.22912362
0.11662728 -0.22937192 0.29469213 -0.15043521 0.299525 -0.025492636 0.031022156 -0.038514297

gat2.bias f4 [64]
00000000: 9f5c 5db6 62b4 c5b6 ba8b 35b6 3d16 1a36
00000010: 435f 58b6 8fcf b4b7 0861 32b7 d650 2f36
00000020: dd7e d235 958b a634 0138 fc36 4c7d d036
00000030: 8437 4b36 e1a9 37b7 0624 00b6 1b20 36b6
00000040: f1e3 f3b5 111b 0336 e90f 8e36 c0dc 1637
00000050: 676a 4136 3e53 d0b3 7cef 98b6 884f 7336
00000060: e4da bcb5 91c8 2a37 2813 a736 94bf 0bb7
00000070: 864c db35 2baf 90b6 1eca 89b5 a1ff 8a36
00000080: fb87 42b6 1427 f7b4 4eab a335 6d7b 90b6
00000090: 9803 2136 cee3 4934 a682 d2b4 35ba 46b6
000000a0: 1766 f736 e92b 8934 2574 1837 e412 1bb5
000000b0: 14e3 ffb5 834d 5e33 8a22 0336 fd8d 1236
000000c0: 8466 f8b6 4f34 0cb7 76f8 fa36 514b 7735
000000d0: 2342 9a36 2aae b236 d59b f5b3 07f5 96b5
000000e0: 4c32 feb5 fd45 3db4 7bc1 b436 d707 86b4
000000f0: f1b4 5e34 4d4d d0b5 0ea3 cab6 4912 11b7
-3.2985479e-06 -5.892057e-06 -2.7052433e-06 2.2960733e-06 -3.2241958e-06 -2.1554324e-05 -1.0632219e-05 2.6124085e-06
1.5683141e-06 3.102147e-07 7.516705e-06 6.2134695e-06 3.0281672e-06 -1.0947203e-05 -1.9094455e-06 -2.7138801e-06
-1.817125e-06 1.9536276e-06 4.233782e-06 8.992094e-06 2.8821175e-06 -9.7008964e-08 -4.5578327e-06 3.6256115e-06
-1.4070797e-06 1.0179488e-05 4.979218e-06 -8.329651e-06 1.6339043e-06 -4.3119267e-06 -1.0266119e-06 4.1424796e-06
-2.8987404e-06 -4.6035768e-07 1.2194303e-06 -4.305903e-06 2.3992961e-06 1.8802459e-07 -3.9210607e-07 -2.9612686e-06
7.3730585e-06 2.5550187e-07 9.086948e-06 -5.776949e-07 -1.9065069e-06 5.17589e-08 1.9540626e-06 2.1838343e-06
-7.4029103e-06 -8.356829e-06 7.4795053e-06 9.212427e-07 4.597257e-06 5.3250888e-06 -1.1437047e-07 -1.1247183e-06
-1.8939113e-06 -1.7627458e-07 5.386942e-06 -2.496515e-07 2.0741187e-07 -1.5519705e-06 -6.039051e-06 -8.646931e-06

gat2.lin.weight f4 [64, 256]
00000000: 60b8 873d db26 c83c 9291 74bb c005 f7bd
00000010: 55d0 d8bc c5c3 bc3d 38d8 0bbd 3038 09bd
00000020: 9c45 173d eedc 73bd 117e 70bd 0954 fdbd
00000030: 7aa4 da3d d185 3ebd 1b33 4d3d ff44 57bd
00000040: 64a4 30bd 59b3 eebd 35ac af3c 996d 06be
00000050: 189c 0c3e bc84 523c 2f4e cdbd c6ed a2bc
00000060: f7ec 08bd 10db dbbd 80da d4bc 1a6c fdbd
00000070: 4e93 0abe 6966 e0bc fc36 ba3c 0978 c7bd
00000080: 37e5 ddbd 0691 9abc 3602 bf3d 097b e63d
00000090: 82e6 88bd b045 653d eeeb d23d abad 4bbd
000000a0: 6b26 173d 7d7b 98bd 75de 013e 2c5a 203d
000000b0: 66ca 0f3d 29a7 4b3c f707 e63d 163f 03be
000000c0: b716 8fbd 9315 19bc b8e6 efbd e868 673d
000000d0: d3d5 853d 1e42 953d d0ea cb3d 98a2 ed3d
000000e0: 6bed b33c 6254 423d b254 db3d 722a a23d
000000f0: d2ad e8bc 9c68 01be 7327 ce3d 103b 31bd
00000100: 3f62 33bb bd87 a2bd 362f 753d efc2 ac3d
00000110: 5dfb c13d 555c cdbd 6500 fb3d 6ac0 86bd
00000120: b22f d33d 7152 a3bb d65c 06be e00f 083e
00000130: 323c 003e 2838 22bd e4c4 69bd f42e 6ebd
00000140: 9dc0 edbd 96ed 07bd c225 fdbd 5c64 d8bc
00000150: 17a7 e2ba 61c8 e43c 1125 b9bd fab1 ca3d
00000160: 5922 e8bc 8f86 4f3d 523e f03d 7679 043e
00000170: 8f98 a23d 6b68 e23c 1740 1fbc 9cfa c4bd
00000180: e91e a4bd 98d9 64bd 8878 e0bd de9e 96bd
00000190: 17cd 53bd 0c32 4d3d ada2 1fbd d1c0 f33d
000001a0: 8a68 a7bd 9c13 033d 0737 653d 1ffa 37bd
000001b0: b653 50bd 974b f1bd d9fd 7fbd c212 41bc
000001c0: a0bc 043e 4dd8 4bbd 8922 54bd 6e71 eabd
000001d0: 71bc ab3d 4bfe ed3d 0ffc 01be 82e4 7ebd
000001e0: e089 0bbd 09f9 84bd 2aca 81bd 5dec d1bd
000001f0: be54 05be f1bf a5bd d3b6 963d 1d20 2cbd
00000200: 1b4e ddbd 3189 403d f2ee 113c c8ba 2fba
00000210: 577b c13d fc1b 0dbe 8d5d d13d 8b53 f53d
00000220: c1fa 293d f2c1 3a3b f8ed 40bd cb23 07bd
00000230: 7dbe ac3d d4fe 103b 8310 82bb 2276 f73c
00000240: 22f8 9f3c b8e0 f73d 63f9 01be cc33 053e
00000250: 2809 8c3d 3f0d 823d a30b 8bbd d503 0a3c
00000260: 1ca7 d33d 6316 813d ea20 823d 3d18 863d
00000270: e45e d63d 80f0 febd 574e bebd 7e4f eabc
00000280: cbc5 003e f025 3ebd aa77 4fbd deec 5f3d
00000290: 9a6a 08be a3fe 9bbd f148 d4bd 736f e3bd
000002a0: 47ca ae3d fc65 8a3d cd36 033e 76df de3c
000002b0: 74d7 eebd a7fe 983d 7c9c 72bc bbf7 a4bc
000002c0: a103 583d bcaa c23c 08d7 0b3b 7fe0 2dbd
000002d0: 77c9 d7bd e797 9d3d 124a c83d da86 fabd
000002e0: d8e1 8c3d e53e f33d 8cfe 673d 5234 ff3d
000002f0: 002a eebd c608 a8bd c6c5 c43c e6d6 ee3d
00000300: 4b36 b13c 6f51 66bc 47b4 fa3d 877f 21bc
00000310: 8544 c3bd c848 933c b8fe 2ebb 6b52 a5bd
00000320: 6c52 adbd 129b 3e3d 2377 7e3d 3345 943d
00000330: 0ae4 24bd 1a2c fc3d 4931 e9bd 5c72 6b3d
00000340: 42c4 9bbb 1ef9 b9bd 747e d3bd d9ed bcbc
00000350: 3c6e d03d 0a9f 7fbd 646c 033d 4c27 963c
00000360: 0aa6 70bd 894f 77bc c6f8 a3bd 6517 e43d
00000370: 3b50 89bd bf02 8f3c 84bb eb3d f144 d23d
00000380: d16e c2bc 386f d7bc ceaa 07be 5c26 383c
00000390: bcdb 00be 0e37 08bd 11a0 553d bff4 51bd
000003a0: 1274 0abe 31ad dd3d 6001 21bc 0ca3 54bd
000003b0: bf8b cfbc a36f c23d 7447 b4bd 5d48 da3c
000003c0: 8e4e 633d 4edd 1abd 12a0 223d 8996 06be
000003d0: eaec 123c b127 1f3d ee0e 2e3d 3b2a 0dbe
000003e0: 7dbc f43c cb78 343d c951 07be d44f bfbd
000003f0: 39a9 77bd d49c debd c8bb ffbd a6db c6bb
0.066269636 0.02443259 -0.0037318212 -0.120616436 -0.026466528 0.092170276 -0.03414175 -0.03350085
0.03693162 -0.059536867 -0.058713976 -0.12369544 0.10675903 -0.046514336 0.050097566 -0.052556034
-0.043125525 -0.116553016 0.02144442 -0.13127746 0.1373142 0.012849029 -0.10024678 -0.01988877
-0.033429112 -0.10735142 -0.025983095 -0.12374134 -0.13532755 -0.027392583 0.022731297 -0.09739692
-0.10834735 -0.01886798 0.093265936 0.11253936 -0.06684591 0.055974662 0.10298906 -0.04972617
0.036901873 -0.074454285 0.12682517 0.039148495 0.03510513 0.012429991 0.11231988 -0.12817034
-0.069867544 -0.009343523 -0.11713928 0.05649653 0.06534924 0.072880015 0.09956896 0.11603278
0.021963796 0.047443755 0.10709514 0.07918252 -0.028403196 -0.12637562 0.10066118 -0.043269217
-0.0027371792 -0.07936046 0.059859477 0.08435618 0.09471772 -0.100273766 0.122559346 -0.06579669
0.103118315 -0.004984193 -0.13121352 0.13287306 0.12522963 -0.039604336 -0.057072535 -0.058150247
-0.11609004 -0.033185564 -0.12360717 -0.026415043 -0.0017292228 0.02792758 -0.09040273 0.098972276
-0.02833669 0.050665434 0.11730637 0.12936959 0.079392545 0.027637681 -0.00971987 -0.096181124
-0.08013708 -0.055871576 -0.109604895 -0.0735452 -0.05170926 0.050096557 -0.0389735 0.11902011
-0.08174236 0.032001123 0.05596068 -0.04491627 -0.050861083 -0.11781996 -0.062497947 -0.011784257
0.1296258 -0.049766827 -0.051790748 -0.11447416 0.08385552 0.11620768 -0.12693809 -0.06222964
-0.034067035 -0.06492812 -0.06337388 -0.10250161 -0.13020608 -0.080932505 0.0735909 -0.042022813
-0.10805913 0.047005836 0.008907067 -0.0006703553 0.09447353 -0.13780206 0.102229215 0.11978825
0.041498903 0.0028496948 -0.047101945 -0.03299312 0.0843477 0.0022124546 -0.0039692535 0.030207697
0.019527499 0.121034086 -0.1269279 0.1300804 0.06837684 0.06350183 -0.06789329 0.008423765
0.10334608 0.06303098 0.06353934 0.06547592 0.10467318 -0.124482155 -0.09292286 -0.028602358
0.12575452 -0.0464229 -0.05065123 0.054669254 -0.13321915 -0.076169275 -0.10365475 -0.111052416
0.08534675 0.06757733 0.12813874 0.027206164 -0.11662188 0.07470446 -0.014807817 -0.020137658
0.052737836 0.023763053 0.0021337885 -0.042450424 -0.10536473 0.07694989 0.09779753 -0.12232752
0.06879014 0.118772306 0.05663924 0.12461151 -0.116291046 -0.082047984 0.024020087 0.116620824
0.021632334 -0.014057501 0.122414164 -0.009857065 -0.095345534 0.01797904 -0.0026702117 -0.080723606
-0.08462986 0.046534605 0.062125336 0.07239761 -0.040256537 0.12313099 -0.113863535 0.05748211
-0.0047536204 -0.090807185 -0.103268534 -0.023062633 0.101772755 -0.06240753 0.03208579 0.018329285
-0.058752097 -0.015094646 -0.08006434 0.11137275 -0.06704756 0.017457364 0.11510375 0.10267056
-0.023734482 -0.02629815 -0.1324875 0.011239614 -0.12583822 -0.03325563 0.052154604 -0.0512588
-0.1352084 0.10824049 -0.009826988 -0.051913306 -0.02533519 0.09493949 -0.08802691 0.026645834
0.055494837 -0.03780871 0.039703436 -0.13143362 0.0089676175 0.038856212 0.042494707 -0.13785641
0.029875034 0.04406051 -0.13214792 -0.09341398 -0.060464118 -0.10869756 -0.12486988 -0.0060686646

bn1.weight f4 [256]
00000000: 8e3c 803f 9b6d 803f 1601 803f eb29 7f3f
00000010: f20d 7f3f 0d5a 803f 7316 803f c719 803f
00000020: b737 7f3f d95c 803f c3f7 7e3f 0542 7f3f
00000030: a224 7f3f 4cd4 7f3f 1be7 7f3f 5f14 7f3f
00000040: 9ddf 7e3f 8f63 7f3f 7868 803f 2ef5 7e3f
00000050: 2880 803f 537b 803f 6d5a 803f f545 803f
00000060: fd0c 803f e47c 803f 0521 7f3f 0ea7 7f3f
00000070: 5267 803f ed51 803f 4014 7f3f 4664 7f3f
00000080: 4a53 7f3f 7497 7f3f fcf1 7f3f 9952 803f
00000090: 2291 7f3f bc5f 803f 766b 803f cc18 7f3f
000000a0: df6f 803f 7e23 7f3f d711 7f3f 7c39 7f3f
000000b0: 25b1 7f3f 8676 803f 858e 7f3f c432 7f3f
000000c0: a3e1 7f3f a41d 7f3f 0427 7f3f 2d2a 7f3f
000000d0: 360b 7f3f 140e 7f3f 100c 7f3f a779 803f
000000e0: 5249 803f 0c52 7f3f fa2d 803f 7a24 7f3f
000000f0: bdfe 7e3f 7749 7f3f 1833 7f3f cf24 7f3f
00000100: 2d80 803f 5572 803f 7578 803f 6960 803f
00000110: 3e60 803f c615 7f3f 124b 803f 9faa 7f3f
00000120: 2004 803f 3f10 7f3f b155 803f bd72 803f
00000130: bf5f 803f b883 803f f221 7f3f 9d64 7f3f
00000140: 2951 7f3f 912b 803f b831 803f 3d41 7f3f
00000150: ba11 803f 4062 803f 4471 7f3f 3830 7f3f
00000160: e466 803f 276b 803f 4710 7f3f 3b3e 803f
00000170: ae73 803f a51b 7f3f f96c 803f 486c 803f
00000180: da44 803f 8216 7f3f 8d10 803f 9595 7f3f
00000190: dd5d 803f 8751 803f 6f10 7f3f 2562 7f3f
000001a0: 3815 7f3f 4c57 803f 2c33 803f a47b 803f
000001b0: 83e8 7e3f 1713 7f3f 7464 7f3f 3f0b 7f3f
000001c0: 665b 803f 7b29 7f3f 730f 7f3f 812f 7f3f
000001d0: cf36 803f 654a 803f 9424 7f3f 940b 803f
000001e0: d13d 803f e95d 803f b30c 7f3f 544c 803f
000001f0: c3ec 7e3f bb72 803f 0529 7f3f 2b3f 7f3f
00000200: a98f 803f 4b27 7f3f e64e 7f3f 535f 803f
00000210: 0555 803f c059 7f3f 5c5c 803f ff8d 803f
00000220: b5ec 7e3f c662 803f 3f27 7f3f 8c87 803f
00000230: 7c70 803f ba78 7f3f 583f 7f3f 73f6 7e3f
00000240: 4922 7f3f cc1d 7f3f c333 7f3f c6fe 7e3f
00000250: 3264 803f 741a 803f 0763 803f b276 803f
00000260: d769 7f3f e28a 803f 7f4e 803f a22c 7f3f
00000270: e267 803f 2dee 7e3f 211a 7f3f 915e 803f
00000280: 966c 803f 453d 803f 6169 803f 1d76 803f
00000290: f55c 803f 2390 803f 942f 803f 6340 803f
000002a0: ed1e 803f 9db1 7f3f 097b 803f e900 7f3f
000002b0: 7e30 7f3f 4c16 7f3f f631 7f3f 2c61 803f
000002c0: 1d6a 803f 6b52 803f 655e 803f 601b 7f3f
000002d0: c804 803f 3550 803f b16f 803f 5f4e 803f
000002e0: c214 7f3f 9e50 7f3f 0802 7f3f 1c38 7f3f
000002f0: 10e4 7e3f 8afd 7e3f bf6e 7f3f 295f 803f
00000300: a401 7f3f 4ee8 7e3f 4a10 7f3f 3c78 803f
00000310: 6610 7f3f b5ee 7e3f 1a45 803f caf2 7e3f
00000320: 236c 803f ef26 803f 4a6b 803f a921 7f3f
00000330: d344 803f 6b21 803f f148 7f3f 4620 7f3f
00000340: 7f15 7f3f 1438 803f 1d37 7f3f 4b6f 803f
00000350: d8f0 7e3f 3568 803f 3a2a 7f3f 733b 803f
00000360: 3d36 7f3f a33b 803f 6567 7f3f 534a 803f
00000370: 8652 803f c253 7f3f defa 7e3f 305d 7f3f
00000380: 9a44 7f3f 065e 803f 9f44 7f3f 8e31 7f3f
00000390: cb5f 803f bf46 803f e361 803f acd6 7e3f
000003a0: 66d6 7e3f ce67 803f a5da 7e3f 1075 803f
000003b0: 710a 7f3f ab3c 7f3f c824 7f3f 4365 803f
000003c0: b01d 7f3f acad 7f3f 2439 803f e790 803f
000003d0: ba7b 7f3f 710f 7f3f fc3d 7f3f f871 803f
000003e0: 9ce9 7e3f 2647 803f bf07 803f 3477 803f
000003f0: 971c 7f3f df09 7f3f bf62 803f 3a3c 7f3f
1.001848 1.0033449 1.0000331 0.99673337 0.99630654 1.0027481 1.0006851 1.0007867
0.9969439 1.0028335 0.99596804 0.9971011 0.9966527 0.99933314 0.99962014 0.9964046
0.99559957 0.9976129 1.0031881 0.99592865 1.003911 1.0037636 1.0027596 1.0021349
1.0003964 1.0038114 0.9965976 0.9986428 1.0031531 1.0025002 0.99640274 0.9976238
0.99736464 0.99840474 0.99978614 1.0025207 0.9983083 1.0029216 1.0032794 0.9964721
1.003414 0.9966353 0.99636596 0.9969709 0.99879676 1.003617 0.9982684 0.9968684
0.9995367 0.99654603 0.9966891 0.9967373 0.9962648 0.99630857 0.9962778 1.0037125
1.0022376 0.9973457 1.0014031 0.99665034 0.9960745 0.99721473 0.9968734 0.9966554
1.0039116 1.0034891 1.003676 1.0029422 1.0029371 0.996426 1.002291 0.9986972
1.0001259 0.99634165 1.0026151 1.0035015 1.0029219 1.0040197 0.9966117 0.997629
0.99733216 1.0013295 1.0015173 0.9970892 1.000541 1.0029984 0.99782205 0.9968295
1.00314 1.00327 0.9963421 1.0018991 1.0035303 0.9965156 1.0033256 1.0033045
1.0021012 0.9964372 1.0005051 0.9983762 1.0028645 1.002488 0.9963445 0.9975913
0.9964175 1.0026641 1.0015616 1.0037732 0.99573535 0.99638504 0.99762654 0.99626535
1.0027893 0.9967267 0.9963295 0.9968186 1.0016726 1.0022703 0.9966519 1.0003533
1.0018865 1.0028659 0.9962875 1.0023293 0.9958002 1.0035013 0.99671966 0.9970576
1.0043842 0.9966933 0.99729764 1.0029091 1.0025946 0.9974632 1.0028186 1.0043334
0.99579936 1.0030143 0.9966926 1.0041366 1.0034328 0.9979359 0.9970603 0.995948
0.9966169 0.9965484 0.9968836 0.99607503 1.0030577 1.0008073 1.0030221 1.0036223
0.99770874 1.0042384 1.0023955 0.9967748 1.0031703 0.9958218 0.99649245 1.0028859
1.0033138 1.0018698 1.0032159 1.0036045 1.0028368 1.0043987 1.001452 1.0019649
1.0009438 0.9988039 1.0037547 0.99610764 0.9968337 0.996434 0.9968561 1.0029655
1.0032383 1.0025152 1.0028807 0.99651146 1.0001459 1.0024477 1.0034086 1.0023917
0.9964105 0.9973239 0.99612474 0.9969499 0.99566746 0.9960562 0.9977836 1.002904
0.9961188 0.9957322 0.9963423 1.0036693 0.996344 0.9958299 1.0021088 0.99589217
1.0033001 1.0011882 1.0032742 0.99660736 1.0021003 1.0010198 0.99720675 0.9965862
0.99642175 1.0017114 0.9969347 1.0033964 0.9958625 1.0031801 0.9967381 1.0018142
0.99692136 1.00182 0.9976714 1.0022682 1.0025184 0.9973718 0.9960154 0.9975157
0.9971405 1.0028694 0.9971408 0.9968499 1.0029234 1.002159 1.0029873 0.99546313
0.99545896 1.0031679 0.99552375 1.0035725 0.9962531 0.99701947 0.996655 1.0030903
0.99654675 0.9987438 1.0017438 1.0044221 0.99798167 0.99632937 0.99703956 1.003478
0.9957521 1.0021713 1.0002364 1.0036378 0.99653 0.9962444 1.0030135 0.99701273

bn1.bias f4 [256]
00000000: ec01 823a bb77 863b 1807 243b 9beb 283b
00000010: 1659 66b8 14ef 063b 79b7 8eba 39e8 c33a
00000020: 5719 c93a c237 323b 32c3 beba 9b8c 053b
00000030: 55cd 3cbb b930 aab9 f975 4d3a 3717 3fbb
00000040: c9eb 86bb 182a 5abb 3e63 233b 9e00 9dba
00000050: f284 7f3b dfc5 123b c6a3 563b 8360 fd3a
00000060: 6e8c 813b d637 8b3b bd69 0438 ac87 87bb
00000070: 8843 8f3b 274f 723a c41b 7cbb 596a 9739
00000080: daa6 02bb 9660 c6ba 0733 8cba bb8b 8dbb
00000090: 61fe 923a 29e3 563b a3ce 0c3b acd5 5ebb
000000a0: d540 94ba f648 92bb 61de 7bbb 3908 02bb
000000b0: 1ab1 7b3b 766f 8c3b a766 6c3b 5c83 3dbb
000000c0: f7c4 b1ba 912f 2fbb 4ac8 613b 825e 92bb
000000d0: 2087 83bb ec6c 8fbb 21ef 47ba 2eac 343b
000000e0: 8a75 ad3a 63ca e13a b1f0 b5ba 51ce 84bb
000000f0: 17df 77bb 3735 fab8 8de8 67bb e125 45bb
00000100: aa52 923b c6c2 883b e3c0 963b 0b3f 7d3b
00000110: 7bea ef3a 2a0e 8539 cd59 403b cfb9 103b
00000120: a136 a13a 2d42 2f3b d68c 1c3b 3163 983b
00000130: 7360 d83a c48d 923b 6536 32bb ae67 10bb
00000140: 1df0 c8ba 73c0 cb3a 5b50 203b 48d5 34ba
00000150: 587e 323b 15ab 6d3b c175 10bb d55c 7c39
00000160: c97d 7e3b b2dd 823b 911e 41bb e581 83b9
00000170: 353f 313b c7ee 89bb 743a 8f3b 239d 153b
00000180: 41d3 753b 0784 223b bb2d 1ebb 2782 563b
00000190: eb8d 913b 00e0 8abb 6c76 79ba 9042 7cbb
000001a0: 95b1 89bb b3c2 693a 525a aa3a 238a 923b
000001b0: bfac ebba 9642 40bb 3a64 7dbb d6de 80bb
000001c0: 09ca de3a 274a 22bb 5d60 82ba 3e54 923b
000001d0: b2d0 b93a 4371 fd3a f13f 41bb f9ee 293a
000001e0: a956 deba b4ec 9a3b 5e14 5ebb 1d27 cc3a
000001f0: 23cf 62bb 1715 9c3b 56cd 78bb 3cf1 6fba
00000200: e6a3 913b c486 2ebb a144 01bb 6bf5 a63a
00000210: 1d9e 76bb d358 20bb f92d 223b 2c15 8b3b
00000220: 3d27 51bb 46ec 863b 6ead 33bb 8983 8b3b
00000230: 07fa 80ba 5364 4d3b 4d11 0abb 53d7 7fba
00000240: 7ce8 b3ba 6596 ffba fcff a6b9 4e98 98ba
00000250: a50f 3b3b 3c51 8bbb 365e d83a 136d 443b
00000260: 51d9 e73a fed8 093b 12ad 98bb 34d6 7bbb
00000270: 54fd f3b9 b651 16ba dccb 803a 2627 43bb
00000280: e807 90bb fe23 2b3b b18e 8c3b 3075 7e3b
00000290: 971c 1d3b c9e0 863a dbcb 2e3a 143e f8ba
000002a0: 6ed9 89bb d50c 44bb 73d0 0f3a 7714 92bb
000002b0: a003 6dbb 0233 8ebb 32ca 89bb ee54 33ba
000002c0: cba8 0e3a c4a8 9a3a 0d6a 713b 856e 4d3b
000002d0: 388d 64ba 752a 8f3b 5e47 ff3a 6516 8a3b
000002e0: 3f78 a6ba 476f 54bb 3121 6abb 8d83 4dbb
000002f0: 4e09 92ba c535 36bb 5cde 2f3b 4d73 f53a
00000300: ff57 7abb 7755 89bb b2d1 5dbb 5ee0 923b
00000310: 6f35 cc3a 53fd 8abb 8efe 693a 9b2d 33bb
00000320: 55b0 4839 d138 683b 4d98 193b 77c5 40bb
00000330: 91a7 8ebb b030 29ba c53d 02ba 87ab 34bb
00000340: 0ded 91bb 6342 403b 0efb b6ba f917 8a3b
00000350: 7166 8bbb 420a 2d3b c01e 6cbb 8ac6 e73a
00000360: 1546 3dbb df75 7d3b 0204 263b 5f93 703b
00000370: 1c68 963b bc71 8ebb d759 6ebb fef3 60bb
00000380: e9f7 b9ba ae3d 8e3b 58bb 2bbb aa76 38bb
00000390: 5537 283b e867 af3a b864 2fbb afc8 163b
000003a0: 7510 5cbb 5fd0 083b b1f9 8cbb feff 273b
000003b0: 4756 42bb dad8 09bb 8d12 003b 79ee 47bb
000003c0: 7cfa f7ba b9a4 863b 00ee 4fbb f06f 233b
000003d0: 0c5b 7dbb 277b 6dbb cc70 03bb 0cb9 923b
000003e0: 0f05 8abb 4bc6 713b fc2a dd3a ca7e 793b
000003f0: e4c6 4cbb 8b5c 8bbb d060 d43a 5c12 2ebb
0.0009918786 0.0041036285 0.0025028642 0.0025775197 -5.491924e-05 0.002058928 -0.0010888419 0.0014946527
0.0015342635 0.0027193879 -0.0014554022 0.0020377997 -0.002880891 -0.00032461228 0.00078377087 -0.0029158124
-0.0041174632 -0.003328925 0.002493098 -0.0011978333 0.0038989154 0.0022395772 0.0032751425 0.0019331131
0.003953508 0.0042485995 3.156973e-05 -0.0041360464 0.004372064 0.0009243362 -0.0038468698 0.000288802
-0.0019935877 -0.0015134986 -0.001069636 -0.0043196357 0.0011214727 0.0032789207 0.002148547 -0.003400187
-0.0011310825 -0.004464264 -0.0038432109 -0.0019841327 0.0038405121 0.004285748 0.0036071928 -0.0028917408
-0.0013562728 -0.0026731233 0.0034451657 -0.0044668326 -0.004013911 -0.004376998 -0.00076268805 0.0027568447
0.0013233882 0.0017226454 -0.0013880936 -0.004052915 -0.003782218 -0.00011930841 -0.0035386414 -0.0030082392
0.0044654207 0.0041736094 0.0046006306 0.0038642313 0.0018304134 0.0002537829 0.00293504 0.0022083407
0.0012299606 0.0026742325 0.0023887656 0.0046504964 0.0016508236 0.004472466 -0.0027193066 -0.0022034454
-0.0015330348 0.0015545025 0.0024461958 -0.00068982365 0.0027235951 0.0036265303 -0.0022042843 0.00024067175
0.0038832298 0.0039937133 -0.0029467682 -0.00025083046 0.002704573 -0.0042093727 0.004370982 0.0022829256
0.003750995 0.0024797933 -0.0024136144 0.0032731385 0.004441967 -0.0042381287 -0.00095162424 -0.0038491823
-0.0042020776 0.0008917257 0.0012996888 0.0044720336 -0.001798056 -0.0029336563 -0.0038664476 -0.003932814
0.0016997467 -0.0024763437 -0.0009946931 0.004465609 0.0014176576 0.0019336123 -0.0029487575 0.0006482448
-0.0016963083 0.0047279242 -0.0033886652 0.0015575622 -0.0034608326 0.0047632563 -0.0037964187 -0.0009153073
0.004444587 -0.002663062 -0.0019724744 0.0012737935 -0.0037630864 -0.0024467006 0.002474664 0.0042444672
-0.0031914257 0.0041175215 -0.0027416605 0.0042576236 -0.0009840139 0.0031340315 -0.002106744 -0.0009759564
-0.0013725902 -0.0019499777 -0.0003185271 -0.001164207 0.002854326 -0.0042516273 0.0016507569 0.002997224
0.0017688667 0.0021033878 -0.0046593035 -0.0038427236 -0.00046537316 -0.0005734222 0.000982638 -0.0029777973
-0.0043954737 0.0026113982 0.004289471 0.0038827173 0.002397334 0.001029038 0.000666795 -0.0018939399
-0.004206828 -0.0029914875 0.00054860784 -0.004458006 -0.003616549 -0.0043395767 -0.0042050118 -0.00068409636
0.0005442022 0.0011799564 0.0036836893 0.0031346392 -0.0008718553 0.004369075 0.0019476225 0.0042140954
-0.0012700631 -0.003241496 -0.003572535 -0.0031358928 -0.0011141689 -0.0027803045 0.0026835417 0.0018726379
-0.0038199422 -0.0041910964 -0.0033846912 0.004482313 0.0015579889 -0.0042416244 0.0008926176 -0.0027340415
0.00019139175 0.0035434256 0.0023436726 -0.0029414573 -0.0043534716 -0.00064540934 -0.0004968311 -0.0027568059
-0.0044533075 0.0029336445 -0.0013960318 0.0042142835 -0.0042541553 0.002640382 -0.003602907 0.0017683071
-0.0028880883 0.0038674993 0.0025331979 0.0036708934 0.0045900475 -0.0043470543 -0.0036369467 -0.0034325118
-0.0014188263 0.004340849 -0.0026204195 -0.0028146901 0.0025667746 0.0013382407 -0.0026762914 0.00230078
-0.0033579145 0.0020876152 -0.0043022265 0.002563476 -0.0029653476 -0.0021033795 0.0019542307 -0.003050713
-0.0018919255 0.004108992 -0.0031727552 0.0024938546 -0.0038659004 -0.0036236735 -0.0020056246 0.0044776257
-0.004212029 0.0036891873 0.0016873772 0.0038069957 -0.0031246478 -0.0042529753 0.0016203169 -0.0026561236
