data/best_model.pt (torch, 143970 bytes, 27 tensors)

gat1.att_src f4 [1, 4, 64]
0	0xbe851a19	-0.25996473
1	0x3daf7553	0.085673
2	0xbe26100c	-0.16217059
3	0x3dfcb1e5	0.12338618
4	0xbe7ca721	-0.2467313
5	0x3e251482	0.16121104
6	0x3e6f6809	0.2337953
7	0xbdd60fb3	-0.10452213
8	0x3e2ba070	0.16760421
9	0xbe7c09f7	-0.24613176
10	0xbd590780	-0.05298567
11	0x3cd9a44a	0.026567597
12	0xbce73d7c	-0.02822756
13	0x3e4b3a83	0.19846539
14	0xbcf577ad	-0.029964292
15	0xbd0de286	-0.034639858
16	0xbe0fb182	-0.14032558
17	0x3e02b2a7	0.12763463
18	0x3d6bfa70	0.057611883
19	0x3d92a65c	0.07160637
20	0xbe4271df	-0.18988751
21	0xbdcbeb22	-0.099569574
22	0x3e925ee5	0.28588024
23	0xbe8c9af1	-0.2746196
24	0xbe463c4b	-0.19358937
25	0xbe543e9d	-0.2072701
26	0x3e5a711d	0.21332212
27	0x3e1db413	0.15400724
28	0xbe3e652f	-0.18593286
29	0xbe3ebe50	-0.18627286
30	0xbdb2dcd4	-0.08733526
31	0xbe4fd19d	-0.20294805
32	0xbe57cf78	-0.21075237
33	0xbd5e80a0	-0.054321885
34	0xbe723b53	-0.23655443
35	0x3d7ad61a	0.06123934
36	0xbe8a85fb	-0.27055344
37	0x3e091b7f	0.13389395
38	0x3deebeea	0.11657508
39	0xbda8d139	-0.08243031
40	0xbe0e14a1	-0.13875057
41	0xbe12eb9c	-0.1434769
42	0x3d3fae2e	0.04679697
43	0xbd0c6741	-0.034278158
44	0x3e7806e9	0.24221386
45	0x3b9e5e34	0.004833007
46	0xbe422dde	-0.1896281
47	0x3d14d6a9	0.03633753
48	0x3e204a3d	0.1565332
49	0xbe31d9ce	-0.17368242
50	0xbdb72510	-0.08942616
51	0xbe1b6994	-0.15176994
52	0xbe2f5aec	-0.17124528
53	0x3e946bd9	0.2898853
54	0xbe8b4425	-0.27200428
55	0x3e630ccf	0.22172855
56	0x3e690d2a	0.22758928
57	0x3e607033	0.219178
58	0x3e616250	0.2201016
59	0xbd014dac	-0.031568214
60	0xbe617a32	-0.2201927
61	0xbd2c81a8	-0.042115837
62	0x3d0c3f82	0.034240253
63	0x3d0dc8ea	0.034615435
64	0x3d621901	0.055199627
65	0x3e14c59d	0.14528508
66	0xbd235986	-0.039880298
67	0x3e128717	0.14309345
68	0xbe2d9f02	-0.16955188
69	0xbe67b667	-0.22628175
70	0x3e841310	0.25795794
71	0xbd997b43	-0.074942134
72	0x3e33aef0	0.17547202
73	0xbe527ac5	-0.20554645
74	0x3e49f532	0.19722441
75	0x39f43ec7	0.0004658608
76	0x3d6354b9	0.05550072
77	0xbe05e03b	-0.13073818
78	0xbe5ffc46	-0.21873578
79	0x3d8301dd	0.0639684
80	0x3de42672	0.11140145
81	0xbe38bdbf	-0.18041132
82	0x3db767df	0.08955359
83	0xbd89f9c1	-0.0673709
84	0x3e6e7db4	0.2329014
85	0x3e95e02e	0.29272598
86	0x3e94a018	0.29028392
87	0xbd081c71	-0.03323025
88	0x3d077e9c	0.03307973
89	0xbe886356	-0.26638287
90	0xbe22d084	-0.15899855
91	0xbd337498	-0.043812364
92	0x3dae6594	0.08515468
93	0x3e783304	0.24238211
94	0x3d900391	0.0703193
95	0xbe774f9e	-0.24151465
96	0xbe0a3379	-0.13496198
97	0x3e51c2a9	0.20484413
98	0x3d8ad854	0.067795426
99	0x3e8fce4c	0.2808708
100	0xbd3a6361	-0.04550493
101	0xbe9213b8	-0.2853067
102	0xbdd09cf9	-0.1018619
103	0x3e83ca69	0.25740364
104	0xbe944543	-0.28959092
105	0x3e795541	0.24348928
106	0xbdb5a8fc	-0.08870122
107	0x3d734d01	0.05939961
108	0xbe856cf6	-0.26059693
109	0x3d514df2	0.051099725
110	0xbe4ac8ec	-0.19803208
111	0x3d04fa8a	0.032465495
112	0x3d8aac8d	0.06771193
113	0x3d70ac90	0.05875832
114	0x3e8e0c67	0.27743837
115	0xbcd5a692	-0.026080403
116	0x3e26cdd3	0.16289453
117	0x3da12b4b	0.078695856
118	0xbe0f0d6f	-0.13969968
119	0x3e616930	0.22012782
120	0x3d8988c9	0.06715543
121	0x3e17cec7	0.14824973
122	0xbe81276c	-0.2522539
123	0x3cca09e3	0.024662917
124	0xbe815cbd	-0.25266066
125	0x3e0fd815	0.14047273
126	0xbe77af73	-0.24188022
127	0xbe553e1f	-0.20824479
128	0x3e583255	0.2111295
129	0x3e8b20b5	0.2717339
130	0x3e239a60	0.15976858
131	0xbe44cd1a	-0.19218865
132	0xbe999cd8	-0.30002475
133	0x3e6cf346	0.23139676
134	0xbe282167	-0.16418992
135	0xbe6539f0	-0.22385383
136	0x3e12e104	0.14343649
137	0x3d0061b9	0.031343196
138	0x3e1a0aec	0.15043229
139	0x3e89338d	0.26797143
140	0x3e8ae2f1	0.27126268
141	0x3d9f8321	0.07788683
142	0xbd93192b	-0.07182535
143	0x3b6040dc	0.0034218347
144	0x3c9bec62	0.019033615
145	0x3e329301	0.1743889
146	0x3c8d996e	0.017285075
147	0x3e747849	0.2387401
148	0x3e002540	0.1251421
149	0xbe1fa3d2	-0.15589836
150	0x3e2a8219	0.16651191
151	0x3e19362a	0.14962068
152	0xbd7b05c7	-0.061284807
153	0xbe34a282	-0.17640117
154	0x3d929420	0.07157159
155	0x3e909e68	0.28245854
156	0xbd40634b	-0.046969693
157	0x3d55896a	0.052133
158	0xbd87bee2	-0.06628205
159	0x3e5382ee	0.20655414
160	0x3e3f921d	0.18708082
161	0x3e674bb0	0.22587466
162	0xbe93b5ad	-0.28849545
163	0x3e2e110f	0.16998695
164	0x3e74d418	0.23909032
165	0xbca27f55	-0.019836107
166	0x3e1aedf5	0.15129836
167	0xbdc6d54a	-0.097086504
168	0xbdef5b75	-0.11687366
169	0xbe5a51f4	-0.21320325
170	0x3dc29f73	0.09503069
171	0xbe67232f	-0.22572015
172	0x3e3e2d3a	0.1857194
173	0x3e7a0230	0.24414897
174	0xbe3d7cf4	-0.18504697
175	0x3e357fc5	0.17724521
176	0xbe7d59af	-0.24741243
177	0x3db8c7eb	0.09022506
178	0x3e8d1cde	0.27561086
179	0xbe42a476	-0.1900805
180	0x3cd59023	0.026069706
181	0x3d59a1f5	0.05313297
182	0xbd0f609b	-0.03500424
183	0x3e673c0f	0.22581504
184	0xbe55e8b2	-0.20889547
185	0x3e20865d	0.15676256
186	0x3e2619fa	0.16220847
187	0xbe7e0413	-0.24806242
188	0xbe2cf1c8	-0.16889107
189	0x3e88a8b4	0.2669121
190	0xbe5d8a9c	-0.21634907
191	0xbd745f9c	-0.059661493
192	0xbe041fd5	-0.12902768
193	0xbe6e6f28	-0.2328459
194	0xbe10c504	-0.14137655
195	0x3d00e546	0.031468652
196	0xbe92800f	-0.28613326
197	0xbd42b70e	-0.047537856
198	0x3e290edc	0.16509575
199	0x3e5eba11	0.21750666
200	0x3de44af8	0.11147112
201	0x3d59c156	0.053162895
202	0x3e3833ec	0.17988557
203	0xbe52759b	-0.20552675
204	0xbe86b8aa	-0.26312762
205	0xbe069266	-0.13141784
206	0x3aea5c6c	0.0017880327
207	0xbe560fc6	-0.20904455
208	0x3e07a601	0.13246919
209	0xbce7800f	-0.028259305
210	0xbcbee5d7	-0.023302956
211	0x3e201fa3	0.15637068
212	0xbe93a069	-0.2883332
213	0xbdca2feb	-0.09872421
214	0xbe5570fa	-0.20843878
215	0xbb2b82b7	-0.0026170441
216	0xbe0b9cbf	-0.13634013
217	0xbb706dc1	-0.0036686512
218	0x3d1e00cc	0.03857498
219	0xbe191745	-0.14950283
220	0xbd0d5b52	-0.034510918
221	0x3e62ec52	0.22160462
222	0x3d8f247f	0.06989383
223	0xbe1fc6e8	-0.1560322
224	0xbe0b2aa4	-0.13590485
225	0x3e6b108c	0.22955531
226	0xbd1feacb	-0.039042275
227	0x3e5c8b66	0.21537551
228	0x3d8d532f	0.06900632
229	0xbe49bfa5	-0.19702013
230	0xbdcada25	-0.09904889
231	0xbe0cf9cc	-0.13767165
232	0xbe4f87f3	-0.20266704
233	0x3e49fe71	0.19725968
234	0xbe4e1895	-0.20126565
235	0x3e1d5560	0.15364599
236	0xbb70e257	-0.0036756003
237	0x3e654a52	0.22391632
238	0xbcfe2fa6	-0.03102858
239	0xbd59cc39	-0.053173278
240	0xbe609f9b	-0.21935885
241	0x3e8675e6	0.26261824
242	0xbe057bc6	-0.13035497
243	0xbe8a65de	-0.27030843
244	0x3e711bc2	0.23545745
245	0x3bbad583	0.005701722
246	0xbd5483f7	-0.051883664
247	0xbe454750	-0.19265485
248	0xbe164838	-0.14675987
249	0x3e5c955b	0.2154135
250	0x3e0c35be	0.13692376
251	0x3c684dfe	0.014178751
252	0x3d63f93e	0.055657618
253	0x3e7e2b97	0.24821316
254	0x3e5d8534	0.21632844
255	0xbd7381fa	-0.059450127

gat1.att_dst f4 [1, 4, 64]
0	0x3e2dca0e	0.16971609
1	0xbe3ccdb9	-0.18437852
2	0x398d12dd	0.0002690767
3	0xbe719f20	-0.23595858
4	0x3e44007b	0.19140808
5	0xbd858e25	-0.065212525
6	0xbd9746e9	-0.07386572
7	0x3e8235cf	0.25431678
8	0x3e1c1eab	0.15246074
9	0x3e71ac0f	0.23600791
10	0xbc3c4481	-0.011490942
11	0xbe7a3ce3	-0.24437289
12	0x3e8c8392	0.2744413
13	0x3da7c36f	0.08191573
14	0xbb967692	-0.0045917714
15	0x3d7f980f	0.062400874
16	0xbe217906	-0.15768823
17	0xbe864453	-0.26224002
18	0xbe78857a	-0.24269667
19	0xbc28d077	-0.010303608
20	0xbd7d0752	-0.06177456
21	0x3d98ea36	0.07466547
22	0x3dece2fa	0.1156673
23	0x3e875d59	0.26438406
24	0xbe06ba5e	-0.13157031
25	0xbe0800a3	-0.13281493
26	0x3e31916c	0.1734063
27	0xbe5b24d1	-0.21400763
28	0xbc754d9f	-0.01497212
29	0xbe205d2f	-0.15660547
30	0xbe2786a6	-0.16359958
31	0x3e8ce2fd	0.27516928
32	0xbe24d380	-0.16096306
33	0xbcdc016a	-0.026856143
34	0xbe5d1455	-0.21589787
35	0x3e44d5c3	0.19222169
36	0x3e5c5424	0.21516472
37	0xbe926a58	-0.2859676
38	0x3e6ec394	0.23316795
39	0x3e8cb6a7	0.27483103
40	0xbe35bc49	-0.17747606
41	0xbe0df46b	-0.1386277
42	0x3ccf9a38	0.025342092
43	0x3e789554	0.24275714
44	0xbe968116	-0.2939536
45	0xbe532f8a	-0.20623603
46	0x3d8cde2f	0.06878316
47	0xbe41dffe	-0.18933102
48	0x3dacd348	0.08438736
49	0x3ce10e29	0.027472572
50	0xbe1e1b3f	-0.15440081
51	0x3c6af28c	0.014340054
52	0x3e0d7c6e	0.13816997
53	0x3d6b0555	0.057378132
54	0x3e8d4f9d	0.27599803
55	0x3e120f0b	0.14263551
56	0x3e4ccc2b	0.19999759
57	0xbc9de0d8	-0.019272253
58	0x3d96f933	0.0737175
59	0xbe530cc3	-0.20610337
60	0xbe71f635	-0.23629077
61	0x3d7d4324	0.06183161
62	0x3e93c134	0.2885834
63	0xbe871d67	-0.2638962
64	0xbccab6e7	-0.024745418
65	0x3e9509b2	0.2910896
66	0xbd99c013	-0.075073384
67	0xbe2230b6	-0.15838894
68	0x3da24987	0.079241805
69	0xbd5f4ce1	-0.054516677
70	0x3dc49f4a	0.096006945
71	0xbe2cd963	-0.16879801
72	0xbcf31b8e	-0.029676225
73	0x3d1a7c16	0.037715994
74	0x3e694f22	0.22784093
75	0xbe932557	-0.28739426
76	0x3e0cb59e	0.13741156
77	0xbd1d2833	-0.038368415
78	0xbdc1c1b8	-0.09460777
79	0xbe8fcf6b	-0.28087935
80	0x3da1c260	0.07898402
81	0xbe20c346	-0.15699491
82	0xbe142585	-0.14467438
83	0x3e3961f1	0.18103768
84	0xbe781477	-0.24226557
85	0x3d94a4a0	0.07257962
86	0x3dec752b	0.115457855
87	0x3d17f618	0.037099928
88	0xbc67c58b	-0.014146219
89	0xbcef8561	-0.029238405
90	0xbe510d6b	-0.20415275
91	0xbe1a163e	-0.15047547
92	0xbe886017	-0.2663581
93	0x3c8aac98	0.016928002
94	0x3d52d283	0.05147029
95	0x3e856a4a	0.26057655
96	0xbbb6bd58	-0.0055767708
97	0xbe0a5b2c	-0.13511342
98	0xbc7247ff	-0.014787673
99	0x3e8b1a62	0.27168566
100	0x3d574374	0.052554563
101	0xbdc77439	-0.097389646
102	0xbda2db72	-0.07952012
103	0x3daae096	0.083436176
104	0x3ca70300	0.020387173
105	0xbd0a839f	-0.03381693
106	0x3e5058e1	0.20346405
107	0xbd88acf4	-0.06673613
108	0x3e39b355	0.18134816
109	0x3cbcad5f	0.023031889
110	0xbe254d42	-0.16142753
111	0xbcf5309a	-0.029930402
112	0x3de14752	0.109999314
113	0x3e241429	0.16023315
114	0xbd3b731f	-0.045764085
115	0x3da1b324	0.078954965
116	0xbe8a2d9c	-0.26987922
117	0x3c840464	0.016115375
118	0x3dbf2b3e	0.0933442
119	0x3d04f780	0.032462597
120	0xbe1e42bb	-0.15455143
121	0x3e8464a7	0.25858042
122	0xbce1df8e	-0.02757242
123	0x3e6a2e9e	0.22869346
124	0xbda2be0d	-0.079464056
125	0x3e04a7db	0.12954657
126	0xbd1d84a7	-0.038456585
127	0x3e25ed72	0.1620386
128	0x3e818d44	0.2530309
129	0x3d6588ab	0.05603854
130	0x3d484af1	0.048899595
131	0xbcc570e8	-0.02410169
132	0x3e510f9e	0.20416114
133	0xbdb16ce9	-0.08663351
134	0xbb870b8c	-0.0041212495
135	0xbe751ceb	-0.23936813
136	0x3ddb399f	0.1070435
137	0xbd03d8f6	-0.032189332
138	0x3e884c52	0.26620728
139	0xbe24cf20	-0.16094637
140	0xbe9322f5	-0.28737608
141	0xbe452398	-0.19251859
142	0xbe8a3e28	-0.27000546
143	0xbd3f2af5	-0.046671826
144	0x3e8bdc24	0.2731639
145	0x3da9d434	0.08292428
146	0xbe0ab876	-0.13546929
147	0x3d5e50c4	0.054276243
148	0xbda8f2e1	-0.082494505
149	0xbe8293c2	-0.25503355
150	0xbde3ebaf	-0.111289375
151	0xbe384d81	-0.17998315
152	0x3e8c7655	0.2743403
153	0xbd3fdf76	-0.04684397
154	0xbe2bb1f1	-0.16767098
155	0x3d39c5f4	0.0453548
156	0x3cc1e4bf	0.023668645
157	0x3e3d19d0	0.18466878
158	0x3e574076	0.21020684
159	0x3e212d32	0.15739897
160	0xbe7b4c2b	-0.24540775
161	0xbe64c926	-0.22342357
162	0xbe494375	-0.19654639
163	0x3e8c899a	0.27448732
164	0x3e2309e1	0.15921737
165	0xbe5d4323	-0.21607642
166	0xbdb6a5b5	-0.08918325
167	0xbc505289	-0.01271499
168	0xbe6579a0	-0.22409678
169	0xbd115720	-0.03548348
170	0xbdd52791	-0.10407937
171	0xbdac25cd	-0.084056474
172	0xbe81f0a6	-0.25378913
173	0x3e40de8a	0.18834892
174	0xbda20787	-0.07911592
175	0x3caaf2a8	0.02086766
176	0xbd07403e	-0.03302025
177	0xbe7d0fe1	-0.24713089
178	0x3bc0f171	0.005888157
179	0x3d194341	0.037417654
180	0xbe866c11	-0.26254323
181	0x3c621200	0.013798237
182	0x3d6f7ca5	0.05846848
183	0xbd3f0d4d	-0.046643544
184	0x3dc15675	0.094403185
185	0xbe53ac0a	-0.20671096
186	0xbe52f3ef	-0.20600866
187	0xbe171ab7	-0.14756285
188	0x3d97c2a1	0.074101694
189	0x3e206d23	0.15666632
190	0x3cbddacc	0.02317562
191	0xbda391e6	-0.07986812
192	0x3bcff9a2	0.006346897
193	0xbc94eb83	-0.018178707
194	0xbe783790	-0.24239945
195	0xbdf91865	-0.12162856
196	0x3e8b7d60	0.2724409
197	0x3e918351	0.284205
198	0xbe8730a7	-0.26404306
199	0x3d749fcb	0.059722703
200	0xbdd3b736	-0.10337679
201	0x3e81e80d	0.25372353
202	0xbc46150b	-0.012089978
203	0xbdedd5fe	-0.116130814
204	0x3e5a1d20	0.21300173
205	0x3e07c517	0.13258778
206	0x3dbea27f	0.093083374
207	0xbe988a08	-0.2979281
208	0x3ce31983	0.027722126
209	0xbe8a2862	-0.26983935
210	0xbe605413	-0.21907072
211	0xbc2ff025	-0.010738407
212	0xbe3eb9f6	-0.18625626
213	0xbe136e42	-0.14397529
214	0xbda25444	-0.07926229
215	0xbe06ce15	-0.13164552
216	0x3e4830f4	0.19549924
217	0xbe8cda67	-0.27510378
218	0xbe6032b9	-0.21894349
219	0xbe84af03	-0.25914773
220	0x3dd835c3	0.10557129
221	0xbceee713	-0.02916292
222	0x3d15da45	0.03658511
223	0x3e3ac4ff	0.1823921
224	0xbdf923bf	-0.12165021
225	0xbe5fe1cf	-0.21863483
226	0xbd1827ef	-0.03714746
227	0x3e870173	0.26368293
228	0xbd8605f3	-0.065441035
229	0xbe80f1b4	-0.25184405
230	0x3e847fed	0.2587885
231	0xbe8305ce	-0.25590366
232	0xbe533809	-0.20626844
233	0xbe8e4a83	-0.27791223
234	0xbe8ef34c	-0.27919996
235	0x3e19b12d	0.15008993
236	0xbd5e3e7d	-0.054258812
237	0xbe2be583	-0.1678677
238	0x3df6af40	0.12045145
239	0x3e4906cb	0.19631498
240	0x3e4187d6	0.18899474
241	0xbe2c569f	-0.16829918
242	0xbde48ea4	-0.11160019
243	0x3d9e8ab1	0.07741297
244	0x3d52334d	0.051318455
245	0xbdf82fc5	-0.12118486
246	0x3e877ab7	0.26460811
247	0x3d0a9d8a	0.033841647
248	0x3dffdc5e	0.124932036
249	0x3e107338	0.14106452
250	0x3cdc171e	0.026866492
251	0x3d2b3314	0.04179676
252	0xbce8a979	-0.028401123
253	0xbe29e2cd	-0.16590424
254	0xbe838ef9	-0.25695017
255	0x3c3aef61	0.011409611

gat1.bias f4 [256]
0	0xb53e3c14	-7.086794e-07
1	0x34f8e0ff	4.6357306e-07
2	0x35e08b5c	1.672986e-06
3	0x36028d26	1.9453669e-06
4	0xb4cde787	-3.8352684e-07
5	0xb67ca920	-3.764937e-06
6	0xb548269f	-7.4562007e-07
7	0x33d10b87	9.734418e-08
8	0x359443d3	1.1046599e-06
9	0xb4e2674b	-4.2170936e-07
10	0x360a5b42	2.0616721e-06
11	0x35aaa357	1.2713525e-06
12	0xb4cdfa4d	-3.8366343e-07
13	0xb6c3d3d8	-5.8361147e-06
14	0xb74014b0	-1.14489085e-05
15	0xb6282b63	-2.5059205e-06
16	0x35b40c27	1.3414582e-06
17	0x361a45fb	2.2988522e-06
18	0xb65dc64e	-3.3046995e-06
19	0x36290d6f	2.5190782e-06
20	0x358e9b6b	1.0625057e-06
21	0x34cd0342	3.8186596e-07
22	0x326cedef	1.3791108e-08
23	0xb4f99da9	-4.6494577e-07
24	0x365dbff9	3.304331e-06
25	0x35b4b9b8	1.3465096e-06
26	0xb5c8cfab	-1.49616e-06
27	0xb6a4aef4	-4.907948e-06
28	0xb69ef9e0	-4.737856e-06
29	0x361badb4	2.3197908e-06
30	0x35c3f7ae	1.4600716e-06
31	0xb5a93cca	-1.2609173e-06
32	0x32e30762	2.6429635e-08
33	0x31f40cd2	7.102792e-09
34	0xb61e57ed	-2.3595014e-06
35	0x351e0872	5.8871876e-07
36	0xb5044b22	-4.9283165e-07
37	0xb4d7de4d	-4.0208616e-07
38	0x33ed6966	1.10553444e-07
39	0xb6ef50b6	-7.132151e-06
40	0xb61ea372	-2.3638972e-06
41	0x3416ff59	1.4062734e-07
42	0xb2b533e6	-2.1094774e-08
43	0x35fe5528	1.8949258e-06
44	0xb5d9edd1	-1.6236974e-06
45	0x35d0b032	1.5548487e-06
46	0xb7136fa4	-8.787876e-06
47	0x36414a29	2.8802408e-06
48	0x3549d852	7.519312e-07
49	0xb4e90392	-4.340223e-07
50	0x35e8898b	1.7325377e-06
51	0x3629bd80	2.5293266e-06
52	0x3641eb26	2.8896116e-06
53	0x35f200b5	1.8030611e-06
54	0x367ea508	3.794501e-06
55	0x32e1cf42	2.6287697e-08
56	0x3519f4e8	5.7353327e-07
57	0xb62aae49	-2.5433421e-06
58	0xb5d79fd9	-1.606527e-06
59	0x346112b9	2.0961569e-07
60	0xb6704f11	-3.580881e-06
61	0xb5175193	-5.637059e-07
62	0x35a2dce8	1.2134233e-06
63	0xb4e81019	-4.322508e-07
64	0xb6138891	-2.19842e-06
65	0xb4cae45e	-3.779159e-07
66	0xb574a575	-9.1137855e-07
67	0xb6896ee1	-4.095826e-06
68	0x361b05ce	2.3100179e-06
69	0xb6dc001c	-6.5565237e-06
70	0xb6267481	-2.4803742e-06
71	0xb39e2b29	-7.365299e-08
72	0xb58b3c22	-1.0373808e-06
73	0x35313f8e	6.603012e-07
74	0xb6444654	-2.9247212e-06
75	0xb6c6223c	-5.9048452e-06
76	0x34eeb0ff	4.4459736e-07
77	0x350b2a63	5.1843216e-07
78	0xb6defc9c	-6.645523e-06
79	0x3498e529	2.8478942e-07
80	0xb5ed9c0d	-1.7703293e-06
81	0xb5855f80	-9.937066e-07
82	0x353b04ef	6.967011e-07
83	0xb68a941b	-4.1299622e-06
84	0xb585bafd	-9.963693e-07
85	0xb63c0097	-2.8014526e-06
86	0x3720b4f6	9.578876e-06
87	0xb4975f83	-2.8195436e-07
88	0x3667be58	3.4532477e-06
89	0x3500f745	4.804354e-07
90	0x342a38cf	1.585315e-07
91	0x36861e50	3.99704e-06
92	0xb5888bd0	-1.017348e-06
93	0xb24a50c6	-1.1776313e-08
94	0xb7397502	-1.1054102e-05
95	0x35bd5088	1.4105035e-06
96	0xb3c00d70	-8.943141e-08
97	0xb4bed179	-3.554267e-07
98	0xb57009cd	-8.942123e-07
99	0xb5a9a2a8	-1.263882e-06
100	0x35333ff9	6.677579e-07
101	0xb5a39275	-1.2187071e-06
102	0xb394cd3b	-6.929118e-08
103	0x34efea68	4.4687772e-07
104	0xb6b3888b	-5.3505114e-06
105	0xb681b850	-3.8659564e-06
106	0xb699e989	-4.5869424e-06
107	0xb634ccfe	-2.6941411e-06
108	0xb5e18e40	-1.6805207e-06
109	0x34575c4b	2.0057011e-07
110	0x35d03f01	1.5515544e-06
111	0xb69818f3	-4.5328575e-06
112	0x35a4060d	1.2220713e-06
113	0x36837d70	3.918707e-06
114	0xb53780dc	-6.836033e-07
115	0x342da545	1.6172005e-07
116	0xb53ecbf4	-7.1077307e-07
117	0xb7937d42	-1.7582093e-05
118	0xb459306e	-2.0227318e-07
119	0xb371c207	-5.6288652e-08
120	0xb5ce7e16	-1.5384892e-06
121	0x358b59a3	1.0382395e-06
122	0x3505c840	4.9837763e-07
123	0x3777eb23	1.4777094e-05
124	0xb6196d75	-2.286249e-06
125	0x370ed9f1	8.514603e-06
126	0x339a8538	7.195416e-08
127	0x3717a45e	9.038571e-06
128	0xb41f9129	-1.4860838e-07
129	0xb66b39ac	-3.5051298e-06
130	0xb6bd6c3a	-5.645238e-06
131	0x34b0110f	3.2794966e-07
132	0xb5498c90	-7.508288e-07
133	0x36164302	2.2390745e-06
134	0xb5d24599	-1.5666475e-06
135	0xb60192a1	-1.9307847e-06
136	0xb5de1404	-1.6546114e-06
137	0xb4eb06e5	-4.3777177e-07
138	0x3542728c	7.243732e-07
139	0x3580b221	9.588585e-07
140	0x35bf6349	1.4259505e-06
141	0xb3823efa	-6.065052e-08
142	0x347f07da	2.3751582e-07
143	0x3572857c	9.034627e-07
144	0x35ea85a3	1.7473252e-06
145	0xb72a57b1	-1.0153207e-05
146	0x3656b25d	3.1992306e-06
147	0xb570c101	-8.9687825e-07
148	0x35b4a5d8	1.3459312e-06
149	0x35817111	9.644156e-07
150	0xb5145530	-5.525826e-07
151	0xb583ac9d	-9.810498e-07
152	0xb59b4db1	-1.1571011e-06
153	0xb6071909	-2.013114e-06
154	0xb56a673f	-8.7322036e-07
155	0x35f88eb4	1.8518972e-06
156	0xb63f6bbe	-2.8523932e-06
157	0xb4292ab2	-1.5754884e-07
158	0xb6a28661	-4.84362e-06
159	0x350a1c45	5.1450144e-07
160	0xb6213638	-2.402243e-06
161	0xb619f499	-2.2941151e-06
162	0xb3682f9c	-5.406001e-08
163	0x3604c93c	1.9786667e-06
164	0xb55b0cf9	-8.1602735e-07
165	0x35b097ee	1.3157239e-06
166	0x351f07d9	5.9243536e-07
167	0x368c2825	4.1769986e-06
168	0xb4a21060	-3.0186766e-07
169	0xb5065bd6	-5.005253e-07
170	0xb48a5d8d	-2.577257e-07
171	0x35fc8151	1.8813099e-06
172	0x35065a14	5.004997e-07
173	0x330b7a5a	3.2474738e-08
174	0x35a945d9	1.261181e-06
175	0xb5168b35	-5.608193e-07
176	0xb4b6d6cb	-3.4056424e-07
177	0x35864162	1.0002807e-06
178	0xb52f3766	-6.5273196e-07
179	0xb762653e	-1.3494222e-05
180	0xb59240b6	-1.0896681e-06
181	0xb5b39aa3	-1.3381544e-06
182	0x3579f24a	9.3112305e-07
183	0x3583c5b2	9.817797e-07
184	0x358acc5e	1.034128e-06
185	0xb649c084	-3.0063393e-06
186	0xb5d81eca	-1.6102215e-06
187	0xb5b45f84	-1.3438844e-06
188	0xb6aaadf9	-5.086648e-06
189	0x343dccf6	1.7676561e-07
190	0xb54c8cc6	-7.6200774e-07
191	0xb5e4232b	-1.6997559e-06
192	0xb50ee23b	-5.322833e-07
193	0xb6b8ee1c	-5.511347e-06
194	0xb5fb5e0c	-1.8728329e-06
195	0x35306018	6.5704944e-07
196	0xb5d1eb4d	-1.5640195e-06
197	0x3654732e	3.1657505e-06
198	0x363f505c	2.8507993e-06
199	0xb4e0774d	-4.1810054e-07
200	0xb56eb1e4	-8.8920774e-07
201	0xb50a2a7d	-5.1470835e-07
202	0x3575e642	9.160468e-07
203	0x3755e723	1.2749605e-05
204	0x36ce792d	6.153385e-06
205	0xb5d13e2b	-1.5589807e-06
206	0x3679404b	3.7141315e-06
207	0xb5a5df85	-1.2358511e-06
208	0xb6966314	-4.4818826e-06
209	0x351ecbc9	5.9156133e-07
210	0xb4d3dff3	-3.9464757e-07
211	0xb60eb2d0	-2.1263731e-06
212	0x35cf016e	1.5423118e-06
213	0xb59968db	-1.1429905e-06
214	0xb698baba	-4.551691e-06
215	0xb529e757	-6.329405e-07
216	0xb53a18b3	-6.932634e-07
217	0xb669a578	-3.481602e-06
218	0xb68d125a	-4.204264e-06
219	0x361d959c	2.3481907e-06
220	0xb522e660	-6.068494e-07
221	0x360415c4	1.9682202e-06
222	0xb482caa6	-2.4361833e-07
223	0xb5dbe873	-1.6384423e-06
224	0x35eb87b8	1.7548364e-06
225	0xb56db3c1	-8.8550956e-07
226	0x363146a3	2.6416171e-06
227	0xb510dede	-5.3968495e-07
228	0x34efa090	4.4634044e-07
229	0xb67d515c	-3.7747295e-06
230	0x32b4ba8d	2.1039591e-08
231	0x36155722	2.2253448e-06
232	0x352e7b2e	6.49993e-07
233	0xb6ddd6e4	-6.61133e-06
234	0x36d480c0	6.333081e-06
235	0xb598fb24	-1.1397974e-06
236	0x36412104	2.8778459e-06
237	0xb4517e4f	-1.9510593e-07
238	0x359318ec	1.0959607e-06
239	0x35964deb	1.1198548e-06
240	0x35f3a353	1.8152444e-06
241	0xb4eeef23	-4.450495e-07
242	0xb61a1645	-2.296075e-06
243	0x3505fe6f	4.991661e-07
244	0x34bc641c	3.5090568e-07
245	0xb5a08921	-1.1960839e-06
246	0x351a8f4d	5.7578e-07
247	0x3479bfe5	2.3259743e-07
248	0x34b6b53a	3.4032e-07
249	0x366e2c53	3.5490564e-06
250	0x34ae01e4	3.24114e-07
251	0xb4fcf52f	-4.7117052e-07
252	0x35cbb950	1.5178612e-06
253	0xb59f1104	-1.1851375e-06
254	0x359e11af	1.1777064e-06
255	0x361667f6	2.2412255e-06

gat1.lin.weight f4 [256, 7]
0	0xbceda93f	-0.029011367
1	0x3daead8c	0.08529195
2	0x3e1495ea	0.14510313
3	0x3ba057d2	0.0048932815
4	0xbc64f8cd	-0.013975334
5	0x3ce7c462	0.028291885
6	0x3b8ad849	0.004237209
7	0x3e1c40b8	0.15259063
8	0x3e0c2c78	0.13688838
9	0xbc0d0c0a	-0.008608827
10	0x3d988b5b	0.07448455
11	0x3dbd220a	0.09235008
12	0xbdce3837	-0.10069316
13	0xbe15565f	-0.14583729
14	0x3e15de51	0.14635588
15	0xbdeafa94	-0.11473575
16	0xbe15bdce	-0.14623186
17	0x3e078e5a	0.13237897
18	0x3df15356	0.11783473
19	0x3daa1623	0.083050035
20	0xbdde6319	-0.10858745
21	0xbe0da953	-0.13834123
22	0x3dcbe26b	0.09955295
23	0x3e09a9b5	0.13443644
24	0xbd993bc6	-0.07482104
25	0x3c1b4377	0.009476534
26	0x3c4ae01e	0.012382535
27	0xbcca4419	-0.024690675
28	0x3e145e71	0.14489152
29	0xbe0c0432	-0.13673475
30	0xbe0f1ad4	-0.13975078
31	0x3e03e7d1	0.128814
32	0xbe0d2550	-0.13783765
33	0xbd9fc085	-0.07800392
34	0xbde4859a	-0.11158295
35	0x3e180e76	0.14849266
36	0x3ceae565	0.028673837
37	0x3dcb01a2	0.09912421
38	0xbc426227	-0.011864222
39	0xb7b40400	-2.1459535e-05
40	0x3dd63545	0.10459379
41	0x3bb7962f	0.00560262
42	0xbc5d6fa4	-0.013515387
43	0xbe0081ad	-0.12549467
44	0xbd521e4a	-0.051298417
45	0xbd837b6d	-0.06420026
46	0xbdc90a6a	-0.098164394
47	0xbdbedd0e	-0.093195066
48	0x3d03c9da	0.032174923
49	0x3de16410	0.110054135
50	0xbdfe2d7a	-0.12411018
51	0xbc1ccfba	-0.00957101
52	0x3dbc5c10	0.09197247
53	0xbd871f5d	-0.06597779
54	0x3b5ca017	0.0033664757
55	0x3e15afbc	0.14617819
56	0x3d8035c3	0.06260254
57	0x3de90140	0.113771915
58	0x3e0fa275	0.14026816
59	0x3d851358	0.0649783
60	0xbd989cbf	-0.07451772
61	0xbd3a021a	-0.04541216
62	0xbe115357	-0.14191948
63	0xbdbebcc8	-0.09313351
64	0xbdc1f080	-0.094697
65	0xbce12c5a	-0.027486969
66	0xbd8e507b	-0.06948944
67	0xbd836b28	-0.06416923
68	0x3c92a7e4	0.017902322
69	0xbd40c7ce	-0.04706555
70	0x3c0a6e44	0.008449141
71	0x3d60a5d5	0.05484565
72	0xbb726733	-0.003698778
73	0x3d9fc1c4	0.0780063
74	0x3c3dab1c	0.01157644
75	0xbe044af4	-0.12919217
76	0xbe18d208	-0.1492387
77	0xbde13f25	-0.10998372
78	0x3db84161	0.08996845
79	0xbc15053d	-0.009095487
80	0x3db97c2c	0.09056887
81	0xbc3dddbd	-0.011588511
82	0xbdac1efb	-0.084043466
83	0x3d816bd5	0.063193955
84	0xbe154fd3	-0.14581232
85	0xbdd7e560	-0.10541797
86	0x3d4309fb	0.04761694
87	0x3c284c02	0.010272028
88	0xbd8081f8	-0.062747896
89	0x3d11cad6	0.03559383
90	0x3dee22d7	0.11627739
91	0xbcbff8ea	-0.023434121
92	0xbe11de62	-0.14244989
93	0xbd83b53a	-0.064310506
94	0x3e175b48	0.14780915
95	0x3dcfd820	0.101486444
96	0x3dcaf040	0.09909105
97	0xbe015847	-0.12631331
98	0xbd871a1b	-0.06596776
99	0xbc4471fe	-0.0119900685
100	0x3d158ede	0.036513202
101	0xbced658b	-0.028979084
102	0x3dd6a217	0.10480135
103	0x3d991c3a	0.07476087
104	0x3d1a5fc6	0.037688993
105	0x3e18a36f	0.14906095
106	0xbe0db307	-0.13837825
107	0xbd081c94	-0.03323038
108	0x3d38d792	0.04512746
109	0x3e11708d	0.14203091
110	0x3ddf0888	0.10890299
111	0x3de423ff	0.11139678
112	0xbd0f0d03	-0.03492452
113	0x3da8c669	0.08240969
114	0xbe05ca67	-0.13065492
115	0xbd9b212a	-0.07574685
116	0x3e03dfac	0.12878293
117	0x3d98b2c3	0.07455971
118	0xbdfa10f9	-0.122102685
119	0x3e035dac	0.12828702
120	0x3ddde8b6	0.10835402
121	0x3e12e560	0.14345312
122	0xbdb039b5	-0.08604757
123	0x3e0d75af	0.13814424
124	0xbdef3b4a	-0.1168123
125	0x3c25ab9f	0.010111718
126	0x3de45e06	0.11150746
127	0xbd8f9a0b	-0.07011803
128	0x3dd5248d	0.10407362
129	0xbd09e079	-0.03366134
130	0xbcdcd319	-0.026956128
131	0xbdbf5b45	-0.0934358
132	0x3d2bf2a9	0.041979466
133	0xbdf84f9d	-0.1212456
134	0xbcd0fe6d	-0.025511945
135	0x3d9f0d86	0.07766251
136	0xbde79201	-0.11307145
137	0x3b8cab0d	0.004292852
138	0x3d7147af	0.058906253
139	0xbde3003f	-0.11084031
140	0x3cf37ef4	0.029723622
141	0xbd80815b	-0.062746726
142	0xbe008d01	-0.12553789
143	0xbd9795eb	-0.074016415
144	0x3deaf364	0.11472204
145	0x3dd129de	0.10213064
146	0xbdeacf16	-0.1146528
147	0x3cba9e5d	0.022780592
148	0xbd8abef8	-0.06774706
149	0x3d3610a6	0.04444947
150	0xbd3728a4	-0.044716492
151	0xbd8bc36c	-0.06824383
152	0xbdaf94b2	-0.08573283
153	0xbc7e6e5c	-0.015529241
154	0xbd365c34	-0.044521526
155	0x3da0ffc1	0.07861281
156	0xbd406802	-0.04697419
157	0x3e116e32	0.14202192
158	0xbd0a281d	-0.03372966
159	0x3af8c631	0.0018979964
160	0x3d7629af	0.060098346
161	0x3dd891dc	0.105746955
162	0x3d4dac09	0.050212894
163	0x3df9049c	0.12159082
164	0xbdaea747	-0.08527999
165	0x3d8ad732	0.067793265
166	0x3d7096fa	0.058737732
167	0xbd9bd0a8	-0.076081574
168	0xbe026c22	-0.12736562
169	0x3dfa8531	0.122324355
170	0x3e15640d	0.14588948
171	0xbd4c4655	-0.04987176
172	0x3daa87ec	0.08326706
173	0xbe05dec5	-0.13073261
174	0x3dac7431	0.08420599
175	0xbb0f5897	-0.0021872872
176	0x3c9619b2	0.0183228
177	0x3de8eb30	0.113729835
178	0x3ddf27da	0.10896273
179	0xbcf0299a	-0.029316712
180	0xbd52e072	-0.05148358
181	0x3e1b523d	0.1516809
182	0x3e0d11a3	0.13776259
183	0xbe154ffb	-0.14581291
184	0x3dbe9127	0.09305029
185	0xbdf608b8	-0.12013382
186	0xbd146574	-0.036229566
187	0x3c4ed92b	0.012625019
188	0x3d2d1ffd	0.042266835
189	0xbda826b6	-0.082105085
190	0x3e17a0c6	0.14807424
191	0xbe0a667f	-0.13515662
192	0x3d35b517	0.044362154
193	0x3dfc9f01	0.12335015
194	0xbd676924	-0.056496754
195	0xbc38d59d	-0.011281398
196	0xbdd7130a	-0.10501678
197	0x3e087dfc	0.13329309
198	0x3df228f8	0.118242204
199	0x3cd10433	0.025514698
200	0xbcc83eeb	-0.024444064
201	0x3d49a26b	0.04922716
202	0xbd6bb0ec	-0.057541773
203	0x3d0ccc87	0.03437474
204	0xbc781182	-0.015140893
205	0xbca5bc90	-0.020231515
206	0xbd68ba5b	-0.056818347
207	0xbdf2c51a	-0.118540004
208	0xbe18f61a	-0.1493763
209	0xbcc867fe	-0.02446365
210	0xbc925113	-0.017860925
211	0xbe061e3a	-0.13097468
212	0x3dd689f9	0.10475535
213	0xbe16c530	-0.14723659
214	0xbd9658f3	-0.073411845
215	0xbc147260	-0.009060472
216	0x3e0b9339	0.1363038
217	0x3dc0dff1	0.094177134
218	0xbd97cf4c	-0.074125856
219	0x3deb0af4	0.114766985
220	0xbb3f66f6	-0.0029205657
221	0x3df56dca	0.11983831
222	0x3e121eb3	0.14269523
223	0x3cd0165e	0.02540129
224	0xbb1d3841	-0.0023989829
225	0x3d459015	0.04823311
226	0xbd826370	-0.063666224
227	0xbdd61e50	-0.104550004
228	0xbccc935c	-0.02497261
229	0x3d9b1a08	0.075733244
230	0xbe156c04	-0.14591986
231	0xbe000479	-0.12501706
232	0x3cb9c54c	0.022677086
233	0x3ce0ff40	0.027465463
234	0x3b0daca2	0.002161779
235	0xbce220c7	-0.02760352
236	0x3defc747	0.11707931
237	0x3e1cb3be	0.15302941
238	0xbd8a5030	-0.06753576
239	0x3e0cf1c1	0.13764097
240	0x3d7d4539	0.061833594
241	0x3bdece19	0.006799471
242	0x3d3836d1	0.044974152
243	0x3e01c83e	0.12674043
244	0xbdc7de87	-0.097592406
245	0x3d839fd3	0.064269684
246	0xbd3afb8e	-0.045650057
247	0x3df96eeb	0.12179359
248	0xbd6714e4	-0.056416407
249	0xbd440e1a	-0.04786501
250	0x3de0c97e	0.109759316
251	0x3cddf5e9	0.027094798
252	0xbce63898	-0.028103158
253	0x3daeb8e8	0.08531362
254	0xbe10435e	-0.14088199
255	0x3e116aec	0.14200944

gat2.att_src f4 [1, 1, 64]
0	0x3d89d38d	0.06729803
1	0xbe5a940a	-0.21345535
2	0x3d5e9336	0.05433961
3	0x3d7b47f7	0.061347928
4	0x3e529045	0.20562847
5	0xbe04e949	-0.12979616
6	0x3c40d968	0.011770584
7	0x3d0f0399	0.03491554
8	0xbdeb66a7	-0.11494189
9	0xbe9caef0	-0.30602217
10	0xbdf5b748	-0.11997849
11	0xbb025a23	-0.0019890151
12	0xbe0a377b	-0.13497727
13	0xbdeea425	-0.11652402
14	0xbe30104c	-0.17193717
15	0x3e265bf3	0.16246013
16	0xbe8caf5e	-0.27477545
17	0x3e403bed	0.1877286
18	0x3e8efb76	0.27926224
19	0xbe7a4cb0	-0.24443316
20	0x3d763e9a	0.060118295
21	0x3ddd4e18	0.10805911
22	0xbc808fe1	-0.015693607
23	0xbe28fe41	-0.1650324
24	0x3e547e04	0.20751196
25	0xbe1ce949	-0.15323366
26	0x3e474d4d	0.19463082
27	0x3d428253	0.047487568
28	0x3cb502ea	0.022096116
29	0xbe184512	-0.14870098
30	0xbd919fc1	-0.07110549
31	0xbd9d8275	-0.07690898
32	0xbd9319e2	-0.07182671
33	0xbe94876f	-0.29009578
34	0xbe62bb58	-0.22141778
35	0xbe11330c	-0.14179629
36	0x3d4744ae	0.048649482
37	0x3e770148	0.24121583
38	0x3d79bb9d	0.060969938
39	0xbe83396a	-0.2562974
40	0xbe7089bb	-0.2349004
41	0x3e730ca9	0.23735298
42	0xbe74fd8b	-0.23924844
43	0xba4849e9	-0.0007640408
44	0x3e2b25c8	0.16713631
45	0x3e4563de	0.19276378
46	0xbe0b9a55	-0.13633092
47	0x3e263fd4	0.16235286
48	0xbe3934c0	-0.18086529
49	0xbe7a02c9	-0.24415125
50	0x3e7f1278	0.24909389
51	0x3e5383c5	0.20655735
52	0x3d887b30	0.06664121
53	0xbe3ea11f	-0.1861615
54	0xbd3603b7	-0.044437137
55	0xbe99cc90	-0.3003888
56	0xbdc82fdb	-0.09774753
57	0x3dcc314d	0.09970341
58	0xbd843d0c	-0.06456956
59	0x3d005ee1	0.031340484
60	0x3e951084	0.29114163
61	0x3e1a2baa	0.15055719
62	0x3e8a8507	0.27054617
63	0x3d231f54	0.0398248

gat2.att_dst f4 [1, 1, 64]
0	0xbe85fe1b	-0.2617043
1	0xbe7ed8da	-0.2488741
2	0x3dbb1b83	0.09136107
3	0xbe940bc4	-0.28915226
4	0x3cdd0c2e	0.026983347
5	0x3e3139d5	0.17307217
6	0xbe0ad598	-0.13558042
7	0xbe8ba731	-0.27275994
8	0xbd8a3071	-0.06747521
9	0x3d892096	0.066956684
10	0x3cc5031d	0.024049336
11	0x3e7b8998	0.24564207
12	0xbc093e8f	-0.008376732
13	0xbb1e89eb	-0.0024191092
14	0xbc1d964d	-0.009618354
15	0xbe86d871	-0.26337007
16	0x3dc24da5	0.09487466
17	0x3d72dc74	0.05929227
18	0x3e5934fe	0.21211621
19	0xbe5afdcd	-0.2138588
20	0xbdd10174	-0.10205355
21	0x3de8a681	0.11359883
22	0x3e892965	0.26789394
23	0xbdde44b9	-0.108529516
24	0x3dceeeb9	0.101041265
25	0x3b668fd2	0.0035180938
26	0x3db38563	0.08765676
27	0x3e8deeab	0.27721152
28	0xbe027a88	-0.12742054
29	0x3deb7ce9	0.11498434
30	0xbe27c1f5	-0.16382582
31	0xbd5bf502	-0.053700455
32	0x3e7ad044	0.2449351
33	0xbd2a5dc9	-0.041593347
34	0xbd1d89b2	-0.038461395
35	0xbe749b0c	-0.2388727
36	0xbc1a68d9	-0.009424412
37	0xbd9758f5	-0.07390014
38	0xbe760a04	-0.24027258
39	0xbe1b4cbe	-0.15165994
40	0xbe000771	-0.12502839
41	0xbe3e40ec	-0.18579453
42	0xbda6f71b	-0.081526004
43	0x3e9b8958	0.30378222
44	0x3ba3912a	0.00499167
45	0xbc776082	-0.015098693
46	0xbe4971d5	-0.1967233
47	0x3d18804c	0.03723173
48	0xbd873ae2	-0.06603028
49	0xbe765994	-0.24057609
50	0xbe0a77d4	-0.13522273
51	0xbd07081e	-0.032966726
52	0x3e90638c	0.28200948
53	0xbe71ef23	-0.2362638
54	0xbd92ae28	-0.07162124
55	0x3df214b5	0.11820356
56	0xbe249dd2	-0.16075829
57	0xbe3de436	-0.18544087
58	0x3e5a975e	0.21346804
59	0xbe8034ea	-0.2504037
60	0xbe3695a7	-0.17830525
61	0x3e5a046d	0.21290751
62	0x3d895c47	0.06707054
63	0xbe86cb6d	-0.26327077

gat2.bias f4 [64]
0	0x346a5746	2.1824698e-07
1	0x34ede5b8	4.4311832e-07
2	0x350f3a3a	5.335638e-07
3	0x322af65b	9.951317e-09
4	0xb5886f75	-1.0165228e-06
5	0x334cd128	4.7687678e-08
6	0x35882a9e	1.0145193e-06
7	0x32d9217b	2.527735e-08
8	0x33e9503c	1.08645025e-07
9	0x34984a8b	2.8366443e-07
10	0xb4c4e1e4	-3.6672202e-07
11	0xb664d70c	-3.4099821e-06
12	0x343ce67c	1.7592714e-07
13	0xb57747da	-9.211923e-07
14	0x33a2b5dd	7.5767936e-08
15	0xb5491b5f	-7.4918165e-07
16	0xb56a2681	-8.7227824e-07
17	0x35cb8d15	1.5165739e-06
18	0x3570d702	8.9719845e-07
19	0x35d80f8f	1.6097782e-06
20	0x35154d1f	5.561905e-07
21	0x35f820c2	1.8486974e-06
22	0x343e4a53	1.7722168e-07
23	0xb69c5c5c	-4.6599143e-06
24	0x35268f1a	6.204806e-07
25	0xb5d51e22	-1.5878506e-06
26	0xb4beacf2	-3.5516092e-07
27	0x35ac1d8a	1.2823596e-06
28	0x346337eb	2.1161365e-07
29	0x3501cb29	4.835188e-07
30	0x35591c63	8.088011e-07
31	0x33862b1f	6.247705e-08
32	0x355ca428	8.2195265e-07
33	0x35e06493	1.6718571e-06
34	0x34a0a4a5	2.9922117e-07
35	0xb534534b	-6.717643e-07
36	0x35e96a55	1.73908e-06
37	0x34acc837	3.2183172e-07
38	0x359e2f90	1.178576e-06
39	0xb4e630e9	-4.2876425e-07
40	0x355af28b	8.1564275e-07
41	0xb51f520b	-5.9351504e-07
42	0xb578f177	-9.2738577e-07
43	0x343eb948	1.7762534e-07
44	0x32ba01eb	2.1654122e-08
45	0x35425ce4	7.2405805e-07
46	0x35586990	8.0619884e-07
47	0xb5cdd7c2	-1.5336484e-06
48	0x33b2f5b0	8.333461e-08
49	0xb5d31e66	-1.5729572e-06
50	0x35e76e8b	1.7243013e-06
51	0xb4b23e75	-3.3200527e-07
52	0xb46267b8	-2.1085623e-07
53	0xb5a9f489	-1.266265e-06
54	0xb4cd2e5e	-3.8217962e-07
55	0x3495076e	2.7758819e-07
56	0xb3e44b35	-1.06307574e-07
57	0x3538381c	6.862699e-07
58	0xb5184d77	-5.673714e-07
59	0x35e4bcae	1.7042237e-06
60	0x33e3cbd2	1.0607586e-07
61	0xb497a8ba	-2.8248706e-07
62	0xb58edf3e	-1.0644796e-06
63	0xb6008d44	-1.9155714e-06

gat2.lin.weight f4 [64, 256]
0	0xbdf5631d	-0.11981795
1	0xbc46aa52	-0.012125568
2	0x3dd9bdd6	0.106319115
3	0xbdf9a735	-0.12190095
4	0x3d31cc1d	0.04340755
5	0xbdc580ba	-0.09643693
6	0x3ddfd683	0.10929587
7	0xbd87d9ef	-0.066333644
8	0x3d08159c	0.033223733
9	0xbd5a2371	-0.053256456
10	0xbddcf5c5	-0.10789064
11	0x3ad45b66	0.0016201555
12	0x3d073a5a	0.033014633
13	0xbc4042f3	-0.011734712
14	0x3dba4fb4	0.090972334
15	0xbcded888	-0.02720286
16	0x3d779a92	0.060450144
17	0x3dbc5e32	0.09197654
18	0x3d18e8f3	0.037331533
19	0xbd566ac6	-0.05234792
20	0xbdda3479	-0.106545396
21	0x3d62430f	0.055239733
22	0x3d84a03f	0.06475877
23	0xbc0f0075	-0.008728136
24	0xbd6b178f	-0.057395514
25	0x3c091f2a	0.0083692465
26	0x3d25099a	0.04029236
27	0x3d9bce79	0.07607741
28	0x3dcb066d	0.09913335
29	0x3de46ea1	0.11153913
30	0xbd6ecd49	-0.058301244
31	0xbdfced8e	-0.123499975
32	0x3e0725a5	0.13197954
33	0x3c0cd2e2	0.0085952
34	0xbdfb9d96	-0.122859165
35	0x3de04e62	0.1095245
36	0xbda397c5	-0.07987932
37	0x3dc8c3a2	0.09802939
38	0xbdffb495	-0.12485615
39	0xbdff453b	-0.124643765
40	0xbd33caf3	-0.04389472
41	0xbd208fe3	-0.03919972
42	0x3d4efe65	0.05053558
43	0x3e07538b	0.13215463
44	0x3c6555ef	0.013997539
45	0x3d635f8d	0.055511046
46	0x3c81b323	0.01583249
47	0x3d934513	0.07190909
48	0x3c5d5674	0.013509382
49	0xbd7ba322	-0.061434872
50	0xbe06f86a	-0.131807
51	0xbdf44158	-0.11926526
52	0x3d711d2e	0.05886572
53	0x3d1b4b47	0.037913587
54	0xbdd3028a	-0.10303219
55	0x3c2e6412	0.010643976
56	0xbce06ef0	-0.02739665
57	0xbd881296	-0.0664417
58	0xbd52e66f	-0.05148929
59	0x3db1e9a3	0.08687141
60	0x3cd702c1	0.02624643
61	0xbde74f5c	-0.112944335
62	0x3dc500d8	0.096193016
63	0x3bbf846f	0.0058446447
64	0x3ca31ca7	0.019911123
65	0x3c17faa0	0.009276062
66	0x3e07f0cb	0.13275449
67	0x3c513c27	0.012770689
68	0xbd350ac6	-0.044199727
69	0x3d93bcf5	0.07213775
70	0x3d5a0f40	0.0532372
71	0x3d5fc0dc	0.054627284
72	0xbd6a3e4d	-0.05718832
73	0xbd2bec66	-0.041973494
74	0x3e02c86b	0.12771766
75	0x3d3b8343	0.045779478
76	0xbdbbcc1b	-0.091697894
77	0xbda405e5	-0.08008937
78	0xbdf8d0b9	-0.12149186
79	0x3dd9188e	0.106003866
80	0x3d9373f6	0.07199852
81	0x3d9f1e74	0.0776948
82	0x3da1ad62	0.07894398
83	0xbd2e3baa	-0.04253737
84	0xbb89cb57	-0.004205148
85	0xbdc634b2	-0.096780196
86	0x3d2ca9d9	0.042154167
87	0xbb825d02	-0.0039783726
88	0x3d9b2938	0.07576221
89	0x3dc1947b	0.094521485
90	0x3d2c5b66	0.04207935
91	0xbdc52bb9	-0.0962748
92	0xbdafe79d	-0.085890986
93	0x3c71991f	0.01474598
94	0xbc28a9eb	-0.010294418
95	0xbd847af4	-0.06468764
96	0x3d4e1760	0.05031526
97	0xbda7c0c8	-0.08191067
98	0xbdb2b416	-0.08725755
99	0x3d2b7f5b	0.041869503
100	0xbb8bb30e	-0.0042632883
101	0x3e095b87	0.13413821
102	0x3d8d067f	0.06886005
103	0xbc15bc68	-0.009139158
104	0xbc4125bc	-0.011788782
105	0x3dbb8063	0.09155347
106	0xbdd4e1bd	-0.10394619
107	0xbc8f356e	-0.017481532
108	0x3dfc13de	0.12308477
109	0x3d659e80	0.05605936
110	0x3deb0196	0.11474912
111	0x3d359a29	0.04433647
112	0xbda308c8	-0.07960659
113	0xbd19a900	-0.037514687
114	0xbd7565f2	-0.059911676
115	0x3dae0b79	0.08498282
116	0xbdf2d609	-0.1185723
117	0xbd65dee9	-0.056120787
118	0xbd846234	-0.06464043
119	0xbdc02e93	-0.09383883
120	0x3d90e550	0.07074988
121	0xbce67086	-0.028129827
122	0xbbaed3ad	-0.0053352923
123	0xbdd0c6c0	-0.101941586
124	0x391855e5	0.00014527848
125	0xbcdd7b85	-0.027036438
126	0x3de5858d	0.112071134
127	0x3dd26d06	0.10274701
128	0x3ce40395	0.02783374
129	0x3cd76a09	0.026295679
130	0x3d855d20	0.06511903
131	0xbd9615a0	-0.073283434
132	0xbc913983	-0.017727619
133	0x3cc5e55f	0.024157224
134	0x3d2c9752	0.042136498
135	0xbdd82182	-0.10553266
136	0x3d400980	0.04688406
137	0x3dbf087f	0.093277924
138	0xbc618aec	-0.013766032
139	0x3dcfbdd8	0.10143632
140	0x3d3b74a7	0.045765545
141	0xbdeb4186	-0.11487107
142	0x3d9e4139	0.07727284
143	0x3db93047	0.09042411
144	0xbdc774ff	-0.09739112
145	0x3dddc789	0.10829074
146	0xbd42ee69	-0.047590647
147	0x3da6a757	0.08137386
148	0x3e019793	0.12655477
149	0xbc67d101	-0.0141489515
150	0xbd9c3078	-0.07626432
151	0x3c73b615	0.014874955
152	0x3dfdcc3a	0.12392469
153	0xbd16851a	-0.03674803
154	0xbc793e9e	-0.015212683
155	0x3c2231d0	0.009899572
156	0xbd76b1eb	-0.06022827
157	0xbca43e6b	-0.020049294
158	0x3d31dca8	0.043423325
159	0xbdd1100d	-0.102081396
160	0xbd4e9e7d	-0.050444115
161	0x3d3ab707	0.045584705
162	0x3d5f5a4f	0.054529484
163	0xbd1baaf6	-0.038004838
164	0xbe017e18	-0.12645757
165	0xbdf452de	-0.11929868
166	0xbd7cac25	-0.061687607
167	0x3d0f81d1	0.035035912
168	0xbdf404b3	-0.11914959
169	0x3d3347a5	0.043769497
170	0xbdd72d6f	-0.10506713
171	0xbc0259e3	-0.007956001
172	0xbd5f5ab7	-0.05452987
173	0x3c753b0c	0.014967691
174	0xbdcda0b0	-0.10040414
175	0xbda50b96	-0.080588505
176	0xbdd57b96	-0.10423963
177	0x3d23a879	0.03995559
178	0xbc938217	-0.018006368
179	0xbde0e89c	-0.10981867
180	0xbdcee073	-0.10101404
181	0x3d6e78a5	0.058220524
182	0x3d53348c	0.051563784
183	0x3d5e6cd0	0.05430299
184	0xbba9f481	-0.005186618
185	0x3dc875b9	0.09788079
186	0xbdb23732	-0.08701934
187	0xbe0abddd	-0.1354899
188	0xbdeefc42	-0.11669208
189	0x3c41b1e6	0.011822199
190	0x3b2624fa	0.002535163
191	0xbe07d90b	-0.13266389
192	0x3db8da82	0.09026052
193	0xbe08b749	-0.13351168
194	0x3de0f8a2	0.10984923
195	0x3d453f02	0.048155792
196	0x3ceb0709	0.028689878
197	0x3d791f42	0.060820825
198	0xbde88ce1	-0.113549955
199	0x3df8d075	0.12149135
200	0xbdaa0982	-0.08302595
201	0x3d316dac	0.043317482
202	0xbdbde95e	-0.09273027
203	0x3b7f431a	0.0038949908
204	0x3dcd9b29	0.1003936
205	0x3dc05f1a	0.09393139
206	0x3d808fe8	0.06277448
207	0xbd84b3cf	-0.06479608
208	0x3de75941	0.11296321
209	0x3da08118	0.07837123
210	0x3b13e767	0.0022568346
211	0xbd7e56cf	-0.062094506
212	0xbd3d5ca0	-0.046230912
213	0xbcaf68d7	-0.021412296
214	0xbd191303	-0.037371647
215	0x3e056130	0.13025355
216	0xbb40bb1f	-0.0029408408
217	0x3cba68a7	0.02275498
218	0x3d1c6b70	0.038188398
219	0xbd62a516	-0.05533322
220	0x3d76299a	0.060098268
221	0x3dc8447e	0.09778689
222	0xbb8c5844	-0.004282983
223	0xbd672ecc	-0.056441113
224	0x3d4331d4	0.04765494
225	0x3e0a3721	0.13497593
226	0xbe023748	-0.127164
227	0xbe07309a	-0.13202134
228	0x3dac0330	0.083990455
229	0x3d3edbe6	0.04659643
230	0x3df2e990	0.11860955
231	0x3dab54e7	0.08365803
232	0xbdb8c1e6	-0.09021358
233	0x3dba47fb	0.090957604
234	0xbd296d7d	-0.04136418
235	0x3d8ec70e	0.069715604
236	0xbe000ad2	-0.12504128
237	0x3db76440	0.08954668
238	0xbe014600	-0.12624359
239	0xbdbe8eaa	-0.09304555
240	0xbd33158d	-0.043721724
241	0x3d94285a	0.07234259
242	0xbdac4ff4	-0.08413687
243	0xbd56a8b5	-0.052406985
244	0x3b803d22	0.0039135376
245	0x3d43d0a5	0.0478064
246	0xbdba3448	-0.09092003
247	0xbbc70924	-0.0060740877
248	0x3df78837	0.12086528
249	0x3d82fa87	0.063954405
250	0xbc3a1bb8	-0.011359148
251	0xbe0298b2	-0.12753561
252	0x3d595d85	0.053067703
253	0xbe01bd09	-0.12669767
254	0x3dfeaa46	0.12434821
255	0xbdf6c26f	-0.12048804

bn1.weight f4 [256]
0	0x3f807d49	1.0038234
1	0x3f8079ff	1.003723
2	0x3f7f7303	0.9978487
3	0x3f80984f	1.0046481
4	0x3f806bac	1.0032859
5	0x3f805b8e	1.002794
6	0x3f7ee96a	0.9957491
7	0x3f805552	1.0026038
8	0x3f7f0e23	0.99630946
9	0x3f7f2e71	0.9968024
10	0x3f7fcd0f	0.9992227
11	0x3f802711	1.0011922
12	0x3f801e27	1.0009202
13	0x3f806d27	1.0033311
14	0x3f8001e5	1.0000578
15	0x3f7f43d3	0.99712867
16	0x3f7f1f1d	0.9965685
17	0x3f7f40a8	0.9970803
18	0x3f7fea68	0.9996705
19	0x3f803796	1.0016963
20	0x3f7f3693	0.9969265
21	0x3f806271	1.0030042
22	0x3f806a3a	1.0032418
23	0x3f7f542f	0.9973783
24	0x3f7f4996	0.9972166
25	0x3f7f3d93	0.9970333
26	0x3f7fdb92	0.9994441
27	0x3f7f1dd1	0.9965487
28	0x3f7f44bb	0.9971425
29	0x3f804d99	1.0023681
30	0x3f806ba4	1.0032849
31	0x3f806f40	1.0033951
32	0x3f8040af	1.001974
33	0x3f7f203d	0.99658567
34	0x3f8063a1	1.0030404
35	0x3f7f6e5b	0.99777764
36	0x3f7ef6d0	0.99595356
37	0x3f7f264a	0.996678
38	0x3f804e6d	1.0023934
39	0x3f7f350a	0.99690306
40	0x3f7f6259	0.9975944
41	0x3f7eda36	0.99551713
42	0x3f80719d	1.0034672
43	0x3f806edf	1.0033835
44	0x3f807076	1.003432
45	0x3f7f1667	0.9964356
46	0x3f7f2d9b	0.99678963
47	0x3f7f2611	0.9966746
48	0x3f8066c9	1.0031368
49	0x3f7fe915	0.9996503
50	0x3f808af0	1.00424
51	0x3f805c89	1.002824
52	0x3f7f2857	0.9967093
53	0x3f807fbf	1.0038985
54	0x3f8085b3	1.0040802
55	0x3f806058	1.0029402
56	0x3f7ef5f8	0.9959407
57	0x3f7f12ef	0.99638265
58	0x3f7f6e7f	0.9977798
59	0x3f7eeb8b	0.9957816
60	0x3f805059	1.002452
61	0x3f7fe21c	0.9995439
62	0x3f7f0c82	0.9962846
63	0x3f8062fc	1.0030208
64	0x3f7f25d6	0.9966711
65	0x3f806fae	1.0034082
66	0x3f7f3c46	0.99701345
67	0x3f806d24	1.0033307
68	0x3f7f1db7	0.99654716
69	0x3f807b55	1.0037638
70	0x3f7f0a27	0.99624866
71	0x3f806129	1.0029651
72	0x3f7f016a	0.9961153
73	0x3f80527f	1.0025176
74	0x3f805f14	1.0029016
75	0x3f805e3e	1.002876
76	0x3f805839	1.0026923
77	0x3f7eece5	0.9958022
78	0x3f808b8a	1.0042584
79	0x3f80617d	1.0029751
80	0x3f7f4393	0.99712485
81	0x3f8076f4	1.0036302
82	0x3f7f7389	0.9978567
83	0x3f8053fa	1.0025628
84	0x3f7f215c	0.9966028
85	0x3f804754	1.0021768
86	0x3f8067c6	1.0031669
87	0x3f7f8cdb	0.99824303
88	0x3f805ad8	1.0027723
89	0x3f807329	1.0035144
90	0x3f7f4e8d	0.99729234
91	0x3f7f3b75	0.997001
92	0x3f7f50c3	0.9973261
93	0x3f7fbd19	0.99897915
94	0x3f806775	1.0031573
95	0x3f80771b	1.0036348
96	0x3f7fa6eb	0.9986407
97	0x3f7efc31	0.99603564
98	0x3f807e3c	1.0038524
99	0x3f801ada	1.0008194
100	0x3f7f0bb8	0.99627256
101	0x3f7f5ac9	0.997479
102	0x3f808c02	1.0042727
103	0x3f7ee1bc	0.99563193
104	0x3f801333	1.0005859
105	0x3f7f7a79	0.99796253
106	0x3f804af9	1.002288
107	0x3f803ba3	1.00182
108	0x3f7fac0e	0.9987191
109	0x3f7f9020	0.9982929
110	0x3f806183	1.0029758
111	0x3f806731	1.0031492
112	0x3f8013ef	1.0006083
113	0x3f7f706f	0.99780935
114	0x3f804633	1.0021423
115	0x3f7f1c21	0.99652296
116	0x3f8064b3	1.0030731
117	0x3f8061d4	1.0029855
118	0x3f80023e	1.0000684
119	0x3f7f4de3	0.9972822
120	0x3f8066b0	1.0031338
121	0x3f7f5b28	0.9974847
122	0x3f807507	1.0035714
123	0x3f7f1d84	0.9965441
124	0x3f7f0985	0.996239
125	0x3f7f1385	0.9963916
126	0x3f7f5323	0.9973623
127	0x3f7f1175	0.9963601
128	0x3f7f1203	0.9963686
129	0x3f7f8ddd	0.9982584
130	0x3f804061	1.0019647
131	0x3f7f2180	0.9966049
132	0x3f7fbb9d	0.9989565
133	0x3f807e58	1.0038557
134	0x3f7edc45	0.99554855
135	0x3f7ff286	0.99979436
136	0x3f7f12a3	0.9963781
137	0x3f7f0ec3	0.996319
138	0x3f7ef12d	0.99586755
139	0x3f80684f	1.0031832
140	0x3f7f005d	0.9960993
141	0x3f7f59ea	0.9974657
142	0x3f7f2611	0.9966746
143	0x3f7f9bcc	0.998471
144	0x3f7fcb66	0.99919736
145	0x3f7ff7a2	0.9998723
146	0x3f7f1d95	0.99654514
147	0x3f8064ec	1.0030799
148	0x3f7f0cc3	0.9962885
149	0x3f803077	1.001479
150	0x3f7f3925	0.9969657
151	0x3f805c19	1.0028106
152	0x3f808485	1.0040442
153	0x3f807164	1.0034604
154	0x3f7f7619	0.9978958
155	0x3f805537	1.0026006
156	0x3f805cc3	1.0028309
157	0x3f801b3b	1.000831
158	0x3f7f7dc0	0.99801254
159	0x3f7f8aa7	0.9982094
160	0x3f7f0aa6	0.99625623
161	0x3f7f37f6	0.99694765
162	0x3f805dd4	1.0028634
163	0x3f807107	1.0034493
164	0x3f805109	1.002473
165	0x3f7f232b	0.9966304
166	0x3f807138	1.0034552
167	0x3f7fb824	0.9989035
168	0x3f805db2	1.0028594
169	0x3f7f3508	0.99690294
170	0x3f7f15ba	0.9964253
171	0x3f808500	1.0040588
172	0x3f7f00c8	0.9961057
173	0x3f803ac0	1.0017929
174	0x3f8058a1	1.0027047
175	0x3f7f3aa6	0.99698865
176	0x3f806dae	1.0033472
177	0x3f8072f2	1.0035079
178	0x3f806db7	1.0033482
179	0x3f806eff	1.0033873
180	0x3f7f2a8b	0.9967429
181	0x3f806fa2	1.0034068
182	0x3f807df5	1.0038439
183	0x3f807413	1.0035423
184	0x3f7f3fa7	0.997065
185	0x3f805c92	1.002825
186	0x3f7f4082	0.99707806
187	0x3f7f1707	0.9964451
188	0x3f7f4570	0.9971533
189	0x3f803425	1.0015913
190	0x3f7f8f5e	0.99828136
191	0x3f8062e5	1.003018
192	0x3f803096	1.0014827
193	0x3f7ef603	0.99594134
194	0x3f805e66	1.0028808
195	0x3f7f37d5	0.9969457
196	0x3f7f3b86	0.997002
197	0x3f7f3b6d	0.9970005
198	0x3f8065e5	1.0031096
199	0x3f7f3e6c	0.99704623
200	0x3f806766	1.0031555
201	0x3f7f12d0	0.9963808
202	0x3f7f4cff	0.9972686
203	0x3f80a29f	1.0049628
204	0x3f7f27da	0.99670184
205	0x3f7ee83e	0.99573123
206	0x3f7f64d7	0.99763244
207	0x3f7ef144	0.9958689
208	0x3f7f0a42	0.9962503
209	0x3f805237	1.002509
210	0x3f80582c	1.0026908
211	0x3f805156	1.0024822
212	0x3f802be8	1.0013399
213	0x3f806477	1.003066
214	0x3f805245	1.0025107
215	0x3f7f7f4d	0.9980362
216	0x3f7f0f95	0.9963315
217	0x3f7f22b7	0.99662346
218	0x3f7f4c2c	0.99725604
219	0x3f807511	1.0035726
220	0x3f7f7199	0.9978271
221	0x3f8055c9	1.002618
222	0x3f807153	1.0034584
223	0x3f7f9dbc	0.9985006
224	0x3f8049fa	1.0022576
225	0x3f806114	1.0029626
226	0x3f8042b0	1.0020351
227	0x3f7ee59b	0.995691
228	0x3f8039bf	1.0017623
229	0x3f806c33	1.003302
230	0x3f804a4b	1.0022672
231	0x3f7ebd8e	0.9950799
232	0x3f806e64	1.0033689
233	0x3f800e6b	1.00044
234	0x3f801d78	1.0008993
235	0x3f7f3d46	0.9970287
236	0x3f8062f7	1.0030202
237	0x3f803ef5	1.0019213
238	0x3f805db3	1.0028595
239	0x3f802424	1.0011029
240	0x3f801aed	1.0008217
241	0x3f7f35fb	0.9969174
242	0x3f8071f3	1.0034775
243	0x3f800232	1.000067
244	0x3f7f1d5e	0.99654186
245	0x3f7f6077	0.9975657
246	0x3f7f149e	0.99640834
247	0x3f7f3f0c	0.99705577
248	0x3f804ab2	1.0022795
249	0x3f808a43	1.0042194
250	0x3f7f049a	0.99616396
251	0x3f807126	1.003453
252	0x3f8075e1	1.0035974
253	0x3f7efeae	0.9960736
254	0x3f805060	1.0024529
255	0x3f806b15	1.0032679
