data/best_model.pt (torch, 143970 bytes, 27 tensors)

gat1.att_src f4 [1, 4, 64]
0	0x3e8d6789	0.27618054
1	0xbd6b834b	-0.057498258
2	0x3e3404a2	0.17579892
3	0x3d3c310c	0.045945212
4	0x3e88908d	0.26672783
5	0x3d86d385	0.06583313
6	0xbe68d39c	-0.22736973
7	0xbe4a32ef	-0.19745992
8	0xbe519481	-0.20466806
9	0x3e2d9ce7	0.16954385
10	0x3e62eec9	0.22161402
11	0x3e9462dd	0.28981677
12	0xbd8bb6fb	-0.0682201
13	0xbe2ff95c	-0.17184967
14	0x3d7b868b	0.061407607
15	0x3e8336f1	0.25627854
16	0x3e8eeefd	0.2791671
17	0xbe1eb28e	-0.154978
18	0xbdf1bcb9	-0.11803574
19	0x3e8ae32d	0.27126446
20	0xbe828d67	-0.25498506
21	0xbc8ed398	-0.01743488
22	0x3e6875a6	0.2270113
23	0x3e6b9708	0.23006833
24	0x3e80f831	0.25189355
25	0x3e97cc0c	0.29647863
26	0xbe220e09	-0.15825666
27	0x3ca8a802	0.020587925
28	0x3d80d917	0.062914066
29	0x3e8fa159	0.28052786
30	0xbe6996dc	-0.22811455
31	0x3e46a8ba	0.19400302
32	0xbe8461af	-0.25855777
33	0x3df8646d	0.1212853
34	0x3e17f93d	0.1484117
35	0x3e8f1831	0.27948144
36	0xbd528196	-0.051393114
37	0x3e58bc61	0.21165611
38	0xbda9b7a1	-0.082869776
39	0x3ca28764	0.01983995
40	0xbe85bb47	-0.26119444
41	0x3c46ec40	0.012141287
42	0xbda25641	-0.07926608
43	0x3dec8b2d	0.11549983
44	0xbe5e19aa	-0.21689478
45	0xbe827ca4	-0.25485718
46	0xbe970983	-0.29499444
47	0xbe9835e8	-0.29728627
48	0xbcfb7326	-0.030694555
49	0x3dd98e9c	0.10622904
50	0x3d656d2e	0.056012325
51	0x3cefc587	0.029268993
52	0xbe02a170	-0.12756896
53	0xbe99636d	-0.29958668
54	0x3e543d0f	0.20726417
55	0x3e7a15a3	0.24422316
56	0xbe91ac59	-0.28451803
57	0xbe794f61	-0.24346687
58	0xbe912d4f	-0.2835488
59	0x3e51a1f7	0.20471941
60	0xbd4f4688	-0.050604373
61	0x3d917e8b	0.07104214
62	0xbe848c17	-0.2588813
63	0x3e0dbd3d	0.1384172
64	0x3e250747	0.16116057
65	0xba1b5159	-0.00059249025
66	0x3e942af7	0.2893903
67	0xbe8c5e40	-0.27415657
68	0x3e4ee54e	0.2020466
69	0xbe1ca353	-0.15296678
70	0xbe014c85	-0.12626846
71	0x3dd38e39	0.10329861
72	0xbe722a8e	-0.23649046
73	0x3e265571	0.16243531
74	0x3cdc75ee	0.026911702
75	0xbca82437	-0.020525081
76	0xbe8fa99f	-0.28059098
77	0x3e170b7b	0.14750473
78	0xbdd2ac28	-0.102867424
79	0xbd22e39a	-0.03976784
80	0x3e762480	0.24037361
81	0x3e4d8c78	0.20073116
82	0x3e0d26d5	0.13784344
83	0x3e4ac2b6	0.19800839
84	0x3e5572ba	0.20844546
85	0x3d7d7965	0.06188335
86	0x3e87e8fe	0.26544946
87	0x3da4bfa0	0.08044362
88	0x3e265af1	0.16245629
89	0x3e2e1694	0.170008
90	0x3e955d5c	0.2917279
91	0x3e2f14cc	0.17097777
92	0xbe5db14b	-0.21649663
93	0xbd851213	-0.06497588
94	0xbd44315f	-0.047898646
95	0x3e40ed07	0.18840419
96	0xbe46d62e	-0.1941764
97	0xbe8bf172	-0.27332646
98	0xbe73b88c	-0.23800868
99	0xbd37a99d	-0.04483949
100	0x3df18863	0.11793592
101	0x3e26a514	0.1627391
102	0x3daa2d75	0.083094515
103	0xbe578d8e	-0.21050093
104	0xbd349cff	-0.044095036
105	0xbe58b8c9	-0.2116424
106	0xbdc572e2	-0.09641053
107	0x3e8d4e30	0.27598715
108	0x3e7bd0f1	0.24591424
109	0x3e960954	0.29303992
110	0x3d65326c	0.05595629
111	0xbd675e44	-0.056486383
112	0xbc81cda6	-0.015845131
113	0x3e244d91	0.16045214
114	0x3e96b116	0.2943198
115	0x3cd0ff1f	0.025512276
116	0xbc89d8d5	-0.016827026
117	0x3d321fa0	0.04348719
118	0x3dd92aa2	0.10603835
119	0xbdc1eb8d	-0.09468756
120	0x3ceee19f	0.029160319
121	0xbdcc24e8	-0.09967977
122	0xbd20c6c3	-0.039252054
123	0xbdcda7b7	-0.10041755
124	0x3e219d29	0.15782608
125	0xbe4ae189	-0.19812597
126	0x3d4e7295	0.050402243
127	0xbd01cfa9	-0.03169218
128	0xbe59c4de	-0.21266505
129	0xbe60eea5	-0.21966036
130	0x3e8988d9	0.2686222
131	0xbe2c18b1	-0.16806294
132	0xbe398085	-0.18115433
133	0x3e98fc32	0.2987991
134	0x3e45f15b	0.19330351
135	0x3e13605b	0.14392225
136	0xbd273985	-0.04082634
137	0xbe540ecc	-0.2070877
138	0xbe73607b	-0.23767273
139	0x3e396f32	0.18108824
140	0x3d513920	0.05107987
141	0xbcc9daa9	-0.024640398
142	0xbe36d699	-0.178553
143	0xbdabe494	-0.08393207
144	0x3e2b9270	0.1675508
145	0xbe293380	-0.16523552
146	0xbd7dbe0e	-0.06194883
147	0xbe18641b	-0.14881937
148	0xbe2aae3a	-0.16668025
149	0x3e27f3e3	0.16401629
150	0x3e2cec04	0.16886908
151	0x3e699b29	0.22813095
152	0x3ddcc8bf	0.10780477
153	0xbe02e575	-0.12782843
154	0x3d7667f6	0.06015774
155	0xbe3f208b	-0.18664758
156	0xbe679eb5	-0.22619136
157	0xbd068f93	-0.032851767
158	0x3e6d73b7	0.23188673
159	0xbe38170e	-0.17977545
160	0xbc20dd6c	-0.009818416
161	0xbcd65300	-0.026162624
162	0x3e787e0d	0.24266835
163	0x3e33def7	0.17565523
164	0x3d1e071d	0.038581003
165	0x3e902532	0.28153378
166	0x3e78c06c	0.24292153
167	0xbe393e8f	-0.1809027
168	0xbb9055cf	-0.0044047604
169	0xbe70f35c	-0.23530334
170	0x3dc5f106	0.09665112
171	0x3e7b0556	0.24513754
172	0x3e710611	0.2353747
173	0x3db6111a	0.088899806
174	0xbd8ef066	-0.06979446
175	0x3d810e33	0.063015364
176	0x3e3c056b	0.18361442
177	0x3d373f7e	0.044738285
178	0x3e1ca2e3	0.15296511
179	0xbe9138fd	-0.2836379
180	0x3d8e9858	0.06962651
181	0x3e1335ec	0.14376038
182	0xbe689b58	-0.22715509
183	0x3d91cb1b	0.071188174
184	0x3e4cdbe7	0.20005761
185	0x3c1d24f5	0.009591331
186	0x3e901d57	0.28147385
187	0xbe482877	-0.19546686
188	0x3c9b45f2	0.018954251
189	0x3d9eb4de	0.077493414
190	0xbe39c189	-0.18140234
191	0x3e07bff3	0.13256817
192	0xbe4beb80	-0.19914055
193	0xbe8d1d90	-0.27561617
194	0x3d95e0fa	0.073183015
195	0xbdb69662	-0.08915402
196	0x3d134338	0.035952777
197	0x3e3ee0d3	0.18640451
198	0x3e84fa88	0.2597239
199	0xbe878473	-0.26468238
200	0xbe78a1c5	-0.2428046
201	0x3e7003c4	0.23438936
202	0xbcdab21e	-0.026696261
203	0x3d5df075	0.054184396
204	0xbd0ed310	-0.034869254
205	0x3e1e236e	0.15443203
206	0xbdac3783	-0.084090255
207	0xbd596716	-0.053076826
208	0xbdd588e9	-0.10426504
209	0xbd160d62	-0.036633857
210	0xbd24aabd	-0.04020189
211	0x3df2bb63	0.118521474
212	0xbe06e376	-0.13172707
213	0xbdca42a9	-0.09875996
214	0xbe78c1ca	-0.24292675
215	0x3e20af79	0.15691938
216	0x3d0c9133	0.03431816
217	0x3d05965f	0.03261411
218	0x3df04d8d	0.11733542
219	0x3e53f47b	0.2069873
220	0xb8d7fea9	-0.00010299433
221	0xbe0e4e21	-0.13896991
222	0x3de577dc	0.11204502
223	0xbd1a4118	-0.037659734
224	0xbd7c538a	-0.061603107
225	0x3e53c135	0.20679171
226	0xbe900951	-0.28132108
227	0xbe96a8b7	-0.29425594
228	0xbdada198	-0.08478087
229	0xbe16dbc6	-0.14732274
230	0xbe3e3949	-0.1857654
231	0x3dbce3fd	0.09223173
232	0xbe490629	-0.19631256
233	0xbe65776e	-0.2240884
234	0xbe10edfe	-0.14153287
235	0x3e0ec199	0.13941039
236	0x3d934aec	0.071920246
237	0x3ce25c48	0.027631894
238	0x3be13dae	0.006873808
239	0x3e36db2c	0.17857045
240	0xbcabad9e	-0.02095681
241	0xbe5fccf5	-0.21855529
242	0x3e82937e	0.25503153
243	0xbe8229b4	-0.25422442
244	0xbe3d58b1	-0.18490864
245	0xbe9388a4	-0.28815186
246	0x3c5eea48	0.013605662
247	0xbdb582d5	-0.08862845
248	0xbe402e63	-0.18767695
249	0x3e3a1f44	0.1817599
250	0xbe252e5c	-0.16130966
251	0x3e735302	0.23762134
252	0xbe6cec00	-0.23136902
253	0x3d9059f4	0.07048407
254	0x3e65a301	0.22425462
255	0xbd7cf514	-0.061757162

gat1.att_dst f4 [1, 4, 64]
0	0xbe79ecea	-0.24406782
1	0x3e31886b	0.17337196
2	0x3dbc20ea	0.09185965
3	0x3d82d372	0.06387986
4	0x3e92d27a	0.28676206
5	0xbe51ef9b	-0.20501558
6	0x3d33bc24	0.043880597
7	0x3dd99763	0.10624578
8	0x3d3110c5	0.043228883
9	0x3d342df8	0.04398915
10	0x3dcca0d0	0.0999161
11	0x3d4e4703	0.05036069
12	0xbcbee140	-0.023300767
13	0xbe83b9b3	-0.25727615
14	0xbe878982	-0.26472098
15	0x3e566cc5	0.2093993
16	0xbe84dcde	-0.25949758
17	0xbb2e7bf5	-0.0026624177
18	0x3e27e55c	0.16396087
19	0xbe030c4f	-0.12797664
20	0xbe51722e	-0.20453712
21	0xbd913d6d	-0.07091794
22	0xbdec5f18	-0.11541575
23	0xbe83260d	-0.25614968
24	0xbdf3f85e	-0.11912607
25	0xbe6b7fbb	-0.22997944
26	0x3dc753b2	0.097327605
27	0xbe6f7bec	-0.23387116
28	0x3a8e0976	0.001083656
29	0xbe906cee	-0.28208107
30	0x3e958263	0.2920104
31	0x3e858e65	0.260852
32	0xbc05a608	-0.008157261
33	0xbd87ed89	-0.06637103
34	0x3cf39939	0.029736148
35	0xbe08aeae	-0.13347885
36	0xbe34f127	-0.17670117
37	0x3cdc3c62	0.026884262
38	0xbd90dcca	-0.07073362
39	0xbd33ce70	-0.043898046
40	0xbe2ca9f0	-0.16861701
41	0x3dff2ff1	0.12460316
42	0xbdf1a102	-0.11798288
43	0x3e59d90f	0.21274208
44	0x3d114be8	0.03547278
45	0xbda56c20	-0.08077264
46	0x3e0ba217	0.13636051
47	0xbd1683fb	-0.03674696
48	0x3e375d91	0.17906787
49	0x3e67122e	0.22565529
50	0xbe29a22a	-0.16565767
51	0x3e304d58	0.17217004
52	0xbe90d26b	-0.28285536
53	0x3e58d045	0.21173199
54	0xbde6f689	-0.112774916
55	0xbdb7aee3	-0.08968904
56	0xbe51c482	-0.20485118
57	0x3d310b10	0.04322344
58	0xbe96d3cf	-0.29458472
59	0x3e6b6b3c	0.22990125
60	0xbe909bf1	-0.28243974
61	0x3e4051ca	0.187812
62	0xbe5104b5	-0.20411952
63	0xbe1d8178	-0.1538142
64	0xbe6acf08	-0.22930539
65	0x3bbdc8c9	0.0057917577
66	0xbcb42bcf	-0.021993546
67	0x3e1e3338	0.15449226
68	0x3e60dc2c	0.21958989
69	0x3daef07d	0.08541963
70	0xbdbc11bd	-0.09183071
71	0xbd3abf0e	-0.04559236
72	0x3c48c68d	0.012254369
73	0xbe097c5e	-0.13426349
74	0x3e29e798	0.16592252
75	0x3e8a1308	0.26967645
76	0xbd1ff583	-0.039052498
77	0x3e15c563	0.14626078
78	0xbe1cbfaa	-0.15307489
79	0x3e20de0d	0.15709706
80	0xbe15d509	-0.14632048
81	0x3e61ba6c	0.2204377
82	0xbe890225	-0.2675945
83	0xbdebed95	-0.115199246
84	0x3e6a93de	0.2290797
85	0xbe7d2c9e	-0.24724051
86	0xbdd1ff85	-0.102538146
87	0xbc6c9894	-0.014440674
88	0xbc751772	-0.014959203
89	0x3e91c436	0.2847001
90	0x3e29a480	0.16566658
91	0x3e436eba	0.19085208
92	0xbe0f10d6	-0.13971266
93	0xbe7ba9fd	-0.24576564
94	0xbe5c9255	-0.21540196
95	0xbc69c2bf	-0.0142676225
96	0xbe8df22b	-0.27723822
97	0x3e66d60b	0.22542588
98	0xbd4305f8	-0.047613114
99	0x3e7a3948	0.24435914
100	0xbe4ee0b5	-0.20202906
101	0xbe34ca7a	-0.17655364
102	0xbb83a6c2	-0.004017682
103	0x3dd89afa	0.105764344
104	0x3db480e8	0.088136494
105	0xbd203936	-0.03911706
106	0xbd8e96e1	-0.069623716
107	0x3e8a890a	0.27057678
108	0x3d4cd9bf	0.050012346
109	0xbe2af3c4	-0.16694552
110	0x3d2d5af7	0.04232308
111	0xbe186099	-0.14880599
112	0x3d36b582	0.044606693
113	0xbe3fb23a	-0.18720332
114	0xbe8c7802	-0.2743531
115	0x3e81eee4	0.25377572
116	0xbe91df0d	-0.28490487
117	0x3e4f1487	0.20222674
118	0xbdad8e54	-0.084744126
119	0xbe3cec33	-0.18449478
120	0xbbabc3c0	-0.005241841
121	0xbe81c8e1	-0.2534857
122	0x3e0aaa69	0.13541569
123	0xbe84407a	-0.25830442
124	0xbe933350	-0.28750086
125	0xbda449ee	-0.080219135
126	0xbdd3cb2c	-0.10341486
127	0x3d207163	0.039170634
128	0x3e8cd551	0.27506498
129	0xbe8356d6	-0.25652188
130	0xbdb8f5e1	-0.09031273
131	0x3e3847ca	0.17996135
132	0x3deb92d1	0.115026124
133	0x3e0f9575	0.14021857
134	0x3e76a3df	0.2408595
135	0x39b8a0b1	0.0003521494
136	0x3e3418ac	0.17587537
137	0xbdf3002d	-0.11865268
138	0x3e135039	0.14386071
139	0xbe887255	-0.26649728
140	0xbe5a25a0	-0.21303415
141	0x3ce7971a	0.028270293
142	0xbe51764c	-0.20455283
143	0xbe4f8632	-0.20266035
144	0x3de8a8d2	0.11360325
145	0x3e7123d2	0.2354882
146	0x3e8973a1	0.2684603
147	0x3e80c429	0.25149658
148	0x3e12b82e	0.14328071
149	0xbe731216	-0.23737368
150	0x3e175939	0.1478013
151	0x3de6bf7b	0.11266991
152	0xbe1a93f7	-0.15095507
153	0x3e8115e8	0.25212026
154	0x3dc703d5	0.09717528
155	0xbde0c7a2	-0.10975577
156	0x3dc4d61f	0.09611153
157	0x3e636b55	0.22208913
158	0x3e46d93f	0.1941881
159	0xbe6eb312	-0.23310497
160	0x3d1eb85c	0.038750038
161	0x3d423a61	0.047418956
162	0x3e131666	0.14364013
163	0xbe32ef58	-0.17474115
164	0x3e5d9f1d	0.21642728
165	0x3e4fceab	0.20293681
166	0x3d58adde	0.052900188
167	0xbdf38ea0	-0.11892438
168	0x3e60eb40	0.21964741
169	0xbdad7d73	-0.08471193
170	0xbe96da2d	-0.2946333
171	0x3e8d9b3b	0.27657494
172	0x3b9d4358	0.0047992878
173	0x3e7b1727	0.2452055
174	0x3e281ff0	0.16418433
175	0x3dad6f49	0.084684916
176	0xbe263c4b	-0.16233937
177	0xbe4c2ead	-0.1993968
178	0xbe614e56	-0.22002539
179	0xbd991519	-0.07474727
180	0x3e0b9683	0.13631634
181	0x3e1fca74	0.15604573
182	0xbbb14d4b	-0.0054108254
183	0xbe0c3a21	-0.1369405
184	0xbe95bdf7	-0.29246494
185	0x3dc92af9	0.098226495
186	0xbda0352f	-0.07822644
187	0xbe7aba04	-0.24485022
188	0xbe41b67d	-0.1891727
189	0xbe810e6f	-0.25206324
190	0x3cc73936	0.024319272
191	0x3d0ace8b	0.03388838
192	0xbe8bfe2f	-0.27342364
193	0x3da072b1	0.07834376
194	0x3d0652b6	0.032793723
195	0xbdda6eec	-0.10665688
196	0xbe830597	-0.25590202
197	0x3dd5e17e	0.104434
198	0xbe2d8ce9	-0.16948284
199	0xbd8dde80	-0.06927204
200	0x3cd3630a	0.025804061
201	0x3d9a92b0	0.0754751
202	0xbe27bfa4	-0.16381699
203	0xbdce615d	-0.10077164
204	0xbe56c3c9	-0.20973124
205	0xbe3bca41	-0.18338872
206	0xbe68475d	-0.22683473
207	0x3e89124b	0.2677177
208	0x3d7d1d0b	0.061795276
209	0x3e8f082a	0.27935916
210	0xbe2ef7b1	-0.17086674
211	0xbdfbfa6a	-0.12303622
212	0x3ded2f8d	0.11581335
213	0xbd5de25c	-0.05417095
214	0xbda52973	-0.080645464
215	0xbd0a7a22	-0.03380788
216	0xbe85948e	-0.260899
217	0xbe58e64b	-0.211816
218	0xbe7e4fcb	-0.24835126
219	0xbd7f5d27	-0.062344696
220	0xbdf25762	-0.11833073
221	0x3e414628	0.18874419
222	0xbe1af12d	-0.15131064
223	0xbde0c0a8	-0.10974246
224	0xbdcbdf33	-0.09954681
225	0x3e98295b	0.29719052
226	0xbd2c21b8	-0.042024344
227	0xbe6665ea	-0.22499815
228	0x3e081fd7	0.13293396
229	0x3d5a3222	0.053270467
230	0x3e80cee2	0.2515784
231	0x3e6f3dfe	0.23363492
232	0xbe3068f3	-0.17227535
233	0xbe2ec863	-0.17068629
234	0xbe5d6afe	-0.21622846
235	0x3e229812	0.15878323
236	0xbd139381	-0.036029343
237	0xbd1e970f	-0.03871828
238	0x3d93e999	0.072222896
239	0xbcdc2a44	-0.026875623
240	0x3e31bdb6	0.17357525
241	0xbc3a8d48	-0.011386223
242	0xbe4d4d6d	-0.20049067
243	0xbe62f21d	-0.22162671
244	0xbe8e9e43	-0.2785512
245	0x3e143018	0.14471471
246	0x3d6d4785	0.057929534
247	0xbe2763c2	-0.16346648
248	0x3e7c1677	0.24617945
249	0xbe661529	-0.2246901
250	0x3e88eb34	0.26741946
251	0xbe0fae90	-0.14031434
252	0xbd54d3b9	-0.051959727
253	0x3dc1cc9d	0.09462855
254	0x3e850b72	0.25985295
255	0xbd3a83a9	-0.045535717

gat1.bias f4 [256]
0	0xb70cae43	-8.385224e-06
1	0x357dcdda	9.45494e-07
2	0x36a6ac47	4.9672412e-06
3	0x36339b84	2.67636e-06
4	0x374239e3	1.1576779e-05
5	0x360bae47	2.0814057e-06
6	0xb714f2a5	-8.8779825e-06
7	0xb57fea60	-9.5335963e-07
8	0xb59ba90d	-1.15976e-06
9	0x36f35255	7.251549e-06
10	0x372a2548	1.014147e-05
11	0xb4e76b55	-4.3105197e-07
12	0x35c00a36	1.4308087e-06
13	0x36ebe14f	7.029775e-06
14	0xb5efb44b	-1.785936e-06
15	0x36e40c55	6.796365e-06
16	0x32a4854d	1.9152731e-08
17	0xb7efbd84	-2.857927e-05
18	0x35d1cce5	1.5631346e-06
19	0x36e41bbf	6.7981596e-06
20	0xb76020d2	-1.3359082e-05
21	0x3638a62c	2.7514861e-06
22	0x365c0720	3.2786702e-06
23	0x367ae32a	3.738513e-06
24	0x3602afc0	1.947381e-06
25	0xb697903b	-4.5169413e-06
26	0x37a13252	1.9216128e-05
27	0x36c2de39	5.8075207e-06
28	0xb558648f	-8.06126e-07
29	0xb7983508	-1.8144507e-05
30	0xb63a24d3	-2.7737594e-06
31	0xb7059601	-7.962343e-06
32	0x3415cae3	1.3950516e-07
33	0x36ee344a	7.09904e-06
34	0x366aec00	3.5006087e-06
35	0x37ca1ade	2.4092787e-05
36	0x36715c56	3.5965545e-06
37	0xb69e7ddc	-4.723419e-06
38	0xb66a9da6	-3.496048e-06
39	0xb79035d7	-1.7191209e-05
40	0x3741ac18	1.1543765e-05
41	0xb69026a4	-4.296033e-06
42	0x369cfe40	4.678761e-06
43	0x3705c300	7.97282e-06
44	0xb7bc2581	-2.242881e-05
45	0x3645a546	2.945149e-06
46	0xb786e4f8	-1.6080667e-05
47	0xb61a33db	-2.2977972e-06
48	0xb689563c	-4.092957e-06
49	0xb6e91d40	-6.9473463e-06
50	0x3563c38d	8.4848654e-07
51	0x38a5b27d	7.901059e-05
52	0xb6e34585	-6.7732203e-06
53	0xb7a674e8	-1.984318e-05
54	0xb620c337	-2.3955488e-06
55	0x364d4742	3.0588858e-06
56	0xb7826708	-1.5545185e-05
57	0xb79633f5	-1.7905588e-05
58	0xb7126f14	-8.7281405e-06
59	0x36ae9677	5.2031205e-06
60	0xb7557fd4	-1.2725552e-05
61	0xb7232bba	-9.725738e-06
62	0x384c8880	4.8764516e-05
63	0xb4924aa4	-2.7248927e-07
64	0x3306f729	3.1424097e-08
65	0xb658b0a9	-3.2289338e-06
66	0x3537bca3	6.8447315e-07
67	0xb7a4aa09	-1.9629502e-05
68	0xb6f45368	-7.2814764e-06
69	0x37208d38	9.569623e-06
70	0x3767d20e	1.381758e-05
71	0x3786deb4	1.6077749e-05
72	0xb64aef08	-3.023948e-06
73	0xb7828cc1	-1.5562751e-05
74	0x370dedf8	8.459661e-06
75	0xb6dc89ae	-6.572539e-06
76	0xb7d0357c	-2.4820438e-05
77	0xb5f4b65c	-1.823249e-06
78	0x3670c39e	3.587665e-06
79	0x378b3150	1.6593054e-05
80	0x32a0155d	1.8636166e-08
81	0x37316f37	1.0575916e-05
82	0xb6f55e9c	-7.312583e-06
83	0xb708baf9	-8.149765e-06
84	0xb74b73f7	-1.2126743e-05
85	0x32e842ff	2.7038821e-08
86	0xb6befd0b	-5.6918993e-06
87	0x36e8a387	6.933176e-06
88	0xb5558d3e	-7.955422e-07
89	0xb6bfcbd5	-5.7159727e-06
90	0xb696e306	-4.4967774e-06
91	0x3698ca3d	4.5534966e-06
92	0xb38b2e98	-6.481167e-08
93	0xb67eff58	-3.799758e-06
94	0x34c9c2a3	3.7580784e-07
95	0xb67b8cfe	-3.7483983e-06
96	0x371795b4	9.035157e-06
97	0xb64d7f62	-3.0621527e-06
98	0x36a1081b	4.7991175e-06
99	0xb54514de	-7.3418585e-07
100	0xb5943199	-1.1041294e-06
101	0x3326c31c	3.8827338e-08
102	0xb676be6d	-3.67677e-06
103	0xb5a08d5a	-1.1962068e-06
104	0x355da47e	8.2568283e-07
105	0xb720b08f	-9.577851e-06
106	0x37915059	1.7322762e-05
107	0x35173834	5.633367e-07
108	0x36103100	2.1486194e-06
109	0x3664e0d0	3.4105506e-06
110	0xb5fa48f5	-1.8647685e-06
111	0x369549bd	4.4491303e-06
112	0xb5fc5b1b	-1.8801978e-06
113	0xb6ad4abc	-5.164502e-06
114	0xb520efb1	-5.995344e-07
115	0x366ef20e	3.5605658e-06
116	0x3707714a	8.073004e-06
117	0xb60bde65	-2.0842065e-06
118	0xb62fdc5a	-2.6205294e-06
119	0x378e853d	1.6989763e-05
120	0xb5af802b	-1.3075818e-06
121	0x364a58b2	3.0151973e-06
122	0xb78ae505	-1.6557527e-05
123	0xb5855f4c	-9.937007e-07
124	0x360cec32	2.099911e-06
125	0x36cb23c2	6.054034e-06
126	0x36795d03	3.7158031e-06
127	0xb6d33595	-6.294528e-06
128	0x372bfadd	1.0250803e-05
129	0x378e26da	1.694581e-05
130	0xb3dba1c1	-1.0227405e-07
131	0xb71c2ac5	-9.308283e-06
132	0x3590468e	1.074937e-06
133	0x34f72f4b	4.6041745e-07
134	0x37d543e7	2.5423198e-05
135	0xb73e6900	-1.134933e-05
136	0xb7ace807	-2.0612044e-05
137	0x36566955	3.1949796e-06
138	0x3585edeb	9.978515e-07
139	0x369b66ed	4.631342e-06
140	0x358975c0	1.0241565e-06
141	0x386b7181	5.6134075e-05
142	0xb6417fc7	-2.8833617e-06
143	0xb605d17d	-1.9940483e-06
144	0x36ec73e3	7.046839e-06
145	0x372f0530	1.0432021e-05
146	0xb7d399fb	-2.5224863e-05
147	0x36d61aed	6.3808316e-06
148	0x3629ce83	2.5303168e-06
149	0xb6db72e0	-6.540082e-06
150	0x36a764a2	4.988703e-06
151	0x356bea06	8.788487e-07
152	0xb80fcb77	-3.428335e-05
153	0x37cc43f9	2.4350347e-05
154	0x358c6824	1.0461122e-06
155	0xb714760c	-8.848972e-06
156	0xb638f154	-2.7558608e-06
157	0xb7295435	-1.0092791e-05
158	0xb6b003f4	-5.245669e-06
159	0xb7a29ee6	-1.9385898e-05
160	0x381ada93	3.6920024e-05
161	0x354fb6b3	7.737937e-07
162	0x380b3961	3.319362e-05
163	0x32ec1abb	2.7486172e-08
164	0xb71a5030	-9.197785e-06
165	0xb6b9b7c9	-5.534825e-06
166	0x36d89e75	6.4557485e-06
167	0x381fb34d	3.807554e-05
168	0x3702915d	7.782449e-06
169	0xb5116d2d	-5.417558e-07
170	0xb711ade5	-8.6831615e-06
171	0x36e2db29	6.7608385e-06
172	0xb739db98	-1.1077987e-05
173	0x35bfdcaa	1.4294831e-06
174	0x37d8d395	2.5847732e-05
175	0xb71b64b9	-9.262171e-06
176	0x3632163e	2.6537014e-06
177	0xb586f62d	-1.0055425e-06
178	0xb706767e	-8.014611e-06
179	0x37a5c321	1.9760397e-05
180	0xb89f2644	-7.588838e-05
181	0x36959998	4.4584267e-06
182	0x3771c40b	1.4410364e-05
183	0xb6f47411	-7.2852786e-06
184	0x364fc41a	3.095955e-06
185	0xb60863b3	-2.0323612e-06
186	0x36c68f35	5.9175313e-06
187	0xb635ab6d	-2.7070885e-06
188	0xb7885aae	-1.625469e-05
189	0x342231ef	1.5105591e-07
190	0xb6e87c68	-6.9286216e-06
191	0x3514f800	5.5495184e-07
192	0x371731c8	9.011892e-06
193	0xb6ecf7fa	-7.0622164e-06
194	0x363c5d6f	2.8068569e-06
195	0x350b0e0e	5.180199e-07
196	0x3802209b	3.102478e-05
197	0xb6a60739	-4.9480263e-06
198	0x36396557	2.7626136e-06
199	0xb633140a	-2.6684743e-06
200	0x365a5444	3.253358e-06
201	0x3638f5e7	2.756127e-06
202	0xb5ef5ce8	-1.7833927e-06
203	0xb3031896	-3.0523175e-08
204	0xb6799caa	-3.7195082e-06
205	0x377be9a3	1.5015164e-05
206	0xb91a5688	-0.0001471882
207	0xb5912cad	-1.0816344e-06
208	0x36224635	2.4180747e-06
209	0x34a4c5fa	3.0691427e-07
210	0x3625ad95	2.4687954e-06
211	0x34606e22	2.0901692e-07
212	0xb79422d5	-1.7659195e-05
213	0x36c0d2ce	5.746587e-06
214	0x378cecd0	1.6799575e-05
215	0xb651fcd2	-3.1290588e-06
216	0x35a199f0	1.2040236e-06
217	0xb6eaac73	-6.993819e-06
218	0x3656843d	3.1965458e-06
219	0x36bb218a	5.5769387e-06
220	0x34a8f822	3.147298e-07
221	0x3273bda5	1.4187582e-08
222	0x34fb9680	4.6861896e-07
223	0xb794bd2b	-1.7731063e-05
224	0x36bbb714	5.5943474e-06
225	0xb79663ac	-1.7927807e-05
226	0x36152f8e	2.223041e-06
227	0x370d6cf1	8.42962e-06
228	0xb6ac9942	-5.143841e-06
229	0xb6d17767	-6.2425856e-06
230	0xb72207a4	-9.657731e-06
231	0xb54986f9	-7.5074746e-07
232	0x3665cb29	3.4241914e-06
233	0xb605ab73	-1.991834e-06
234	0xb6215646	-2.4041087e-06
235	0xb6d43cf9	-6.3251905e-06
236	0x35bccbe0	1.4066427e-06
237	0xb5859ed6	-9.9555e-07
238	0x3612d541	2.1879825e-06
239	0x379c5da5	1.8640256e-05
240	0x36dac31f	6.5196214e-06
241	0xb5e2877a	-1.6877741e-06
242	0xb663cb88	-3.3944107e-06
243	0xb63e174e	-2.8325771e-06
244	0xb64fd2e8	-3.0968167e-06
245	0xb721c6ee	-9.642665e-06
246	0xb6c06d2a	-5.7347543e-06
247	0xb5b85922	-1.3735009e-06
248	0xb57ce500	-9.4210554e-07
249	0xb6cd525b	-6.1190635e-06
250	0xb6d72abd	-6.4124747e-06
251	0xb58f7748	-1.0689046e-06
252	0xb62e206f	-2.59469e-06
253	0x37765662	1.4682855e-05
254	0x367e7237	3.7915431e-06
255	0x341130f2	1.3521984e-07

gat1.lin.weight f4 [256, 7]
0	0xbcfcf97d	-0.030880684
1	0xbddf611d	-0.10907195
2	0x3d16116b	0.036637705
3	0xbdacb14d	-0.08432255
4	0xbe00d0a4	-0.1257959
5	0x3df05513	0.117349766
6	0x3db6715d	0.08908341
7	0xbbcd4cdf	-0.0062652673
8	0xbe09df82	-0.13464168
9	0x3e182221	0.14856769
10	0x3d02a49f	0.031895276
11	0xbd60bb80	-0.054866314
12	0x3d01641f	0.031589624
13	0x3d80570c	0.06266603
14	0x3d3d1994	0.04616697
15	0x3a08bcca	0.000521612
16	0x3ded642b	0.11591371
17	0x3dd3aad9	0.10335321
18	0x3df40ec2	0.11916877
19	0xbcaf02a2	-0.02136356
20	0xbd93eb1c	-0.07222578
21	0xbe189a2f	-0.14902566
22	0x3e032bdb	0.12809698
23	0xbe0689f0	-0.13138556
24	0x3dab5f75	0.08367816
25	0xbd899136	-0.0671715
26	0x3e08006a	0.13281408
27	0xbd6c8def	-0.057752546
28	0xbd99c031	-0.07507361
29	0xb9a72acf	-0.00031884617
30	0xbc9f0134	-0.019409753
31	0xbd0694f0	-0.03285688
32	0xbdb5b51a	-0.08872433
33	0xbe0b7315	-0.13618119
34	0xbdf70c62	-0.12062909
35	0x3c9f2c5a	0.019430328
36	0x3df951f5	0.12173835
37	0x3d512005	0.051055927
38	0x3d69fdcc	0.057126805
39	0xbd986ffa	-0.07443233
40	0xbdca5207	-0.09878927
41	0xbe011715	-0.12606461
42	0x3d4862d6	0.048922382
43	0x3dbb1e26	0.0913661
44	0xbc2933ea	-0.010327319
45	0x3c5198e8	0.012792803
46	0x3df25ffb	0.11834713
47	0xbd96320f	-0.07333767
48	0xbe1574df	-0.14595364
49	0x3de6b25a	0.112644866
50	0xbd43fcda	-0.04784856
51	0x3cf4dbce	0.029889967
52	0xbdc5ac36	-0.09651987
53	0xbd65bb38	-0.05608675
54	0xbdce34fe	-0.10068701
55	0xbc7c86d0	-0.015413001
56	0x3ddce268	0.10785371
57	0x3df3618b	0.11883839
58	0x3db307f1	0.08741749
59	0x3d9c3d1c	0.07628843
60	0xbe00d2ae	-0.12580368
61	0xbe0d741a	-0.1381382
62	0x3e01aa9c	0.12662739
63	0x3d97ea70	0.07417762
64	0x3d4e92d2	0.050432988
65	0xbd75bb1f	-0.059992906
66	0x3e144953	0.14481096
67	0xbba19bc6	-0.0049318997
68	0x3e0cf3d5	0.1376489
69	0xbd89831c	-0.0671446
70	0xbdc221f8	-0.09479135
71	0xbaf323d4	-0.0018550106
72	0xbd99ca58	-0.07509297
73	0x3cafa5d8	0.021441385
74	0x3df2545d	0.11832497
75	0xbd2279be	-0.039666884
76	0x3de07a51	0.1096083
77	0xbe0168fe	-0.12637708
78	0x3d4a1c21	0.049343232
79	0xbdb618a2	-0.08891417
80	0x3db74e3d	0.0895047
81	0xbd91a938	-0.07112354
82	0xbe090788	-0.13381779
83	0x3d1e7a85	0.038691062
84	0x3e056627	0.1302725
85	0xbdee3fe5	-0.11633281
86	0xbdfa71a0	-0.122287035
87	0x3c7c385d	0.015394297
88	0x3c303cf6	0.010756722
89	0x3e193201	0.14960481
90	0xbd015e59	-0.031584118
91	0xbbd7a92b	-0.0065814457
92	0x3d68fd9c	0.056882486
93	0xbdb99aba	-0.09062715
94	0x3de3e35d	0.111273505
95	0x3cc33ecb	0.023833653
96	0x3e0f6761	0.1400428
97	0xbcaabed2	-0.020842943
98	0xbda76064	-0.08172682
99	0x3e13346c	0.14375466
100	0x3e178c7e	0.14799687
101	0xbe028908	-0.12747586
102	0x3de5c0b6	0.11218397
103	0xbcede8a5	-0.029041598
104	0xbcbc43d2	-0.022981558
105	0x3d48c34d	0.04901438
106	0x3d3e3e47	0.04644611
107	0x3e15b787	0.14620791
108	0xbe184257	-0.14869057
109	0xbba436e2	-0.0050114254
110	0xbb8b0942	-0.004243047
111	0x3d196d38	0.037457675
112	0xbdc46caf	-0.09591042
113	0x3d90ab8a	0.070639685
114	0xbe1227b1	-0.14272954
115	0xbdb6f2aa	-0.08933003
116	0x3deab00f	0.11459362
117	0x3de77f0d	0.1130353
118	0x3dc1508e	0.09439193
119	0x3de94a5e	0.113911375
120	0xbdcc966a	-0.09989627
121	0xbe078a96	-0.1323646
122	0x3e048a85	0.12943466
123	0x3dc76ad3	0.09737172
124	0xbceca37d	-0.028886551
125	0x3ca01779	0.019542443
126	0xbda955dd	-0.0826833
127	0x3d4d9e78	0.050199956
128	0xbe042794	-0.12905723
129	0xbe117a02	-0.14206699
130	0x3def0919	0.11671657
131	0xbce6c53f	-0.028170226
132	0x3d187d7d	0.03722905
133	0x3da14a52	0.078755036
134	0xbd943439	-0.07236523
135	0x3cee58ce	0.02909508
136	0x3c9aba10	0.01888755
137	0xbd6986ac	-0.0570132
138	0xbd8c1fce	-0.06842004
139	0x3d714027	0.05889907
140	0xbda0ffa6	-0.07861261
141	0xbc394e61	-0.011310191
142	0xbd805dc5	-0.06267885
143	0x3dcb56ab	0.0992864
144	0xbda97560	-0.08274341
145	0xbdaec94b	-0.08534487
146	0xbb1205f7	-0.0022281387
147	0xbd5d3eb7	-0.054014888
148	0xbdc4dbf7	-0.096122675
149	0xbe11159b	-0.14168398
150	0xbe08ed9d	-0.13371892
151	0x3ca377dc	0.019954614
152	0x3c279c56	0.0102301445
153	0x3ce8d5fc	0.028422348
154	0x3d027aa2	0.031855233
155	0xbd153052	-0.036423035
156	0x3d131bb7	0.035915103
157	0x3d40e014	0.047088698
158	0x3d4b247b	0.049595337
159	0x3d10bdfa	0.035337426
160	0xbe00bbf4	-0.12571698
161	0x3dd6f471	0.10495842
162	0xbe15233b	-0.1456422
163	0x3d9a7d3e	0.07543419
164	0x3db6442a	0.0889972
165	0x3dd28770	0.10279739
166	0xbcf3254b	-0.029680869
167	0x3d07ad05	0.03312399
168	0x3d803f70	0.062621
169	0xbe117030	-0.14202952
170	0x3d848446	0.06470542
171	0xbd8399bb	-0.06425806
172	0xbe01260f	-0.12612174
173	0x3c61958b	0.013768564
174	0xbdef8fe6	-0.11697368
175	0xbe147cb9	-0.14500703
176	0x3e0d3ca2	0.13792661
177	0x3d49b6e9	0.049246702
178	0x3d51f27f	0.051256653
179	0xbd93c82a	-0.07215913
180	0xbd442e7f	-0.047895905
181	0x3d975553	0.07389321
182	0xb9e55040	-0.00043738075
183	0x3dcb6444	0.099312335
184	0x3c8cd42c	0.017191015
185	0xbe139a77	-0.14414392
186	0xbd1c95d8	-0.03822884
187	0x3c066a33	0.008204031
188	0x3e15f036	0.14642414
189	0xbdedec5f	-0.1161735
190	0x3dc8226f	0.09772193
191	0x3d200d09	0.03907493
192	0x3d2a2f0b	0.04154877
193	0x3e042920	0.12906313
194	0x3d9b8ec9	0.075955935
195	0xbd2de14a	-0.04245118
196	0xbc5b7842	-0.013395371
197	0xbdbd674e	-0.092482194
198	0x3e12a127	0.14319287
199	0x3bede575	0.0072600194
200	0xbd86247f	-0.0654993
201	0xbca2ba4a	-0.01986422
202	0xbe02541f	-0.12727402
203	0x3defc8b4	0.11708203
204	0x3cf088de	0.029362138
205	0xbdf3c40f	-0.119026296
206	0x3d5bd798	0.053672403
207	0xbdbbee91	-0.09176362
208	0xbc87b914	-0.016567744
209	0xbe065ca4	-0.13121277
210	0x3df3b7df	0.11900305
211	0xbe0e0aa8	-0.13871253
212	0x3dc5d3dc	0.096595496
213	0xbc844e87	-0.016150726
214	0xbe0feee8	-0.14055979
215	0x3dad4d22	0.084619775
216	0x3d38130e	0.044940047
217	0xbe12df61	-0.14343025
218	0xbdd9b0bf	-0.10629415
219	0x3de75eec	0.11297402
220	0xbd70bee7	-0.05877581
221	0xbc900b47	-0.017583502
222	0x3e046295	0.12928231
223	0x3ddeda21	0.108814485
224	0xbd584e40	-0.052809
225	0x3d2ad1a2	0.041703828
226	0x3e0b99f8	0.13632953
227	0x3e0d3b4b	0.1379215
228	0x3d3add63	0.045621287
229	0xbd799457	-0.060932484
230	0x3e005fa7	0.12536488
231	0xbde92bd8	-0.11385316
232	0x3e02573c	0.1272859
233	0x3dafe40d	0.08588419
234	0x3d2f201b	0.042755228
235	0x3d50330b	0.05082993
236	0xbe12c5ee	-0.14333317
237	0x3e001fb9	0.12512101
238	0x3d975eb3	0.07391109
239	0x3e02bd9d	0.12767644
240	0xbe0e9795	-0.13925011
241	0x3e166de5	0.14690359
242	0xbe1e7bcc	-0.15476912
243	0xbdc0ad1d	-0.09408019
244	0x3c0ebaab	0.008711497
245	0x3bfbd98d	0.007685846
246	0xbdae16cc	-0.08500442
247	0x3e0376a9	0.12838234
248	0x3dcc704e	0.09982358
249	0xbbc175bc	-0.0059039276
250	0xbb54667c	-0.0032409718
251	0x3de0a0c2	0.10968162
252	0xbdcb64a4	-0.09931305
253	0xbcf9bfad	-0.030486906
254	0x3d2e20e4	0.042511836
255	0xbdc97f17	-0.098386936

gat2.att_src f4 [1, 1, 64]
0	0x3e11eb09	0.14249815
1	0xbe084c77	-0.13310419
2	0xbe81487a	-0.25250608
3	0xbe274b4e	-0.1633732
4	0xbe091755	-0.13387807
5	0xbd946732	-0.072462454
6	0xbe1752ee	-0.14777729
7	0xbe3508cb	-0.17679136
8	0x3e6ed0c9	0.23321833
9	0xbe97d243	-0.29652604
10	0x3ddc846b	0.10767444
11	0x3e75696f	0.23966001
12	0x3d7c89d8	0.061654896
13	0x3e8b9993	0.27265605
14	0x384a02f9	4.816332e-05
15	0xbd05d5a0	-0.03267443
16	0xbe5ec877	-0.21756159
17	0xbd99fa32	-0.07518424
18	0xbd8cdcdc	-0.06878063
19	0x3e56443d	0.20924468
20	0xbe246f62	-0.16058114
21	0xbe90b44b	-0.28262553
22	0x3df1366c	0.11777958
23	0xbd99ec8d	-0.075158216
24	0x3e83361b	0.25627217
25	0xbe0e8938	-0.13919532
26	0x3e975542	0.29557234
27	0x3e8e0181	0.27735522
28	0x3e0651ec	0.13117188
29	0x3e6a79bc	0.22898
30	0xbe199c47	-0.15001021
31	0x3e24a105	0.16077049
32	0x3e8f2bc3	0.27963075
33	0x3e867330	0.26259756
34	0x3c276768	0.010217525
35	0x3ca11060	0.019661129
36	0xbe743a29	-0.23850311
37	0x3d48f6a7	0.04906335
38	0x3e36058f	0.17775558
39	0xbe675041	-0.22589208
40	0xbe2abca1	-0.16673519
41	0xbe66dd31	-0.22545315
42	0xbe13c578	-0.14430797
43	0xbe12a804	-0.14321905
44	0xbcf50809	-0.029911058
45	0xbe438d0a	-0.19096771
46	0x3e15b961	0.14621498
47	0x3e122ba5	0.14274462
48	0x3e93f5ea	0.28898555
49	0x3e5c6f56	0.21526846
50	0x3e605a33	0.21909408
51	0xbe3a69a4	-0.18204361
52	0x3e444ae1	0.19169189
53	0xbe707b38	-0.23484504
54	0x3d117716	0.03551396
55	0xbe73b8f8	-0.23801029
56	0xbe9a6fc8	-0.30163407
57	0xbd9bb620	-0.07603097
58	0x3dd6c7bb	0.10487314
59	0x3e280f1c	0.16412014
60	0xbdddfbec	-0.10839066
61	0x3e8c4d8c	0.27402914
62	0x3e8b9471	0.2726169
63	0x3e955e50	0.29173517

gat2.att_dst f4 [1, 1, 64]
0	0xbe930c65	-0.28720394
1	0xbdfe071e	-0.12403701
2	0xbdc8f8fd	-0.09813116
3	0x3da97029	0.08273346
4	0x3e79557c	0.24349016
5	0xbd6bddda	-0.05758462
6	0xbdf09a94	-0.117482334
7	0xbd7eeb1c	-0.062235937
8	0xbe046eb0	-0.12932849
9	0x3e591304	0.2119866
10	0xbe3479da	-0.17624608
11	0x3dbb75c8	0.09153324
12	0x3e1bb28a	0.15204826
13	0xbe8aded5	-0.27123132
14	0xbdff87b9	-0.12477059
15	0xbc93fdc7	-0.018065346
16	0x3e5b744b	0.21431081
17	0x3d25c12d	0.04046743
18	0xbe0d9d96	-0.13829646
19	0xbc8cd35f	-0.017190633
20	0x3dfa6680	0.122265816
21	0xbd105994	-0.03524168
22	0xbdf18a80	-0.11793995
23	0x3d1ed22a	0.038774647
24	0xbe48dbb2	-0.19615057
25	0xbe039999	-0.12851562
26	0xbdd48c3f	-0.10378312
27	0x3e8ba575	0.2727467
28	0x3d172232	0.036897846
29	0x3e745ad0	0.23862767
30	0xbe1c0d9b	-0.15239565
31	0xbdd29ea5	-0.10284165
32	0xbe3c5f68	-0.1839577
33	0x3cad142a	0.021127779
34	0x3e758fa3	0.23980574
35	0x3e3b11f3	0.18268566
36	0xbe9a696e	-0.3015856
37	0x3e0de7f4	0.13858014
38	0x3e5d2212	0.21595028
39	0x3e997a74	0.29976237
40	0x3e950bbf	0.29110524
41	0x3de2aaed	0.11067758
42	0xbe5ee9ff	-0.2176895
43	0x3e8b1ecd	0.27171937
44	0xbc8a9499	-0.01691656
45	0xbd23855a	-0.039922096
46	0x3e67aa66	0.22623596
47	0x3e409d89	0.18810095
48	0xbb986d43	-0.004651697
49	0x3b97ab9d	0.004628612
50	0xbde03dc0	-0.10949278
51	0xbd1dc1d7	-0.03851494
52	0xbd8d1948	-0.06889588
53	0x3d2f98c0	0.042870283
54	0x3e0b2c84	0.135912
55	0x3e7e406b	0.24829261
56	0xbcda519d	-0.026650244
57	0x3e8d7987	0.2763178
58	0x3e5c1e25	0.21495874
59	0x3e52bc17	0.20579563
60	0x3e309ea4	0.17248017
61	0x3e873d7f	0.26414105
62	0x3e0cd2a5	0.1375223
63	0xbd225a12	-0.03963668

gat2.bias f4 [64]
0	0x35b8fba4	1.3782305e-06
1	0xb7fcdd6b	-3.0143847e-05
2	0xb6491098	-2.9960993e-06
3	0x374e4682	1.2294973e-05
4	0xb5410139	-7.189988e-07
5	0x36088b5c	2.0346697e-06
6	0x35ac72b8	1.2848386e-06
7	0xb666a20d	-3.4366997e-06
8	0x35650213	8.5312166e-07
9	0xb5f95ae9	-1.8578404e-06
10	0xb5b69273	-1.3602679e-06
11	0xb55dbd70	-8.2604583e-07
12	0x352cb501	6.433839e-07
13	0xb5813dc5	-9.629226e-07
14	0x3595b71e	1.1154659e-06
15	0xb705fcda	-7.986289e-06
16	0xb631fea8	-2.6523285e-06
17	0x36e10537	6.7061296e-06
18	0x36013026	1.9250524e-06
19	0xb642992d	-2.8997413e-06
20	0x362e8dc5	2.6010541e-06
21	0xb5ddacd9	-1.6516088e-06
22	0x356f9368	8.924894e-07
23	0x34c15801	3.6013083e-07
24	0xb653f812	-3.1585846e-06
25	0xb2dcc3c2	-2.5700391e-08
26	0x35f38e96	1.8146409e-06
27	0xb65fcc86	-3.3348638e-06
28	0xb4ba7b5b	-3.4734953e-07
29	0xb514b94a	-5.540393e-07
30	0xb7b8f0de	-2.2046672e-05
31	0xb4b54875	-3.3766597e-07
32	0x36c87149	5.9736526e-06
33	0xb73a37ff	-1.10995015e-05
34	0x36c63823	5.907395e-06
35	0x3628e4c0	2.51671e-06
36	0x3644e0ca	2.933712e-06
37	0xb2278a3b	-9.752109e-09
38	0x36678da4	3.4504128e-06
39	0xb553aa5b	-7.8851525e-07
40	0xb6e436ca	-6.801308e-06
41	0x35239105	6.0933263e-07
42	0x3764b28d	1.3631431e-05
43	0xb7a461af	-1.9595811e-05
44	0xb64df75d	-3.0691365e-06
45	0x365e4918	3.3123124e-06
46	0x364dedc6	3.0685783e-06
47	0xb5658421	-8.550142e-07
48	0xb7333b25	-1.0683002e-05
49	0x35b832ef	1.3723892e-06
50	0x36bdb3f5	5.6535887e-06
51	0xb58a85db	-1.0320758e-06
52	0xb5dd0b74	-1.6469116e-06
53	0xb4b5aad8	-3.3838182e-07
54	0x35c98ffd	1.5017573e-06
55	0x3653a77f	3.1538946e-06
56	0xb5deb816	-1.6593865e-06
57	0xb5796ae6	-9.2915286e-07
58	0x350fa832	5.351641e-07
59	0x35895863	1.0233019e-06
60	0x36c80e6c	5.9621434e-06
61	0xb58ccaec	-1.0489871e-06
62	0xb5ed4a4b	-1.7679498e-06
63	0x3698e32a	4.5563984e-06

gat2.lin.weight f4 [64, 256]
0	0xbd130f5d	-0.035903323
1	0x3d450368	0.04809895
2	0xbd0c886e	-0.034309797
3	0x3d91e764	0.071242124
4	0xbcfb7761	-0.030696573
5	0x3dd458c9	0.10368497
6	0xbd927882	-0.07151891
7	0xbe07e6b0	-0.13271594
8	0xbca6fcff	-0.02038431
9	0xbcaafddc	-0.020873003
10	0x3d9b0421	0.07569147
11	0x3df94da5	0.12173013
12	0x3d3df505	0.046376247
13	0xbd94295e	-0.07234453
14	0x3d09d991	0.033654753
15	0xbd1658b6	-0.036705695
16	0xbdccd45f	-0.10001444
17	0x3c1ce81b	0.009576823
18	0xbc512577	-0.01276528
19	0x3dfd506d	0.123688556
20	0x3b522d70	0.003207054
21	0x3d804b9e	0.06264423
22	0xbcf14d12	-0.029455695
23	0x3d0bfc07	0.0341759
24	0x3c6349cc	0.013872575
25	0x3cf38ddc	0.02973073
26	0x3d96e04a	0.073669985
27	0x3d8eb049	0.069672175
28	0xbd76af0f	-0.060225543
29	0xbd9b3799	-0.07578964
30	0xbd37ae57	-0.044843998
31	0x3dbdbf1c	0.09264967
32	0x3df37a82	0.11888601
33	0xbd376327	-0.044772293
34	0xbc88b6f7	-0.016688807
35	0x3d0a21a0	0.033723474
36	0x3dcdf9eb	0.10057434
37	0x3dd3551f	0.1031897
38	0x3c82d369	0.015969949
39	0xbc875934	-0.016522028
40	0x3db604df	0.08887648
41	0x3d1e83f6	0.038700067
42	0x3d6fea45	0.058573026
43	0x3cecd18f	0.02890852
44	0x3d087922	0.033318646
45	0xbcb9cd4b	-0.0226809
46	0xbdbae8d7	-0.09126442
47	0xbde2577f	-0.11051845
48	0x3cc94496	0.024568837
49	0xbd023c8f	-0.031796034
50	0xbdab8810	-0.08375561
51	0x3c423807	0.011854178
52	0xbcb1ad25	-0.021689007
53	0xbde7da6f	-0.1132096
54	0x3ce9ffdf	0.028564392
55	0xbdee6059	-0.116394706
56	0x3d08e4e9	0.03342143
57	0x3c9f91ba	0.019478668
58	0x3e003a61	0.1252227
59	0x3de0533f	0.10953378
60	0x3d92df73	0.07171526
61	0xbcdf6a22	-0.027272288
62	0xbd82dddd	-0.06389973
63	0x3d63c012	0.055603094
64	0x3bdf36c6	0.0068119494
65	0x3d42ef6d	0.047591615
66	0xbde99d79	-0.11406989
67	0x3acb3f91	0.0015506615
68	0x3dfbeaf4	0.12300673
69	0x3c24a9c7	0.010050244
70	0xba6e4ccb	-0.00090904225
71	0x3dbd95dd	0.092571
72	0x3d67d976	0.05660387
73	0x3b6a8ff2	0.0035791364
74	0x3da6bae4	0.08141115
75	0x3e0bdd81	0.13658716
76	0xbdec7243	-0.11545231
77	0x3d9aca21	0.07558084
78	0xbdcd6dbc	-0.10030696
79	0xbc051854	-0.008123476
80	0xbdf62aa2	-0.1201985
81	0x3d54b94b	0.05193452
82	0xbdb32451	-0.08747161
83	0xbd7709a5	-0.060311932
84	0xbe00d226	-0.12580165
85	0xbdfc332d	-0.123144485
86	0xbdef8b41	-0.116964824
87	0x3d6f81a2	0.058473237
88	0xbdb985fa	-0.09058757
89	0xbd17aec3	-0.0370319
90	0xbcd3c617	-0.025851293
91	0x3c898d7b	0.016791096
92	0xbd080aaa	-0.033213295
93	0xbd2daa67	-0.042398836
94	0x3cb10899	0.021610545
95	0xbdd966d5	-0.10615317
96	0x3d1deffa	0.038558938
97	0x3ddf8b6d	0.10915265
98	0x3de402c6	0.111333415
99	0x3d8d35e6	0.06895046
100	0x3dd5d9b5	0.10441915
101	0xbda70bf6	-0.08156578
102	0x3dc59e56	0.09649341
103	0x3dc5f4a3	0.096658014
104	0xbe04423e	-0.12915894
105	0x3dfcfeff	0.12353324
106	0xbe02be94	-0.12768012
107	0xbd0b871d	-0.0340644
108	0x3d391773	0.04518838
109	0x3df64763	0.12025335
110	0xbd4a3bc8	-0.049373418
111	0x3d0d8c96	0.0345579
112	0x3cf9dafd	0.03049993
113	0xbbba8c2d	-0.00569298
114	0xbdc00aae	-0.09377037
115	0xbd96b5a5	-0.07358865
116	0x3d80518e	0.06265555
117	0x3d22848e	0.039677195
118	0x3dd14152	0.10217537
119	0xbdaf9fd0	-0.08575404
120	0x3d0977f8	0.033561677
121	0x3dbeb598	0.0931198
122	0x3ce3147d	0.02771973
123	0x3d8dccd1	0.06923831
124	0x3bf60a01	0.007508517
125	0x3e0e2e29	0.13884796
126	0x3df4f567	0.11960869
127	0x3d4fd462	0.050739653
128	0x3da0bf7e	0.07849024
129	0x3c923970	0.017849654
130	0x3cadf73f	0.02123606
131	0xbdb5a7be	-0.08869885
132	0xbc3e8fe4	-0.011630986
133	0xbb57a043	-0.003290192
134	0x3dc18563	0.094492696
135	0xbd07b9f4	-0.033136323
136	0x3ddb9d3f	0.10723352
137	0xbdee0cc1	-0.11623526
138	0x3d8c1afa	0.06841083
139	0x3d99196c	0.07475552
140	0x3c8f3a05	0.01748372
141	0xbde64935	-0.11244432
142	0xbe00fc43	-0.1259623
143	0xbd72dac9	-0.05929068
144	0x3d957273	0.0729722
145	0xbd7a71ed	-0.061143804
146	0xbdb49803	-0.088180564
147	0x3de70f2b	0.1128219
148	0x3cec611a	0.028854895
149	0xbcc15fb9	-0.023605214
150	0xbdf67d60	-0.12035632
151	0xbe0e59c9	-0.13901438
152	0xbdcd1b1a	-0.10014935
153	0xbced78fc	-0.028988354
154	0x3d1342cf	0.035952386
155	0xbc6ca9b7	-0.01444476
156	0xbd4df0ee	-0.050278597
157	0x3de6e6e0	0.11274505
158	0x3d20e975	0.039285142
159	0xbd9d2ce9	-0.076745816
160	0x3ddd6d19	0.10811824
161	0xbd579206	-0.052629493
162	0xbdaa2dbc	-0.083095044
163	0xbdc84667	-0.09779053
164	0xbc9dfac4	-0.019284613
165	0x3c7b4883	0.015337112
166	0xbad64352	-0.0016346967
167	0xbd145fed	-0.036224294
168	0xbd58649d	-0.052830327
169	0xbc5ca86d	-0.01346789
170	0xbe0224aa	-0.12709299
171	0xbddca561	-0.10773731
172	0xbd96a322	-0.07355334
173	0x3d8def9f	0.0693047
174	0xbd324976	-0.04352709
175	0xbcce250c	-0.02516415
176	0xbcda67a2	-0.026660744
177	0xbdc87392	-0.09787668
178	0x3d9d8742	0.07691814
179	0x3cd6c5ab	0.026217302
180	0x3de04c51	0.10952056
181	0x3d3ed6b0	0.04659146
182	0x3d20b4a0	0.039234757
183	0xbdd91587	-0.10599809
184	0xbd91fcf3	-0.07128324
185	0x3d873183	0.066012405
186	0xbd1a3f5f	-0.03765809
187	0x3c79c19f	0.015243917
188	0xbdf188ed	-0.11793695
189	0xbb5abe14	-0.0033377456
190	0xbe008f49	-0.12554659
191	0xbdb7c9d4	-0.089740425
192	0xbd8d1aef	-0.06889903
193	0xbe03da40	-0.12876225
194	0xbdc1816c	-0.094485134
195	0xbdbc1603	-0.09183886
196	0xbe046ff9	-0.12933339
197	0xbb0e7f1a	-0.002174324
198	0xbdc3e0f9	-0.095643945
199	0xbd91e5a1	-0.07123876
200	0xbe084d63	-0.1331077
201	0x3e018da1	0.12651683
202	0xbdc8515d	-0.09781144
203	0xbb29f179	-0.0025931282
204	0xbe02d17f	-0.12775229
205	0x3af5fceb	0.0018767392
206	0xbba97b36	-0.0051721586
207	0xbb4c8097	-0.0031204575
208	0x3c19f2f5	0.009396304
209	0x3c48dcea	0.012259701
210	0x3d1ce5a3	0.038304936
211	0x3d9974b9	0.07492966
212	0x3da4a3bb	0.080390416
213	0xbd216fcf	-0.03941327
214	0x3d37ed90	0.04490429
215	0xbde2015d	-0.11035416
216	0x3c4f379e	0.0126475375
217	0xbd54f0af	-0.051987346
218	0x3d938d8a	0.07204731
219	0xbde752e1	-0.11295105
220	0xbd53ed28	-0.05173984
221	0x3d8b001c	0.0678713
222	0xbc6967be	-0.0142459255
223	0x3dc70070	0.0971688
224	0xbdd1392c	-0.10215983
225	0xbdd516bf	-0.10404729
226	0xbd5afee2	-0.05346573
227	0xbdf9787f	-0.12181186
228	0x3cfd2a66	0.030904006
229	0x3c166efd	0.009181735
230	0xbd2cf841	-0.04222894
231	0xbdda2be2	-0.10652901
232	0xbdba5d5e	-0.0909984
233	0xbd89a27c	-0.067204446
234	0xbd85c06b	-0.065308414
235	0xbd981d71	-0.074274905
236	0x3dc77af7	0.097402506
237	0x3b8f5c47	0.004375014
238	0x3c4cb6d0	0.012494758
239	0xbd992af8	-0.07478899
240	0xbd4baac7	-0.049723413
241	0xbddf0966	-0.108904645
242	0xbd92bf2d	-0.0716537
243	0xbd8a5f39	-0.067564435
244	0xbdd565e6	-0.10419826
245	0x3dabf35b	0.08396026
246	0xbd5dadeb	-0.05412094
247	0xbcff8ad8	-0.031194136
248	0x3ddfeafb	0.10933491
249	0x3c6f5cb1	0.014609502
250	0x3dfca785	0.12336639
251	0x3dbd9b13	0.09258094
252	0x3d779ad6	0.060450397
253	0x3df926f5	0.121656336
254	0x3bfef15a	0.007780236
255	0xbdf8d645	-0.12150244

bn1.weight f4 [256]
0	0x3f800682	1.0001986
1	0x3f7f4df3	0.99728316
2	0x3f7edfe6	0.9956039
3	0x3f7e7907	0.99403423
4	0x3f807196	1.0034664
5	0x3f7f9288	0.99832964
6	0x3f805b64	1.002789
7	0x3f7ff7a8	0.9998727
8	0x3f7ebd8f	0.99507993
9	0x3f809f38	1.004859
10	0x3f806c89	1.0033122
11	0x3f7ecf1d	0.9953478
12	0x3f808d24	1.0043073
13	0x3f7ef633	0.9959442
14	0x3f7fb88b	0.99890965
15	0x3f80b4e1	1.00552
16	0x3f80a704	1.0050969
17	0x3f8065de	1.0031087
18	0x3f7ec788	0.9952321
19	0x3f7f3892	0.99695694
20	0x3f7eee3f	0.99582285
21	0x3f7ec274	0.9951546
22	0x3f7ed10f	0.9953775
23	0x3f80341c	1.0015903
24	0x3f808a51	1.0042211
25	0x3f806dd9	1.0033523
26	0x3f80739f	1.0035285
27	0x3f7f9320	0.9983387
28	0x3f7f8abe	0.9982108
29	0x3f7f055c	0.9961755
30	0x3f807417	1.0035428
31	0x3f807733	1.0036377
32	0x3f807a64	1.0037351
33	0x3f7f68e6	0.9976944
34	0x3f802107	1.0010079
35	0x3f7f5971	0.9974585
36	0x3f807373	1.0035232
37	0x3f809856	1.0046489
38	0x3f8070d3	1.0034431
39	0x3f805a99	1.0027648
40	0x3f7eec17	0.99578995
41	0x3f7edf32	0.9955932
42	0x3f7ffec0	0.9999809
43	0x3f808c48	1.004281
44	0x3f7f0232	0.99612725
45	0x3f807d29	1.0038196
46	0x3f8064da	1.0030777
47	0x3f7ed4fb	0.9954373
48	0x3f809b60	1.0047417
49	0x3f7ffe31	0.9999724
50	0x3f8077e8	1.0036592
51	0x3f7f0109	0.99610955
52	0x3f7ee5d9	0.9956947
53	0x3f7f4d93	0.99727744
54	0x3f7f3055	0.99683124
55	0x3f805921	1.00272
56	0x3f8061bf	1.002983
57	0x3f7eeb6d	0.9957798
58	0x3f8018b0	1.0007534
59	0x3f7ede61	0.99558073
60	0x3f7fd593	0.99935263
61	0x3f80847b	1.004043
62	0x3f7f332a	0.99687445
63	0x3f7f72a0	0.9978428
64	0x3f7e9467	0.99445194
65	0x3f7f2173	0.99660414
66	0x3f7f1aa4	0.99650025
67	0x3f7fa309	0.99858147
68	0x3f7f2390	0.9966364
69	0x3f7f1c70	0.9965277
70	0x3f80a8b5	1.0051485
71	0x3f7f0539	0.99617344
72	0x3f7f1632	0.9964324
73	0x3f80763e	1.0036085
74	0x3f803567	1.0016297
75	0x3f80918a	1.0044415
76	0x3f80297b	1.0012659
77	0x3f7fd705	0.9993747
78	0x3f7f08be	0.99622715
79	0x3f806e9e	1.0033758
80	0x3f80697d	1.0032192
81	0x3f7eddf8	0.9955745
82	0x3f804ad1	1.0022832
83	0x3f80784d	1.0036713
84	0x3f7f2106	0.99659765
85	0x3f806c70	1.0033092
86	0x3f7f3575	0.99690944
87	0x3f806b6b	1.0032781
88	0x3f7f3000	0.9968262
89	0x3f8099fe	1.0046995
90	0x3f7f34ca	0.99689925
91	0x3f7ed612	0.99545395
92	0x3f80391e	1.0017431
93	0x3f80a3d5	1.0049998
94	0x3f807767	1.0036439
95	0x3f7ec632	0.9952117
96	0x3f7fd7b0	0.9993849
97	0x3f8061a8	1.0029802
98	0x3f7fb57c	0.998863
99	0x3f802ce8	1.0013704
100	0x3f8021a2	1.0010264
101	0x3f7f7563	0.9978849
102	0x3f7f4319	0.9971176
103	0x3f7f0997	0.9962401
104	0x3f7ea6d8	0.99473333
105	0x3f7f3b1e	0.9969958
106	0x3f7ef6a1	0.99595076
107	0x3f7edc4c	0.99554896
108	0x3f7f1d27	0.9965386
109	0x3f800d73	1.0004104
110	0x3f7f4f20	0.9973011
111	0x3f7ec26e	0.99515426
112	0x3f7f9db5	0.99850017
113	0x3f8093bb	1.0045084
114	0x3f7f036f	0.99614614
115	0x3f7fd9de	0.99941814
116	0x3f7f34cc	0.99689937
117	0x3f7f3531	0.9969054
118	0x3f7f12ab	0.9963786
119	0x3f7f1629	0.9964319
120	0x3f7ee3f1	0.9956656
121	0x3f804fb0	1.0024319
122	0x3f808168	1.0039492
123	0x3f7f5e41	0.99753195
124	0x3f7f0a7f	0.9962539
125	0x3f80b502	1.0055239
126	0x3f805fef	1.0029277
127	0x3f806697	1.0031308
128	0x3f7f401a	0.99707186
129	0x3f7f133d	0.9963873
130	0x3f806d43	1.0033344
131	0x3f7efcb9	0.99604374
132	0x3f808db5	1.0043246
133	0x3f806f6f	1.0034007
134	0x3f8051b6	1.0024936
135	0x3f80a3fd	1.0050045
136	0x3f7f1bf0	0.99652004
137	0x3f80b827	1.0056199
138	0x3f7f16f1	0.9964438
139	0x3f7efe2b	0.9960658
140	0x3f8069f3	1.0032333
141	0x3f806b03	1.0032657
142	0x3f7ede2d	0.99557763
143	0x3f8064f0	1.0030804
144	0x3f806717	1.003146
145	0x3f8079f8	1.0037222
146	0x3f806524	1.0030866
147	0x3f8065c9	1.0031062
148	0x3f7f317a	0.9968487
149	0x3f807d9c	1.0038333
150	0x3f7f0c99	0.996286
151	0x3f808659	1.0041
152	0x3f7f0e3c	0.99631095
153	0x3f8095a4	1.0045667
154	0x3f7f82c9	0.9980894
155	0x3f8034b0	1.0016079
156	0x3f807b1f	1.0037574
157	0x3f807ed9	1.0038711
158	0x3f7eef15	0.9958356
159	0x3f7f159a	0.99642336
160	0x3f7f17ad	0.996455
161	0x3f7fe630	0.99960613
162	0x3f7f0047	0.996098
163	0x3f7ea663	0.99472636
164	0x3f7ec576	0.9952005
165	0x3f80148f	1.0006274
166	0x3f7f864d	0.998143
167	0x3f7f235e	0.9966334
168	0x3f800aa6	1.000325
169	0x3f7efca0	0.99604225
170	0x3f802b9c	1.0013309
171	0x3f80886f	1.0041636
172	0x3f802b87	1.0013283
173	0x3f807dec	1.0038428
174	0x3f7fce86	0.99924505
175	0x3f7f2497	0.99665207
176	0x3f7f87ae	0.99816406
177	0x3f80939c	1.0045047
178	0x3f7f75ba	0.9978901
179	0x3f807f89	1.0038921
180	0x3f807874	1.0036759
181	0x3f808c91	1.0042897
182	0x3f7f1887	0.996468
183	0x3f802d2d	1.0013787
184	0x3f80671c	1.0031466
185	0x3f7ee0b6	0.9956163
186	0x3f7f92bd	0.9983328
187	0x3f80ab05	1.0052191
188	0x3f7ee92e	0.99574554
189	0x3f7f2c69	0.9967714
190	0x3f8081f1	1.0039655
191	0x3f80136f	1.0005931
192	0x3f7f0db9	0.99630314
193	0x3f8036cd	1.0016724
194	0x3f7ecced	0.9953144
195	0x3f804592	1.0021231
196	0x3f8091fe	1.0044553
197	0x3f7edbb6	0.99554
198	0x3f804a65	1.0022703
199	0x3f7ecf79	0.9953533
200	0x3f80775a	1.0036423
201	0x3f808ec1	1.0043565
202	0x3f7f2ecb	0.99680775
203	0x3f7f3c5a	0.99701464
204	0x3f803e8b	1.0019087
205	0x3f7ecbbd	0.9952963
206	0x3f8079e1	1.0037194
207	0x3f7eddbb	0.99557084
208	0x3f7f1c7b	0.9965283
209	0x3f8089e3	1.004208
210	0x3f7ec462	0.99518406
211	0x3f806a2d	1.0032402
212	0x3f807928	1.0036974
213	0x3f7ee2c5	0.9956477
214	0x3f7ef4b2	0.99592125
215	0x3f7eb30f	0.9949197
216	0x3f7f1af4	0.996505
217	0x3f809a9e	1.0047185
218	0x3f80211e	1.0010107
219	0x3f7f1cb1	0.99653155
220	0x3f80858c	1.0040755
221	0x3f7eee1a	0.99582064
222	0x3f7ea7bf	0.9947471
223	0x3f7f12a3	0.9963781
224	0x3f805435	1.0025698
225	0x3f7f8c76	0.998237
226	0x3f804b59	1.0022994
227	0x3f7ef706	0.9959568
228	0x3f809a7e	1.0047147
229	0x3f7f890d	0.998185
230	0x3f7fb1bb	0.9988057
231	0x3f7f3281	0.9968644
232	0x3f7ee2b0	0.9956465
233	0x3f804ce2	1.0023463
234	0x3f803402	1.0015872
235	0x3f7f3820	0.99695015
236	0x3f7f1215	0.99636966
237	0x3f7fde91	0.99948984
238	0x3f7ed455	0.9954274
239	0x3f7efddf	0.99606127
240	0x3f8047ee	1.0021951
241	0x3f8016a5	1.000691
242	0x3f7fbd3b	0.9989812
243	0x3f80590c	1.0027175
244	0x3f805154	1.0024819
245	0x3f808d61	1.0043145
246	0x3f7ed1b2	0.9953872
247	0x3f808025	1.0039107
248	0x3f8001fa	1.0000603
249	0x3f80a2fc	1.0049739
250	0x3f7f5ef4	0.9975426
251	0x3f80a270	1.0049572
252	0x3f8059ba	1.0027382
253	0x3f7f2e10	0.9967966
254	0x3f80213f	1.0010146
255	0x3f803d4c	1.0018706
